…
I1110 15:11:30.739163 104912 net.cpp:294] The NetState phase (0) differed from the phase (1) specified by a rule in layer accuracy/top5
I1110 15:11:30.739292 104912 net.cpp:51] Initializing net from parameters: 
name: "VGG_ILSVRC_19_layers"
state {
  phase: TRAIN
  level: 0
  stage: ""
}
layer {
  name: "data"
  type: "Data"
  top: "data"
  top: "label"
  include {
    phase: TRAIN
  }
  transform_param {
    mirror: true
    crop_size: 224
    mean_value: 104
    mean_value: 117
    mean_value: 123
  }
  data_param {
    source: "/home/yuchaohui/ych/caffe_ych/data/chaai/train/img_train_lmdb"
    batch_size: 32
    backend: LMDB
  }
}
layer {
  name: "conv1_1"
  type: "Convolution"
  bottom: "data"
  top: "conv1_1"
  convolution_param {
    num_output: 64
    pad: 1
    kernel_size: 3
  }
}
layer {
  name: "relu1_1"
  type: "ReLU"
  bottom: "conv1_1"
  top: "conv1_1"
}
layer {
  name: "conv1_2"
  type: "Convolution"
  bottom: "conv1_1"
  top: "conv1_2"
  convolution_param {
    num_output: 64
    pad: 1
    kernel_size: 3
  }
}
layer {
  name: "relu1_2"
  type: "ReLU"
  bottom: "conv1_2"
  top: "conv1_2"
}
layer {
  name: "pool1"
  type: "Pooling"
  bottom: "conv1_2"
  top: "pool1"
  pooling_param {
    pool: MAX
    kernel_size: 2
    stride: 2
  }
}
layer {
  name: "conv2_1"
  type: "Convolution"
  bottom: "pool1"
  top: "conv2_1"
  convolution_param {
    num_output: 128
    pad: 1
    kernel_size: 3
  }
}
layer {
  name: "relu2_1"
  type: "ReLU"
  bottom: "conv2_1"
  top: "conv2_1"
}
layer {
  name: "conv2_2"
  type: "Convolution"
  bottom: "conv2_1"
  top: "conv2_2"
  convolution_param {
    num_output: 128
    pad: 1
    kernel_size: 3
  }
}
layer {
  name: "relu2_2"
  type: "ReLU"
  bottom: "conv2_2"
  top: "conv2_2"
}
layer {
  name: "pool2"
  type: "Pooling"
  bottom: "conv2_2"
  top: "pool2"
  pooling_param {
    pool: MAX
    kernel_size: 2
    stride: 2
  }
}
layer {
  name: "conv3_1"
  type: "Convolution"
  bottom: "pool2"
  top: "conv3_1"
  convolution_param {
    num_output: 256
    pad: 1
    kernel_size: 3
  }
}
layer {
  name: "relu3_1"
  type: "ReLU"
  bottom: "conv3_1"
  top: "conv3_1"
}
layer {
  name: "conv3_2"
  type: "Convolution"
  bottom: "conv3_1"
  top: "conv3_2"
  convolution_param {
    num_output: 256
    pad: 1
    kernel_size: 3
  }
}
layer {
  name: "relu3_2"
  type: "ReLU"
  bottom: "conv3_2"
  top: "conv3_2"
}
layer {
  name: "conv3_3"
  type: "Convolution"
  bottom: "conv3_2"
  top: "conv3_3"
  convolution_param {
    num_output: 256
    pad: 1
    kernel_size: 3
  }
}
layer {
  name: "relu3_3"
  type: "ReLU"
  bottom: "conv3_3"
  top: "conv3_3"
}
layer {
  name: "conv3_4"
  type: "Convolution"
  bottom: "conv3_3"
  top: "conv3_4"
  convolution_param {
    num_output: 256
    pad: 1
    kernel_size: 3
  }
}
layer {
  name: "relu3_4"
  type: "ReLU"
  bottom: "conv3_4"
  top: "conv3_4"
}
layer {
  name: "pool3"
  type: "Pooling"
  bottom: "conv3_4"
  top: "pool3"
  pooling_param {
    pool: MAX
    kernel_size: 2
    stride: 2
  }
}
layer {
  name: "conv4_1"
  type: "Convolution"
  bottom: "pool3"
  top: "conv4_1"
  convolution_param {
    num_output: 512
    pad: 1
    kernel_size: 3
  }
}
layer {
  name: "relu4_1"
  type: "ReLU"
  bottom: "conv4_1"
  top: "conv4_1"
}
layer {
  name: "conv4_2"
  type: "Convolution"
  bottom: "conv4_1"
  top: "conv4_2"
  convolution_param {
    num_output: 512
    pad: 1
    kernel_size: 3
  }
}
layer {
  name: "relu4_2"
  type: "ReLU"
  bottom: "conv4_2"
  top: "conv4_2"
}
layer {
  name: "conv4_3"
  type: "Convolution"
  bottom: "conv4_2"
  top: "conv4_3"
  convolution_param {
    num_output: 512
    pad: 1
    kernel_size: 3
  }
}
layer {
  name: "relu4_3"
  type: "ReLU"
  bottom: "conv4_3"
  top: "conv4_3"
}
layer {
  name: "conv4_4"
  type: "Convolution"
  bottom: "conv4_3"
  top: "conv4_4"
  convolution_param {
    num_output: 512
    pad: 1
    kernel_size: 3
  }
}
layer {
  name: "relu4_4"
  type: "ReLU"
  bottom: "conv4_4"
  top: "conv4_4"
}
layer {
  name: "pool4"
  type: "Pooling"
  bottom: "conv4_4"
  top: "pool4"
  pooling_param {
    pool: MAX
    kernel_size: 2
    stride: 2
  }
}
layer {
  name: "conv5_1"
  type: "Convolution"
  bottom: "pool4"
  top: "conv5_1"
  convolution_param {
    num_output: 512
    pad: 1
    kernel_size: 3
  }
}
layer {
  name: "relu5_1"
  type: "ReLU"
  bottom: "conv5_1"
  top: "conv5_1"
}
layer {
  name: "conv5_2"
  type: "Convolution"
  bottom: "conv5_1"
  top: "conv5_2"
  convolution_param {
    num_output: 512
    pad: 1
    kernel_size: 3
  }
}
layer {
  name: "relu5_2"
  type: "ReLU"
  bottom: "conv5_2"
  top: "conv5_2"
}
layer {
  name: "conv5_3"
  type: "Convolution"
  bottom: "conv5_2"
  top: "conv5_3"
  convolution_param {
    num_output: 512
    pad: 1
    kernel_size: 3
  }
}
layer {
  name: "relu5_3"
  type: "ReLU"
  bottom: "conv5_3"
  top: "conv5_3"
}
layer {
  name: "conv5_4"
  type: "Convolution"
  bottom: "conv5_3"
  top: "conv5_4"
  convolution_param {
    num_output: 512
    pad: 1
    kernel_size: 3
  }
}
layer {
  name: "relu5_4"
  type: "ReLU"
  bottom: "conv5_4"
  top: "conv5_4"
}
layer {
  name: "pool5"
  type: "Pooling"
  bottom: "conv5_4"
  top: "pool5"
  pooling_param {
    pool: MAX
    kernel_size: 2
    stride: 2
  }
}
layer {
  name: "fc6"
  type: "InnerProduct"
  bottom: "pool5"
  top: "fc6"
  inner_product_param {
    num_output: 4096
  }
}
layer {
  name: "relu6"
  type: "ReLU"
  bottom: "fc6"
  top: "fc6"
}
layer {
  name: "drop6"
  type: "Dropout"
  bottom: "fc6"
  top: "fc6"
  dropout_param {
    dropout_ratio: 0.5
  }
}
layer {
  name: "fc7"
  type: "InnerProduct"
  bottom: "fc6"
  top: "fc7"
  inner_product_param {
    num_output: 4096
  }
}
layer {
  name: "relu7"
  type: "ReLU"
  bottom: "fc7"
  top: "fc7"
}
layer {
  name: "drop7"
  type: "Dropout"
  bottom: "fc7"
  top: "fc7"
  dropout_param {
    dropout_ratio: 0.5
  }
}
layer {
  name: "fc8_re"
  type: "InnerProduct"
  bottom: "fc7"
  top: "fc8"
  inner_product_param {
    num_output: 80
  }
}
layer {
  name: "loss"
  type: "SoftmaxWithLoss"
  bottom: "fc8"
  bottom: "label"
  top: "loss/loss"
}
I1110 15:11:30.739439 104912 layer_factory.hpp:77] Creating layer data
I1110 15:11:30.739532 104912 db_lmdb.cpp:35] Opened lmdb /home/yuchaohui/ych/caffe_ych/data/chaai/train/img_train_lmdb
I1110 15:11:30.739572 104912 net.cpp:84] Creating Layer data
I1110 15:11:30.739580 104912 net.cpp:380] data -> data
I1110 15:11:30.739598 104912 net.cpp:380] data -> label
I1110 15:11:30.740682 104912 data_layer.cpp:45] output data size: 32,3,224,224
I1110 15:11:30.782315 104912 net.cpp:122] Setting up data
I1110 15:11:30.782356 104912 net.cpp:129] Top shape: 32 3 224 224 (4816896)
I1110 15:11:30.782361 104912 net.cpp:129] Top shape: 32 (32)
I1110 15:11:30.782363 104912 net.cpp:137] Memory required for data: 19267712
I1110 15:11:30.782382 104912 layer_factory.hpp:77] Creating layer conv1_1
I1110 15:11:30.782409 104912 net.cpp:84] Creating Layer conv1_1
I1110 15:11:30.782416 104912 net.cpp:406] conv1_1 <- data
I1110 15:11:30.782428 104912 net.cpp:380] conv1_1 -> conv1_1
I1110 15:11:30.784981 104912 net.cpp:122] Setting up conv1_1
I1110 15:11:30.785046 104912 net.cpp:129] Top shape: 32 64 224 224 (102760448)
I1110 15:11:30.785056 104912 net.cpp:137] Memory required for data: 430309504
I1110 15:11:30.785096 104912 layer_factory.hpp:77] Creating layer relu1_1
I1110 15:11:30.785118 104912 net.cpp:84] Creating Layer relu1_1
I1110 15:11:30.785130 104912 net.cpp:406] relu1_1 <- conv1_1
I1110 15:11:30.785142 104912 net.cpp:367] relu1_1 -> conv1_1 (in-place)
I1110 15:11:30.785161 104912 net.cpp:122] Setting up relu1_1
I1110 15:11:30.785172 104912 net.cpp:129] Top shape: 32 64 224 224 (102760448)
I1110 15:11:30.785181 104912 net.cpp:137] Memory required for data: 841351296
I1110 15:11:30.785189 104912 layer_factory.hpp:77] Creating layer conv1_2
I1110 15:11:30.785205 104912 net.cpp:84] Creating Layer conv1_2
I1110 15:11:30.785213 104912 net.cpp:406] conv1_2 <- conv1_1
I1110 15:11:30.785228 104912 net.cpp:380] conv1_2 -> conv1_2
I1110 15:11:30.788280 104912 net.cpp:122] Setting up conv1_2
I1110 15:11:30.788317 104912 net.cpp:129] Top shape: 32 64 224 224 (102760448)
I1110 15:11:30.788326 104912 net.cpp:137] Memory required for data: 1252393088
I1110 15:11:30.788347 104912 layer_factory.hpp:77] Creating layer relu1_2
I1110 15:11:30.788365 104912 net.cpp:84] Creating Layer relu1_2
I1110 15:11:30.788374 104912 net.cpp:406] relu1_2 <- conv1_2
I1110 15:11:30.788388 104912 net.cpp:367] relu1_2 -> conv1_2 (in-place)
I1110 15:11:30.788403 104912 net.cpp:122] Setting up relu1_2
I1110 15:11:30.788414 104912 net.cpp:129] Top shape: 32 64 224 224 (102760448)
I1110 15:11:30.788421 104912 net.cpp:137] Memory required for data: 1663434880
I1110 15:11:30.788429 104912 layer_factory.hpp:77] Creating layer pool1
I1110 15:11:30.788444 104912 net.cpp:84] Creating Layer pool1
I1110 15:11:30.788450 104912 net.cpp:406] pool1 <- conv1_2
I1110 15:11:30.788463 104912 net.cpp:380] pool1 -> pool1
I1110 15:11:30.788548 104912 net.cpp:122] Setting up pool1
I1110 15:11:30.788563 104912 net.cpp:129] Top shape: 32 64 112 112 (25690112)
I1110 15:11:30.788571 104912 net.cpp:137] Memory required for data: 1766195328
I1110 15:11:30.788579 104912 layer_factory.hpp:77] Creating layer conv2_1
I1110 15:11:30.788594 104912 net.cpp:84] Creating Layer conv2_1
I1110 15:11:30.788604 104912 net.cpp:406] conv2_1 <- pool1
I1110 15:11:30.788614 104912 net.cpp:380] conv2_1 -> conv2_1
I1110 15:11:30.790846 104912 net.cpp:122] Setting up conv2_1
I1110 15:11:30.790874 104912 net.cpp:129] Top shape: 32 128 112 112 (51380224)
I1110 15:11:30.790884 104912 net.cpp:137] Memory required for data: 1971716224
I1110 15:11:30.790902 104912 layer_factory.hpp:77] Creating layer relu2_1
I1110 15:11:30.790917 104912 net.cpp:84] Creating Layer relu2_1
I1110 15:11:30.790925 104912 net.cpp:406] relu2_1 <- conv2_1
I1110 15:11:30.790940 104912 net.cpp:367] relu2_1 -> conv2_1 (in-place)
I1110 15:11:30.790954 104912 net.cpp:122] Setting up relu2_1
I1110 15:11:30.790964 104912 net.cpp:129] Top shape: 32 128 112 112 (51380224)
I1110 15:11:30.790972 104912 net.cpp:137] Memory required for data: 2177237120
I1110 15:11:30.790980 104912 layer_factory.hpp:77] Creating layer conv2_2
I1110 15:11:30.790997 104912 net.cpp:84] Creating Layer conv2_2
I1110 15:11:30.791004 104912 net.cpp:406] conv2_2 <- conv2_1
I1110 15:11:30.791018 104912 net.cpp:380] conv2_2 -> conv2_2
I1110 15:11:30.791627 104912 net.cpp:122] Setting up conv2_2
I1110 15:11:30.791646 104912 net.cpp:129] Top shape: 32 128 112 112 (51380224)
I1110 15:11:30.791653 104912 net.cpp:137] Memory required for data: 2382758016
I1110 15:11:30.791666 104912 layer_factory.hpp:77] Creating layer relu2_2
I1110 15:11:30.791678 104912 net.cpp:84] Creating Layer relu2_2
I1110 15:11:30.791688 104912 net.cpp:406] relu2_2 <- conv2_2
I1110 15:11:30.791700 104912 net.cpp:367] relu2_2 -> conv2_2 (in-place)
I1110 15:11:30.791723 104912 net.cpp:122] Setting up relu2_2
I1110 15:11:30.791751 104912 net.cpp:129] Top shape: 32 128 112 112 (51380224)
I1110 15:11:30.791759 104912 net.cpp:137] Memory required for data: 2588278912
I1110 15:11:30.791766 104912 layer_factory.hpp:77] Creating layer pool2
I1110 15:11:30.791779 104912 net.cpp:84] Creating Layer pool2
I1110 15:11:30.791787 104912 net.cpp:406] pool2 <- conv2_2
I1110 15:11:30.791798 104912 net.cpp:380] pool2 -> pool2
I1110 15:11:30.791862 104912 net.cpp:122] Setting up pool2
I1110 15:11:30.791873 104912 net.cpp:129] Top shape: 32 128 56 56 (12845056)
I1110 15:11:30.791882 104912 net.cpp:137] Memory required for data: 2639659136
I1110 15:11:30.791889 104912 layer_factory.hpp:77] Creating layer conv3_1
I1110 15:11:30.791903 104912 net.cpp:84] Creating Layer conv3_1
I1110 15:11:30.791910 104912 net.cpp:406] conv3_1 <- pool2
I1110 15:11:30.791923 104912 net.cpp:380] conv3_1 -> conv3_1
I1110 15:11:30.793639 104912 net.cpp:122] Setting up conv3_1
I1110 15:11:30.793664 104912 net.cpp:129] Top shape: 32 256 56 56 (25690112)
I1110 15:11:30.793673 104912 net.cpp:137] Memory required for data: 2742419584
I1110 15:11:30.793692 104912 layer_factory.hpp:77] Creating layer relu3_1
I1110 15:11:30.793706 104912 net.cpp:84] Creating Layer relu3_1
I1110 15:11:30.793715 104912 net.cpp:406] relu3_1 <- conv3_1
I1110 15:11:30.793727 104912 net.cpp:367] relu3_1 -> conv3_1 (in-place)
I1110 15:11:30.793741 104912 net.cpp:122] Setting up relu3_1
I1110 15:11:30.793752 104912 net.cpp:129] Top shape: 32 256 56 56 (25690112)
I1110 15:11:30.793759 104912 net.cpp:137] Memory required for data: 2845180032
I1110 15:11:30.793766 104912 layer_factory.hpp:77] Creating layer conv3_2
I1110 15:11:30.793782 104912 net.cpp:84] Creating Layer conv3_2
I1110 15:11:30.793789 104912 net.cpp:406] conv3_2 <- conv3_1
I1110 15:11:30.793802 104912 net.cpp:380] conv3_2 -> conv3_2
I1110 15:11:30.796531 104912 net.cpp:122] Setting up conv3_2
I1110 15:11:30.796556 104912 net.cpp:129] Top shape: 32 256 56 56 (25690112)
I1110 15:11:30.796564 104912 net.cpp:137] Memory required for data: 2947940480
I1110 15:11:30.796576 104912 layer_factory.hpp:77] Creating layer relu3_2
I1110 15:11:30.796588 104912 net.cpp:84] Creating Layer relu3_2
I1110 15:11:30.796597 104912 net.cpp:406] relu3_2 <- conv3_2
I1110 15:11:30.796608 104912 net.cpp:367] relu3_2 -> conv3_2 (in-place)
I1110 15:11:30.796620 104912 net.cpp:122] Setting up relu3_2
I1110 15:11:30.796630 104912 net.cpp:129] Top shape: 32 256 56 56 (25690112)
I1110 15:11:30.796638 104912 net.cpp:137] Memory required for data: 3050700928
I1110 15:11:30.796645 104912 layer_factory.hpp:77] Creating layer conv3_3
I1110 15:11:30.796658 104912 net.cpp:84] Creating Layer conv3_3
I1110 15:11:30.796664 104912 net.cpp:406] conv3_3 <- conv3_2
I1110 15:11:30.796677 104912 net.cpp:380] conv3_3 -> conv3_3
I1110 15:11:30.799295 104912 net.cpp:122] Setting up conv3_3
I1110 15:11:30.799320 104912 net.cpp:129] Top shape: 32 256 56 56 (25690112)
I1110 15:11:30.799337 104912 net.cpp:137] Memory required for data: 3153461376
I1110 15:11:30.799352 104912 layer_factory.hpp:77] Creating layer relu3_3
I1110 15:11:30.799368 104912 net.cpp:84] Creating Layer relu3_3
I1110 15:11:30.799376 104912 net.cpp:406] relu3_3 <- conv3_3
I1110 15:11:30.799387 104912 net.cpp:367] relu3_3 -> conv3_3 (in-place)
I1110 15:11:30.799401 104912 net.cpp:122] Setting up relu3_3
I1110 15:11:30.799412 104912 net.cpp:129] Top shape: 32 256 56 56 (25690112)
I1110 15:11:30.799418 104912 net.cpp:137] Memory required for data: 3256221824
I1110 15:11:30.799424 104912 layer_factory.hpp:77] Creating layer conv3_4
I1110 15:11:30.799438 104912 net.cpp:84] Creating Layer conv3_4
I1110 15:11:30.799445 104912 net.cpp:406] conv3_4 <- conv3_3
I1110 15:11:30.799456 104912 net.cpp:380] conv3_4 -> conv3_4
I1110 15:11:30.802074 104912 net.cpp:122] Setting up conv3_4
I1110 15:11:30.802100 104912 net.cpp:129] Top shape: 32 256 56 56 (25690112)
I1110 15:11:30.802108 104912 net.cpp:137] Memory required for data: 3358982272
I1110 15:11:30.802127 104912 layer_factory.hpp:77] Creating layer relu3_4
I1110 15:11:30.802150 104912 net.cpp:84] Creating Layer relu3_4
I1110 15:11:30.802160 104912 net.cpp:406] relu3_4 <- conv3_4
I1110 15:11:30.802171 104912 net.cpp:367] relu3_4 -> conv3_4 (in-place)
I1110 15:11:30.802184 104912 net.cpp:122] Setting up relu3_4
I1110 15:11:30.802194 104912 net.cpp:129] Top shape: 32 256 56 56 (25690112)
I1110 15:11:30.802202 104912 net.cpp:137] Memory required for data: 3461742720
I1110 15:11:30.802209 104912 layer_factory.hpp:77] Creating layer pool3
I1110 15:11:30.802220 104912 net.cpp:84] Creating Layer pool3
I1110 15:11:30.802227 104912 net.cpp:406] pool3 <- conv3_4
I1110 15:11:30.802239 104912 net.cpp:380] pool3 -> pool3
I1110 15:11:30.802301 104912 net.cpp:122] Setting up pool3
I1110 15:11:30.802314 104912 net.cpp:129] Top shape: 32 256 28 28 (6422528)
I1110 15:11:30.802320 104912 net.cpp:137] Memory required for data: 3487432832
I1110 15:11:30.802328 104912 layer_factory.hpp:77] Creating layer conv4_1
I1110 15:11:30.802341 104912 net.cpp:84] Creating Layer conv4_1
I1110 15:11:30.802348 104912 net.cpp:406] conv4_1 <- pool3
I1110 15:11:30.802359 104912 net.cpp:380] conv4_1 -> conv4_1
I1110 15:11:30.807790 104912 net.cpp:122] Setting up conv4_1
I1110 15:11:30.807819 104912 net.cpp:129] Top shape: 32 512 28 28 (12845056)
I1110 15:11:30.807826 104912 net.cpp:137] Memory required for data: 3538813056
I1110 15:11:30.807847 104912 layer_factory.hpp:77] Creating layer relu4_1
I1110 15:11:30.807859 104912 net.cpp:84] Creating Layer relu4_1
I1110 15:11:30.807867 104912 net.cpp:406] relu4_1 <- conv4_1
I1110 15:11:30.807875 104912 net.cpp:367] relu4_1 -> conv4_1 (in-place)
I1110 15:11:30.807886 104912 net.cpp:122] Setting up relu4_1
I1110 15:11:30.807896 104912 net.cpp:129] Top shape: 32 512 28 28 (12845056)
I1110 15:11:30.807902 104912 net.cpp:137] Memory required for data: 3590193280
I1110 15:11:30.807909 104912 layer_factory.hpp:77] Creating layer conv4_2
I1110 15:11:30.807921 104912 net.cpp:84] Creating Layer conv4_2
I1110 15:11:30.807929 104912 net.cpp:406] conv4_2 <- conv4_1
I1110 15:11:30.807940 104912 net.cpp:380] conv4_2 -> conv4_2
I1110 15:11:30.816189 104912 net.cpp:122] Setting up conv4_2
I1110 15:11:30.816222 104912 net.cpp:129] Top shape: 32 512 28 28 (12845056)
I1110 15:11:30.816231 104912 net.cpp:137] Memory required for data: 3641573504
I1110 15:11:30.816242 104912 layer_factory.hpp:77] Creating layer relu4_2
I1110 15:11:30.816256 104912 net.cpp:84] Creating Layer relu4_2
I1110 15:11:30.816264 104912 net.cpp:406] relu4_2 <- conv4_2
I1110 15:11:30.816277 104912 net.cpp:367] relu4_2 -> conv4_2 (in-place)
I1110 15:11:30.816287 104912 net.cpp:122] Setting up relu4_2
I1110 15:11:30.816296 104912 net.cpp:129] Top shape: 32 512 28 28 (12845056)
I1110 15:11:30.816303 104912 net.cpp:137] Memory required for data: 3692953728
I1110 15:11:30.816310 104912 layer_factory.hpp:77] Creating layer conv4_3
I1110 15:11:30.816323 104912 net.cpp:84] Creating Layer conv4_3
I1110 15:11:30.816329 104912 net.cpp:406] conv4_3 <- conv4_2
I1110 15:11:30.816340 104912 net.cpp:380] conv4_3 -> conv4_3
I1110 15:11:30.824360 104912 net.cpp:122] Setting up conv4_3
I1110 15:11:30.824388 104912 net.cpp:129] Top shape: 32 512 28 28 (12845056)
I1110 15:11:30.824395 104912 net.cpp:137] Memory required for data: 3744333952
I1110 15:11:30.824405 104912 layer_factory.hpp:77] Creating layer relu4_3
I1110 15:11:30.824420 104912 net.cpp:84] Creating Layer relu4_3
I1110 15:11:30.824427 104912 net.cpp:406] relu4_3 <- conv4_3
I1110 15:11:30.824437 104912 net.cpp:367] relu4_3 -> conv4_3 (in-place)
I1110 15:11:30.824447 104912 net.cpp:122] Setting up relu4_3
I1110 15:11:30.824457 104912 net.cpp:129] Top shape: 32 512 28 28 (12845056)
I1110 15:11:30.824463 104912 net.cpp:137] Memory required for data: 3795714176
I1110 15:11:30.824470 104912 layer_factory.hpp:77] Creating layer conv4_4
I1110 15:11:30.824482 104912 net.cpp:84] Creating Layer conv4_4
I1110 15:11:30.824491 104912 net.cpp:406] conv4_4 <- conv4_3
I1110 15:11:30.824498 104912 net.cpp:380] conv4_4 -> conv4_4
I1110 15:11:30.834542 104912 net.cpp:122] Setting up conv4_4
I1110 15:11:30.834591 104912 net.cpp:129] Top shape: 32 512 28 28 (12845056)
I1110 15:11:30.834599 104912 net.cpp:137] Memory required for data: 3847094400
I1110 15:11:30.834611 104912 layer_factory.hpp:77] Creating layer relu4_4
I1110 15:11:30.834623 104912 net.cpp:84] Creating Layer relu4_4
I1110 15:11:30.834630 104912 net.cpp:406] relu4_4 <- conv4_4
I1110 15:11:30.834642 104912 net.cpp:367] relu4_4 -> conv4_4 (in-place)
I1110 15:11:30.834655 104912 net.cpp:122] Setting up relu4_4
I1110 15:11:30.834663 104912 net.cpp:129] Top shape: 32 512 28 28 (12845056)
I1110 15:11:30.834668 104912 net.cpp:137] Memory required for data: 3898474624
I1110 15:11:30.834676 104912 layer_factory.hpp:77] Creating layer pool4
I1110 15:11:30.834686 104912 net.cpp:84] Creating Layer pool4
I1110 15:11:30.834692 104912 net.cpp:406] pool4 <- conv4_4
I1110 15:11:30.834702 104912 net.cpp:380] pool4 -> pool4
I1110 15:11:30.834761 104912 net.cpp:122] Setting up pool4
I1110 15:11:30.834771 104912 net.cpp:129] Top shape: 32 512 14 14 (3211264)
I1110 15:11:30.834776 104912 net.cpp:137] Memory required for data: 3911319680
I1110 15:11:30.834782 104912 layer_factory.hpp:77] Creating layer conv5_1
I1110 15:11:30.834796 104912 net.cpp:84] Creating Layer conv5_1
I1110 15:11:30.834802 104912 net.cpp:406] conv5_1 <- pool4
I1110 15:11:30.834811 104912 net.cpp:380] conv5_1 -> conv5_1
I1110 15:11:30.842373 104912 net.cpp:122] Setting up conv5_1
I1110 15:11:30.842408 104912 net.cpp:129] Top shape: 32 512 14 14 (3211264)
I1110 15:11:30.842414 104912 net.cpp:137] Memory required for data: 3924164736
I1110 15:11:30.842425 104912 layer_factory.hpp:77] Creating layer relu5_1
I1110 15:11:30.842437 104912 net.cpp:84] Creating Layer relu5_1
I1110 15:11:30.842445 104912 net.cpp:406] relu5_1 <- conv5_1
I1110 15:11:30.842456 104912 net.cpp:367] relu5_1 -> conv5_1 (in-place)
I1110 15:11:30.842468 104912 net.cpp:122] Setting up relu5_1
I1110 15:11:30.842475 104912 net.cpp:129] Top shape: 32 512 14 14 (3211264)
I1110 15:11:30.842483 104912 net.cpp:137] Memory required for data: 3937009792
I1110 15:11:30.842489 104912 layer_factory.hpp:77] Creating layer conv5_2
I1110 15:11:30.842505 104912 net.cpp:84] Creating Layer conv5_2
I1110 15:11:30.842511 104912 net.cpp:406] conv5_2 <- conv5_1
I1110 15:11:30.842521 104912 net.cpp:380] conv5_2 -> conv5_2
I1110 15:11:30.851502 104912 net.cpp:122] Setting up conv5_2
I1110 15:11:30.851526 104912 net.cpp:129] Top shape: 32 512 14 14 (3211264)
I1110 15:11:30.851532 104912 net.cpp:137] Memory required for data: 3949854848
I1110 15:11:30.851547 104912 layer_factory.hpp:77] Creating layer relu5_2
I1110 15:11:30.851567 104912 net.cpp:84] Creating Layer relu5_2
I1110 15:11:30.851574 104912 net.cpp:406] relu5_2 <- conv5_2
I1110 15:11:30.851583 104912 net.cpp:367] relu5_2 -> conv5_2 (in-place)
I1110 15:11:30.851598 104912 net.cpp:122] Setting up relu5_2
I1110 15:11:30.851604 104912 net.cpp:129] Top shape: 32 512 14 14 (3211264)
I1110 15:11:30.851609 104912 net.cpp:137] Memory required for data: 3962699904
I1110 15:11:30.851615 104912 layer_factory.hpp:77] Creating layer conv5_3
I1110 15:11:30.851630 104912 net.cpp:84] Creating Layer conv5_3
I1110 15:11:30.851636 104912 net.cpp:406] conv5_3 <- conv5_2
I1110 15:11:30.851644 104912 net.cpp:380] conv5_3 -> conv5_3
I1110 15:11:30.858760 104912 net.cpp:122] Setting up conv5_3
I1110 15:11:30.858783 104912 net.cpp:129] Top shape: 32 512 14 14 (3211264)
I1110 15:11:30.858789 104912 net.cpp:137] Memory required for data: 3975544960
I1110 15:11:30.858799 104912 layer_factory.hpp:77] Creating layer relu5_3
I1110 15:11:30.858810 104912 net.cpp:84] Creating Layer relu5_3
I1110 15:11:30.858817 104912 net.cpp:406] relu5_3 <- conv5_3
I1110 15:11:30.858826 104912 net.cpp:367] relu5_3 -> conv5_3 (in-place)
I1110 15:11:30.858836 104912 net.cpp:122] Setting up relu5_3
I1110 15:11:30.858844 104912 net.cpp:129] Top shape: 32 512 14 14 (3211264)
I1110 15:11:30.858849 104912 net.cpp:137] Memory required for data: 3988390016
I1110 15:11:30.858855 104912 layer_factory.hpp:77] Creating layer conv5_4
I1110 15:11:30.858873 104912 net.cpp:84] Creating Layer conv5_4
I1110 15:11:30.858891 104912 net.cpp:406] conv5_4 <- conv5_3
I1110 15:11:30.858899 104912 net.cpp:380] conv5_4 -> conv5_4
I1110 15:11:30.866271 104912 net.cpp:122] Setting up conv5_4
I1110 15:11:30.866315 104912 net.cpp:129] Top shape: 32 512 14 14 (3211264)
I1110 15:11:30.866322 104912 net.cpp:137] Memory required for data: 4001235072
I1110 15:11:30.866331 104912 layer_factory.hpp:77] Creating layer relu5_4
I1110 15:11:30.866343 104912 net.cpp:84] Creating Layer relu5_4
I1110 15:11:30.866349 104912 net.cpp:406] relu5_4 <- conv5_4
I1110 15:11:30.866358 104912 net.cpp:367] relu5_4 -> conv5_4 (in-place)
I1110 15:11:30.866366 104912 net.cpp:122] Setting up relu5_4
I1110 15:11:30.866374 104912 net.cpp:129] Top shape: 32 512 14 14 (3211264)
I1110 15:11:30.866379 104912 net.cpp:137] Memory required for data: 4014080128
I1110 15:11:30.866384 104912 layer_factory.hpp:77] Creating layer pool5
I1110 15:11:30.866395 104912 net.cpp:84] Creating Layer pool5
I1110 15:11:30.866401 104912 net.cpp:406] pool5 <- conv5_4
I1110 15:11:30.866410 104912 net.cpp:380] pool5 -> pool5
I1110 15:11:30.866463 104912 net.cpp:122] Setting up pool5
I1110 15:11:30.866472 104912 net.cpp:129] Top shape: 32 512 7 7 (802816)
I1110 15:11:30.866477 104912 net.cpp:137] Memory required for data: 4017291392
I1110 15:11:30.866482 104912 layer_factory.hpp:77] Creating layer fc6
I1110 15:11:30.866492 104912 net.cpp:84] Creating Layer fc6
I1110 15:11:30.866497 104912 net.cpp:406] fc6 <- pool5
I1110 15:11:30.866508 104912 net.cpp:380] fc6 -> fc6
I1110 15:11:31.127722 104912 net.cpp:122] Setting up fc6
I1110 15:11:31.127766 104912 net.cpp:129] Top shape: 32 4096 (131072)
I1110 15:11:31.127769 104912 net.cpp:137] Memory required for data: 4017815680
I1110 15:11:31.127789 104912 layer_factory.hpp:77] Creating layer relu6
I1110 15:11:31.127801 104912 net.cpp:84] Creating Layer relu6
I1110 15:11:31.127805 104912 net.cpp:406] relu6 <- fc6
I1110 15:11:31.127813 104912 net.cpp:367] relu6 -> fc6 (in-place)
I1110 15:11:31.127822 104912 net.cpp:122] Setting up relu6
I1110 15:11:31.127825 104912 net.cpp:129] Top shape: 32 4096 (131072)
I1110 15:11:31.127828 104912 net.cpp:137] Memory required for data: 4018339968
I1110 15:11:31.127831 104912 layer_factory.hpp:77] Creating layer drop6
I1110 15:11:31.127837 104912 net.cpp:84] Creating Layer drop6
I1110 15:11:31.127840 104912 net.cpp:406] drop6 <- fc6
I1110 15:11:31.127845 104912 net.cpp:367] drop6 -> fc6 (in-place)
I1110 15:11:31.127867 104912 net.cpp:122] Setting up drop6
I1110 15:11:31.127872 104912 net.cpp:129] Top shape: 32 4096 (131072)
I1110 15:11:31.127876 104912 net.cpp:137] Memory required for data: 4018864256
I1110 15:11:31.127877 104912 layer_factory.hpp:77] Creating layer fc7
I1110 15:11:31.127887 104912 net.cpp:84] Creating Layer fc7
I1110 15:11:31.127889 104912 net.cpp:406] fc7 <- fc6
I1110 15:11:31.127894 104912 net.cpp:380] fc7 -> fc7
I1110 15:11:31.168299 104912 net.cpp:122] Setting up fc7
I1110 15:11:31.168341 104912 net.cpp:129] Top shape: 32 4096 (131072)
I1110 15:11:31.168345 104912 net.cpp:137] Memory required for data: 4019388544
I1110 15:11:31.168355 104912 layer_factory.hpp:77] Creating layer relu7
I1110 15:11:31.168365 104912 net.cpp:84] Creating Layer relu7
I1110 15:11:31.168370 104912 net.cpp:406] relu7 <- fc7
I1110 15:11:31.168376 104912 net.cpp:367] relu7 -> fc7 (in-place)
I1110 15:11:31.168385 104912 net.cpp:122] Setting up relu7
I1110 15:11:31.168388 104912 net.cpp:129] Top shape: 32 4096 (131072)
I1110 15:11:31.168391 104912 net.cpp:137] Memory required for data: 4019912832
I1110 15:11:31.168395 104912 layer_factory.hpp:77] Creating layer drop7
I1110 15:11:31.168401 104912 net.cpp:84] Creating Layer drop7
I1110 15:11:31.168402 104912 net.cpp:406] drop7 <- fc7
I1110 15:11:31.168408 104912 net.cpp:367] drop7 -> fc7 (in-place)
I1110 15:11:31.168431 104912 net.cpp:122] Setting up drop7
I1110 15:11:31.168437 104912 net.cpp:129] Top shape: 32 4096 (131072)
I1110 15:11:31.168439 104912 net.cpp:137] Memory required for data: 4020437120
I1110 15:11:31.168450 104912 layer_factory.hpp:77] Creating layer fc8_re
I1110 15:11:31.168467 104912 net.cpp:84] Creating Layer fc8_re
I1110 15:11:31.168469 104912 net.cpp:406] fc8_re <- fc7
I1110 15:11:31.168473 104912 net.cpp:380] fc8_re -> fc8
I1110 15:11:31.169417 104912 net.cpp:122] Setting up fc8_re
I1110 15:11:31.169427 104912 net.cpp:129] Top shape: 32 80 (2560)
I1110 15:11:31.169430 104912 net.cpp:137] Memory required for data: 4020447360
I1110 15:11:31.169435 104912 layer_factory.hpp:77] Creating layer loss
I1110 15:11:31.169440 104912 net.cpp:84] Creating Layer loss
I1110 15:11:31.169443 104912 net.cpp:406] loss <- fc8
I1110 15:11:31.169447 104912 net.cpp:406] loss <- label
I1110 15:11:31.169456 104912 net.cpp:380] loss -> loss/loss
I1110 15:11:31.169466 104912 layer_factory.hpp:77] Creating layer loss
…
I1110 15:11:31.170164 104912 net.cpp:294] The NetState phase (1) differed from the phase (0) specified by a rule in layer data
I1110 15:11:31.170311 104912 net.cpp:51] Initializing net from parameters: 
name: "VGG_ILSVRC_19_layers"
state {
  phase: TEST
}
layer {
  name: "data"
  type: "Data"
  top: "data"
  top: "label"
  include {
    phase: TEST
  }
  transform_param {
    mirror: false
    crop_size: 224
    mean_value: 104
    mean_value: 117
    mean_value: 123
  }
  data_param {
    source: "/home/yuchaohui/ych/caffe_ych/data/chaai/val/img_val_lmdb"
    batch_size: 32
    backend: LMDB
  }
}
layer {
  name: "conv1_1"
  type: "Convolution"
  bottom: "data"
  top: "conv1_1"
  convolution_param {
    num_output: 64
    pad: 1
    kernel_size: 3
  }
}
layer {
  name: "relu1_1"
  type: "ReLU"
  bottom: "conv1_1"
  top: "conv1_1"
}
layer {
  name: "conv1_2"
  type: "Convolution"
  bottom: "conv1_1"
  top: "conv1_2"
  convolution_param {
    num_output: 64
    pad: 1
    kernel_size: 3
  }
}
layer {
  name: "relu1_2"
  type: "ReLU"
  bottom: "conv1_2"
  top: "conv1_2"
}
layer {
  name: "pool1"
  type: "Pooling"
  bottom: "conv1_2"
  top: "pool1"
  pooling_param {
    pool: MAX
    kernel_size: 2
    stride: 2
  }
}
layer {
  name: "conv2_1"
  type: "Convolution"
  bottom: "pool1"
  top: "conv2_1"
  convolution_param {
    num_output: 128
    pad: 1
    kernel_size: 3
  }
}
layer {
  name: "relu2_1"
  type: "ReLU"
  bottom: "conv2_1"
  top: "conv2_1"
}
layer {
  name: "conv2_2"
  type: "Convolution"
  bottom: "conv2_1"
  top: "conv2_2"
  convolution_param {
    num_output: 128
    pad: 1
    kernel_size: 3
  }
}
layer {
  name: "relu2_2"
  type: "ReLU"
  bottom: "conv2_2"
  top: "conv2_2"
}
layer {
  name: "pool2"
  type: "Pooling"
  bottom: "conv2_2"
  top: "pool2"
  pooling_param {
    pool: MAX
    kernel_size: 2
    stride: 2
  }
}
layer {
  name: "conv3_1"
  type: "Convolution"
  bottom: "pool2"
  top: "conv3_1"
  convolution_param {
    num_output: 256
    pad: 1
    kernel_size: 3
  }
}
layer {
  name: "relu3_1"
  type: "ReLU"
  bottom: "conv3_1"
  top: "conv3_1"
}
layer {
  name: "conv3_2"
  type: "Convolution"
  bottom: "conv3_1"
  top: "conv3_2"
  convolution_param {
    num_output: 256
    pad: 1
    kernel_size: 3
  }
}
layer {
  name: "relu3_2"
  type: "ReLU"
  bottom: "conv3_2"
  top: "conv3_2"
}
layer {
  name: "conv3_3"
  type: "Convolution"
  bottom: "conv3_2"
  top: "conv3_3"
  convolution_param {
    num_output: 256
    pad: 1
    kernel_size: 3
  }
}
layer {
  name: "relu3_3"
  type: "ReLU"
  bottom: "conv3_3"
  top: "conv3_3"
}
layer {
  name: "conv3_4"
  type: "Convolution"
  bottom: "conv3_3"
  top: "conv3_4"
  convolution_param {
    num_output: 256
    pad: 1
    kernel_size: 3
  }
}
layer {
  name: "relu3_4"
  type: "ReLU"
  bottom: "conv3_4"
  top: "conv3_4"
}
layer {
  name: "pool3"
  type: "Pooling"
  bottom: "conv3_4"
  top: "pool3"
  pooling_param {
    pool: MAX
    kernel_size: 2
    stride: 2
  }
}
layer {
  name: "conv4_1"
  type: "Convolution"
  bottom: "pool3"
  top: "conv4_1"
  convolution_param {
    num_output: 512
    pad: 1
    kernel_size: 3
  }
}
layer {
  name: "relu4_1"
  type: "ReLU"
  bottom: "conv4_1"
  top: "conv4_1"
}
layer {
  name: "conv4_2"
  type: "Convolution"
  bottom: "conv4_1"
  top: "conv4_2"
  convolution_param {
    num_output: 512
    pad: 1
    kernel_size: 3
  }
}
layer {
  name: "relu4_2"
  type: "ReLU"
  bottom: "conv4_2"
  top: "conv4_2"
}
layer {
  name: "conv4_3"
  type: "Convolution"
  bottom: "conv4_2"
  top: "conv4_3"
  convolution_param {
    num_output: 512
    pad: 1
    kernel_size: 3
  }
}
layer {
  name: "relu4_3"
  type: "ReLU"
  bottom: "conv4_3"
  top: "conv4_3"
}
layer {
  name: "conv4_4"
  type: "Convolution"
  bottom: "conv4_3"
  top: "conv4_4"
  convolution_param {
    num_output: 512
    pad: 1
    kernel_size: 3
  }
}
layer {
  name: "relu4_4"
  type: "ReLU"
  bottom: "conv4_4"
  top: "conv4_4"
}
layer {
  name: "pool4"
  type: "Pooling"
  bottom: "conv4_4"
  top: "pool4"
  pooling_param {
    pool: MAX
    kernel_size: 2
    stride: 2
  }
}
layer {
  name: "conv5_1"
  type: "Convolution"
  bottom: "pool4"
  top: "conv5_1"
  convolution_param {
    num_output: 512
    pad: 1
    kernel_size: 3
  }
}
layer {
  name: "relu5_1"
  type: "ReLU"
  bottom: "conv5_1"
  top: "conv5_1"
}
layer {
  name: "conv5_2"
  type: "Convolution"
  bottom: "conv5_1"
  top: "conv5_2"
  convolution_param {
    num_output: 512
    pad: 1
    kernel_size: 3
  }
}
layer {
  name: "relu5_2"
  type: "ReLU"
  bottom: "conv5_2"
  top: "conv5_2"
}
layer {
  name: "conv5_3"
  type: "Convolution"
  bottom: "conv5_2"
  top: "conv5_3"
  convolution_param {
    num_output: 512
    pad: 1
    kernel_size: 3
  }
}
layer {
  name: "relu5_3"
  type: "ReLU"
  bottom: "conv5_3"
  top: "conv5_3"
}
layer {
  name: "conv5_4"
  type: "Convolution"
  bottom: "conv5_3"
  top: "conv5_4"
  convolution_param {
    num_output: 512
    pad: 1
    kernel_size: 3
  }
}
layer {
  name: "relu5_4"
  type: "ReLU"
  bottom: "conv5_4"
  top: "conv5_4"
}
layer {
  name: "pool5"
  type: "Pooling"
  bottom: "conv5_4"
  top: "pool5"
  pooling_param {
    pool: MAX
    kernel_size: 2
    stride: 2
  }
}
layer {
  name: "fc6"
  type: "InnerProduct"
  bottom: "pool5"
  top: "fc6"
  inner_product_param {
    num_output: 4096
  }
}
layer {
  name: "relu6"
  type: "ReLU"
  bottom: "fc6"
  top: "fc6"
}
layer {
  name: "drop6"
  type: "Dropout"
  bottom: "fc6"
  top: "fc6"
  dropout_param {
    dropout_ratio: 0.5
  }
}
layer {
  name: "fc7"
  type: "InnerProduct"
  bottom: "fc6"
  top: "fc7"
  inner_product_param {
    num_output: 4096
  }
}
layer {
  name: "relu7"
  type: "ReLU"
  bottom: "fc7"
  top: "fc7"
}
layer {
  name: "drop7"
  type: "Dropout"
  bottom: "fc7"
  top: "fc7"
  dropout_param {
    dropout_ratio: 0.5
  }
}
layer {
  name: "fc8_re"
  type: "InnerProduct"
  bottom: "fc7"
  top: "fc8"
  inner_product_param {
    num_output: 80
  }
}
layer {
  name: "loss"
  type: "SoftmaxWithLoss"
  bottom: "fc8"
  bottom: "label"
  top: "loss/loss"
}
layer {
  name: "accuracy/top1"
  type: "Accuracy"
  bottom: "fc8"
  bottom: "label"
  top: "accuracy@1"
  include {
    phase: TEST
  }
  accuracy_param {
    top_k: 1
  }
}
layer {
  name: "accuracy/top5"
  type: "Accuracy"
  bottom: "fc8"
  bottom: "label"
  top: "accuracy@5"
  include {
    phase: TEST
  }
  accuracy_param {
    top_k: 5
  }
}
I1110 15:11:31.170428 104912 layer_factory.hpp:77] Creating layer data
I1110 15:11:31.170485 104912 db_lmdb.cpp:35] Opened lmdb /home/yuchaohui/ych/caffe_ych/data/chaai/val/img_val_lmdb
I1110 15:11:31.170516 104912 net.cpp:84] Creating Layer data
I1110 15:11:31.170522 104912 net.cpp:380] data -> data
I1110 15:11:31.170531 104912 net.cpp:380] data -> label
I1110 15:11:31.170796 104912 data_layer.cpp:45] output data size: 32,3,224,224
I1110 15:11:31.212662 104912 net.cpp:122] Setting up data
I1110 15:11:31.212707 104912 net.cpp:129] Top shape: 32 3 224 224 (4816896)
I1110 15:11:31.212728 104912 net.cpp:129] Top shape: 32 (32)
I1110 15:11:31.212730 104912 net.cpp:137] Memory required for data: 19267712
I1110 15:11:31.212738 104912 layer_factory.hpp:77] Creating layer label_data_1_split
I1110 15:11:31.212752 104912 net.cpp:84] Creating Layer label_data_1_split
I1110 15:11:31.212756 104912 net.cpp:406] label_data_1_split <- label
I1110 15:11:31.212764 104912 net.cpp:380] label_data_1_split -> label_data_1_split_0
I1110 15:11:31.212774 104912 net.cpp:380] label_data_1_split -> label_data_1_split_1
I1110 15:11:31.212780 104912 net.cpp:380] label_data_1_split -> label_data_1_split_2
I1110 15:11:31.213100 104912 net.cpp:122] Setting up label_data_1_split
I1110 15:11:31.213165 104912 net.cpp:129] Top shape: 32 (32)
I1110 15:11:31.213174 104912 net.cpp:129] Top shape: 32 (32)
I1110 15:11:31.213186 104912 net.cpp:129] Top shape: 32 (32)
I1110 15:11:31.213192 104912 net.cpp:137] Memory required for data: 19268096
I1110 15:11:31.213202 104912 layer_factory.hpp:77] Creating layer conv1_1
I1110 15:11:31.213232 104912 net.cpp:84] Creating Layer conv1_1
I1110 15:11:31.213243 104912 net.cpp:406] conv1_1 <- data
I1110 15:11:31.213259 104912 net.cpp:380] conv1_1 -> conv1_1
I1110 15:11:31.213820 104912 net.cpp:122] Setting up conv1_1
I1110 15:11:31.213837 104912 net.cpp:129] Top shape: 32 64 224 224 (102760448)
I1110 15:11:31.213846 104912 net.cpp:137] Memory required for data: 430309888
I1110 15:11:31.213868 104912 layer_factory.hpp:77] Creating layer relu1_1
I1110 15:11:31.213882 104912 net.cpp:84] Creating Layer relu1_1
I1110 15:11:31.213891 104912 net.cpp:406] relu1_1 <- conv1_1
I1110 15:11:31.213906 104912 net.cpp:367] relu1_1 -> conv1_1 (in-place)
I1110 15:11:31.213918 104912 net.cpp:122] Setting up relu1_1
I1110 15:11:31.213928 104912 net.cpp:129] Top shape: 32 64 224 224 (102760448)
I1110 15:11:31.213937 104912 net.cpp:137] Memory required for data: 841351680
I1110 15:11:31.213945 104912 layer_factory.hpp:77] Creating layer conv1_2
I1110 15:11:31.213960 104912 net.cpp:84] Creating Layer conv1_2
I1110 15:11:31.213968 104912 net.cpp:406] conv1_2 <- conv1_1
I1110 15:11:31.213980 104912 net.cpp:380] conv1_2 -> conv1_2
I1110 15:11:31.215649 104912 net.cpp:122] Setting up conv1_2
I1110 15:11:31.215680 104912 net.cpp:129] Top shape: 32 64 224 224 (102760448)
I1110 15:11:31.215688 104912 net.cpp:137] Memory required for data: 1252393472
I1110 15:11:31.215706 104912 layer_factory.hpp:77] Creating layer relu1_2
I1110 15:11:31.215723 104912 net.cpp:84] Creating Layer relu1_2
I1110 15:11:31.215731 104912 net.cpp:406] relu1_2 <- conv1_2
I1110 15:11:31.215744 104912 net.cpp:367] relu1_2 -> conv1_2 (in-place)
I1110 15:11:31.215759 104912 net.cpp:122] Setting up relu1_2
I1110 15:11:31.215770 104912 net.cpp:129] Top shape: 32 64 224 224 (102760448)
I1110 15:11:31.215777 104912 net.cpp:137] Memory required for data: 1663435264
I1110 15:11:31.215785 104912 layer_factory.hpp:77] Creating layer pool1
I1110 15:11:31.215797 104912 net.cpp:84] Creating Layer pool1
I1110 15:11:31.215806 104912 net.cpp:406] pool1 <- conv1_2
I1110 15:11:31.215818 104912 net.cpp:380] pool1 -> pool1
I1110 15:11:31.218164 104912 net.cpp:122] Setting up pool1
I1110 15:11:31.218199 104912 net.cpp:129] Top shape: 32 64 112 112 (25690112)
I1110 15:11:31.218209 104912 net.cpp:137] Memory required for data: 1766195712
I1110 15:11:31.218219 104912 layer_factory.hpp:77] Creating layer conv2_1
I1110 15:11:31.218236 104912 net.cpp:84] Creating Layer conv2_1
I1110 15:11:31.218245 104912 net.cpp:406] conv2_1 <- pool1
I1110 15:11:31.218261 104912 net.cpp:380] conv2_1 -> conv2_1
I1110 15:11:31.219724 104912 net.cpp:122] Setting up conv2_1
I1110 15:11:31.219753 104912 net.cpp:129] Top shape: 32 128 112 112 (51380224)
I1110 15:11:31.219761 104912 net.cpp:137] Memory required for data: 1971716608
I1110 15:11:31.219784 104912 layer_factory.hpp:77] Creating layer relu2_1
I1110 15:11:31.219800 104912 net.cpp:84] Creating Layer relu2_1
I1110 15:11:31.219810 104912 net.cpp:406] relu2_1 <- conv2_1
I1110 15:11:31.219835 104912 net.cpp:367] relu2_1 -> conv2_1 (in-place)
I1110 15:11:31.219867 104912 net.cpp:122] Setting up relu2_1
I1110 15:11:31.219878 104912 net.cpp:129] Top shape: 32 128 112 112 (51380224)
I1110 15:11:31.219887 104912 net.cpp:137] Memory required for data: 2177237504
I1110 15:11:31.219893 104912 layer_factory.hpp:77] Creating layer conv2_2
I1110 15:11:31.219909 104912 net.cpp:84] Creating Layer conv2_2
I1110 15:11:31.219918 104912 net.cpp:406] conv2_2 <- conv2_1
I1110 15:11:31.219929 104912 net.cpp:380] conv2_2 -> conv2_2
I1110 15:11:31.220571 104912 net.cpp:122] Setting up conv2_2
I1110 15:11:31.220588 104912 net.cpp:129] Top shape: 32 128 112 112 (51380224)
I1110 15:11:31.220597 104912 net.cpp:137] Memory required for data: 2382758400
I1110 15:11:31.220608 104912 layer_factory.hpp:77] Creating layer relu2_2
I1110 15:11:31.220620 104912 net.cpp:84] Creating Layer relu2_2
I1110 15:11:31.220629 104912 net.cpp:406] relu2_2 <- conv2_2
I1110 15:11:31.220639 104912 net.cpp:367] relu2_2 -> conv2_2 (in-place)
I1110 15:11:31.220651 104912 net.cpp:122] Setting up relu2_2
I1110 15:11:31.220661 104912 net.cpp:129] Top shape: 32 128 112 112 (51380224)
I1110 15:11:31.220670 104912 net.cpp:137] Memory required for data: 2588279296
I1110 15:11:31.220677 104912 layer_factory.hpp:77] Creating layer pool2
I1110 15:11:31.220690 104912 net.cpp:84] Creating Layer pool2
I1110 15:11:31.220697 104912 net.cpp:406] pool2 <- conv2_2
I1110 15:11:31.220710 104912 net.cpp:380] pool2 -> pool2
I1110 15:11:31.220782 104912 net.cpp:122] Setting up pool2
I1110 15:11:31.220795 104912 net.cpp:129] Top shape: 32 128 56 56 (12845056)
I1110 15:11:31.220803 104912 net.cpp:137] Memory required for data: 2639659520
I1110 15:11:31.220810 104912 layer_factory.hpp:77] Creating layer conv3_1
I1110 15:11:31.220824 104912 net.cpp:84] Creating Layer conv3_1
I1110 15:11:31.220831 104912 net.cpp:406] conv3_1 <- pool2
I1110 15:11:31.220844 104912 net.cpp:380] conv3_1 -> conv3_1
I1110 15:11:31.222585 104912 net.cpp:122] Setting up conv3_1
I1110 15:11:31.222609 104912 net.cpp:129] Top shape: 32 256 56 56 (25690112)
I1110 15:11:31.222616 104912 net.cpp:137] Memory required for data: 2742419968
I1110 15:11:31.222635 104912 layer_factory.hpp:77] Creating layer relu3_1
I1110 15:11:31.222651 104912 net.cpp:84] Creating Layer relu3_1
I1110 15:11:31.222658 104912 net.cpp:406] relu3_1 <- conv3_1
I1110 15:11:31.222671 104912 net.cpp:367] relu3_1 -> conv3_1 (in-place)
I1110 15:11:31.222684 104912 net.cpp:122] Setting up relu3_1
I1110 15:11:31.222697 104912 net.cpp:129] Top shape: 32 256 56 56 (25690112)
I1110 15:11:31.222703 104912 net.cpp:137] Memory required for data: 2845180416
I1110 15:11:31.222710 104912 layer_factory.hpp:77] Creating layer conv3_2
I1110 15:11:31.222724 104912 net.cpp:84] Creating Layer conv3_2
I1110 15:11:31.222733 104912 net.cpp:406] conv3_2 <- conv3_1
I1110 15:11:31.222745 104912 net.cpp:380] conv3_2 -> conv3_2
I1110 15:11:31.225558 104912 net.cpp:122] Setting up conv3_2
I1110 15:11:31.225582 104912 net.cpp:129] Top shape: 32 256 56 56 (25690112)
I1110 15:11:31.225592 104912 net.cpp:137] Memory required for data: 2947940864
I1110 15:11:31.225605 104912 layer_factory.hpp:77] Creating layer relu3_2
I1110 15:11:31.225617 104912 net.cpp:84] Creating Layer relu3_2
I1110 15:11:31.225626 104912 net.cpp:406] relu3_2 <- conv3_2
I1110 15:11:31.225641 104912 net.cpp:367] relu3_2 -> conv3_2 (in-place)
I1110 15:11:31.225653 104912 net.cpp:122] Setting up relu3_2
I1110 15:11:31.225663 104912 net.cpp:129] Top shape: 32 256 56 56 (25690112)
I1110 15:11:31.225670 104912 net.cpp:137] Memory required for data: 3050701312
I1110 15:11:31.225679 104912 layer_factory.hpp:77] Creating layer conv3_3
I1110 15:11:31.225697 104912 net.cpp:84] Creating Layer conv3_3
I1110 15:11:31.225705 104912 net.cpp:406] conv3_3 <- conv3_2
I1110 15:11:31.225718 104912 net.cpp:380] conv3_3 -> conv3_3
I1110 15:11:31.228469 104912 net.cpp:122] Setting up conv3_3
I1110 15:11:31.228493 104912 net.cpp:129] Top shape: 32 256 56 56 (25690112)
I1110 15:11:31.228502 104912 net.cpp:137] Memory required for data: 3153461760
I1110 15:11:31.228520 104912 layer_factory.hpp:77] Creating layer relu3_3
I1110 15:11:31.228544 104912 net.cpp:84] Creating Layer relu3_3
I1110 15:11:31.228554 104912 net.cpp:406] relu3_3 <- conv3_3
I1110 15:11:31.228564 104912 net.cpp:367] relu3_3 -> conv3_3 (in-place)
I1110 15:11:31.228576 104912 net.cpp:122] Setting up relu3_3
I1110 15:11:31.228587 104912 net.cpp:129] Top shape: 32 256 56 56 (25690112)
I1110 15:11:31.228595 104912 net.cpp:137] Memory required for data: 3256222208
I1110 15:11:31.228601 104912 layer_factory.hpp:77] Creating layer conv3_4
I1110 15:11:31.228613 104912 net.cpp:84] Creating Layer conv3_4
I1110 15:11:31.228622 104912 net.cpp:406] conv3_4 <- conv3_3
I1110 15:11:31.228633 104912 net.cpp:380] conv3_4 -> conv3_4
I1110 15:11:31.231335 104912 net.cpp:122] Setting up conv3_4
I1110 15:11:31.231359 104912 net.cpp:129] Top shape: 32 256 56 56 (25690112)
I1110 15:11:31.231369 104912 net.cpp:137] Memory required for data: 3358982656
I1110 15:11:31.231379 104912 layer_factory.hpp:77] Creating layer relu3_4
I1110 15:11:31.231391 104912 net.cpp:84] Creating Layer relu3_4
I1110 15:11:31.231400 104912 net.cpp:406] relu3_4 <- conv3_4
I1110 15:11:31.231412 104912 net.cpp:367] relu3_4 -> conv3_4 (in-place)
I1110 15:11:31.231425 104912 net.cpp:122] Setting up relu3_4
I1110 15:11:31.231434 104912 net.cpp:129] Top shape: 32 256 56 56 (25690112)
I1110 15:11:31.231441 104912 net.cpp:137] Memory required for data: 3461743104
I1110 15:11:31.231448 104912 layer_factory.hpp:77] Creating layer pool3
I1110 15:11:31.231461 104912 net.cpp:84] Creating Layer pool3
I1110 15:11:31.231467 104912 net.cpp:406] pool3 <- conv3_4
I1110 15:11:31.231478 104912 net.cpp:380] pool3 -> pool3
I1110 15:11:31.231549 104912 net.cpp:122] Setting up pool3
I1110 15:11:31.231559 104912 net.cpp:129] Top shape: 32 256 28 28 (6422528)
I1110 15:11:31.231566 104912 net.cpp:137] Memory required for data: 3487433216
I1110 15:11:31.231572 104912 layer_factory.hpp:77] Creating layer conv4_1
I1110 15:11:31.231587 104912 net.cpp:84] Creating Layer conv4_1
I1110 15:11:31.231595 104912 net.cpp:406] conv4_1 <- pool3
I1110 15:11:31.231606 104912 net.cpp:380] conv4_1 -> conv4_1
I1110 15:11:31.236240 104912 net.cpp:122] Setting up conv4_1
I1110 15:11:31.236269 104912 net.cpp:129] Top shape: 32 512 28 28 (12845056)
I1110 15:11:31.236277 104912 net.cpp:137] Memory required for data: 3538813440
I1110 15:11:31.236299 104912 layer_factory.hpp:77] Creating layer relu4_1
I1110 15:11:31.236311 104912 net.cpp:84] Creating Layer relu4_1
I1110 15:11:31.236320 104912 net.cpp:406] relu4_1 <- conv4_1
I1110 15:11:31.236331 104912 net.cpp:367] relu4_1 -> conv4_1 (in-place)
I1110 15:11:31.236343 104912 net.cpp:122] Setting up relu4_1
I1110 15:11:31.236352 104912 net.cpp:129] Top shape: 32 512 28 28 (12845056)
I1110 15:11:31.236359 104912 net.cpp:137] Memory required for data: 3590193664
I1110 15:11:31.236366 104912 layer_factory.hpp:77] Creating layer conv4_2
I1110 15:11:31.236380 104912 net.cpp:84] Creating Layer conv4_2
I1110 15:11:31.236387 104912 net.cpp:406] conv4_2 <- conv4_1
I1110 15:11:31.236398 104912 net.cpp:380] conv4_2 -> conv4_2
I1110 15:11:31.244709 104912 net.cpp:122] Setting up conv4_2
I1110 15:11:31.244740 104912 net.cpp:129] Top shape: 32 512 28 28 (12845056)
I1110 15:11:31.244747 104912 net.cpp:137] Memory required for data: 3641573888
I1110 15:11:31.244760 104912 layer_factory.hpp:77] Creating layer relu4_2
I1110 15:11:31.244774 104912 net.cpp:84] Creating Layer relu4_2
I1110 15:11:31.244781 104912 net.cpp:406] relu4_2 <- conv4_2
I1110 15:11:31.244791 104912 net.cpp:367] relu4_2 -> conv4_2 (in-place)
I1110 15:11:31.244804 104912 net.cpp:122] Setting up relu4_2
I1110 15:11:31.244813 104912 net.cpp:129] Top shape: 32 512 28 28 (12845056)
I1110 15:11:31.244819 104912 net.cpp:137] Memory required for data: 3692954112
I1110 15:11:31.244827 104912 layer_factory.hpp:77] Creating layer conv4_3
I1110 15:11:31.244841 104912 net.cpp:84] Creating Layer conv4_3
I1110 15:11:31.244848 104912 net.cpp:406] conv4_3 <- conv4_2
I1110 15:11:31.244858 104912 net.cpp:380] conv4_3 -> conv4_3
I1110 15:11:31.255414 104912 net.cpp:122] Setting up conv4_3
I1110 15:11:31.255467 104912 net.cpp:129] Top shape: 32 512 28 28 (12845056)
I1110 15:11:31.255475 104912 net.cpp:137] Memory required for data: 3744334336
I1110 15:11:31.255487 104912 layer_factory.hpp:77] Creating layer relu4_3
I1110 15:11:31.255499 104912 net.cpp:84] Creating Layer relu4_3
I1110 15:11:31.255507 104912 net.cpp:406] relu4_3 <- conv4_3
I1110 15:11:31.255517 104912 net.cpp:367] relu4_3 -> conv4_3 (in-place)
I1110 15:11:31.255530 104912 net.cpp:122] Setting up relu4_3
I1110 15:11:31.255538 104912 net.cpp:129] Top shape: 32 512 28 28 (12845056)
I1110 15:11:31.255545 104912 net.cpp:137] Memory required for data: 3795714560
I1110 15:11:31.255551 104912 layer_factory.hpp:77] Creating layer conv4_4
I1110 15:11:31.255566 104912 net.cpp:84] Creating Layer conv4_4
I1110 15:11:31.255573 104912 net.cpp:406] conv4_4 <- conv4_3
I1110 15:11:31.255585 104912 net.cpp:380] conv4_4 -> conv4_4
I1110 15:11:31.263308 104912 net.cpp:122] Setting up conv4_4
I1110 15:11:31.263345 104912 net.cpp:129] Top shape: 32 512 28 28 (12845056)
I1110 15:11:31.263353 104912 net.cpp:137] Memory required for data: 3847094784
I1110 15:11:31.263365 104912 layer_factory.hpp:77] Creating layer relu4_4
I1110 15:11:31.263376 104912 net.cpp:84] Creating Layer relu4_4
I1110 15:11:31.263383 104912 net.cpp:406] relu4_4 <- conv4_4
I1110 15:11:31.263396 104912 net.cpp:367] relu4_4 -> conv4_4 (in-place)
I1110 15:11:31.263408 104912 net.cpp:122] Setting up relu4_4
I1110 15:11:31.263417 104912 net.cpp:129] Top shape: 32 512 28 28 (12845056)
I1110 15:11:31.263423 104912 net.cpp:137] Memory required for data: 3898475008
I1110 15:11:31.263429 104912 layer_factory.hpp:77] Creating layer pool4
I1110 15:11:31.263440 104912 net.cpp:84] Creating Layer pool4
I1110 15:11:31.263447 104912 net.cpp:406] pool4 <- conv4_4
I1110 15:11:31.263456 104912 net.cpp:380] pool4 -> pool4
I1110 15:11:31.263540 104912 net.cpp:122] Setting up pool4
I1110 15:11:31.263550 104912 net.cpp:129] Top shape: 32 512 14 14 (3211264)
I1110 15:11:31.263556 104912 net.cpp:137] Memory required for data: 3911320064
I1110 15:11:31.263561 104912 layer_factory.hpp:77] Creating layer conv5_1
I1110 15:11:31.263574 104912 net.cpp:84] Creating Layer conv5_1
I1110 15:11:31.263582 104912 net.cpp:406] conv5_1 <- pool4
I1110 15:11:31.263593 104912 net.cpp:380] conv5_1 -> conv5_1
I1110 15:11:31.270990 104912 net.cpp:122] Setting up conv5_1
I1110 15:11:31.271019 104912 net.cpp:129] Top shape: 32 512 14 14 (3211264)
I1110 15:11:31.271026 104912 net.cpp:137] Memory required for data: 3924165120
I1110 15:11:31.271037 104912 layer_factory.hpp:77] Creating layer relu5_1
I1110 15:11:31.271047 104912 net.cpp:84] Creating Layer relu5_1
I1110 15:11:31.271056 104912 net.cpp:406] relu5_1 <- conv5_1
I1110 15:11:31.271066 104912 net.cpp:367] relu5_1 -> conv5_1 (in-place)
I1110 15:11:31.271077 104912 net.cpp:122] Setting up relu5_1
I1110 15:11:31.271085 104912 net.cpp:129] Top shape: 32 512 14 14 (3211264)
I1110 15:11:31.271090 104912 net.cpp:137] Memory required for data: 3937010176
I1110 15:11:31.271097 104912 layer_factory.hpp:77] Creating layer conv5_2
I1110 15:11:31.271121 104912 net.cpp:84] Creating Layer conv5_2
I1110 15:11:31.271128 104912 net.cpp:406] conv5_2 <- conv5_1
I1110 15:11:31.271136 104912 net.cpp:380] conv5_2 -> conv5_2
I1110 15:11:31.278406 104912 net.cpp:122] Setting up conv5_2
I1110 15:11:31.278432 104912 net.cpp:129] Top shape: 32 512 14 14 (3211264)
I1110 15:11:31.278439 104912 net.cpp:137] Memory required for data: 3949855232
I1110 15:11:31.278447 104912 layer_factory.hpp:77] Creating layer relu5_2
I1110 15:11:31.278458 104912 net.cpp:84] Creating Layer relu5_2
I1110 15:11:31.278465 104912 net.cpp:406] relu5_2 <- conv5_2
I1110 15:11:31.278476 104912 net.cpp:367] relu5_2 -> conv5_2 (in-place)
I1110 15:11:31.278486 104912 net.cpp:122] Setting up relu5_2
I1110 15:11:31.278494 104912 net.cpp:129] Top shape: 32 512 14 14 (3211264)
I1110 15:11:31.278499 104912 net.cpp:137] Memory required for data: 3962700288
I1110 15:11:31.278515 104912 layer_factory.hpp:77] Creating layer conv5_3
I1110 15:11:31.278538 104912 net.cpp:84] Creating Layer conv5_3
I1110 15:11:31.278545 104912 net.cpp:406] conv5_3 <- conv5_2
I1110 15:11:31.278558 104912 net.cpp:380] conv5_3 -> conv5_3
I1110 15:11:31.285626 104912 net.cpp:122] Setting up conv5_3
I1110 15:11:31.285651 104912 net.cpp:129] Top shape: 32 512 14 14 (3211264)
I1110 15:11:31.285657 104912 net.cpp:137] Memory required for data: 3975545344
I1110 15:11:31.285667 104912 layer_factory.hpp:77] Creating layer relu5_3
I1110 15:11:31.285677 104912 net.cpp:84] Creating Layer relu5_3
I1110 15:11:31.285683 104912 net.cpp:406] relu5_3 <- conv5_3
I1110 15:11:31.285694 104912 net.cpp:367] relu5_3 -> conv5_3 (in-place)
I1110 15:11:31.285704 104912 net.cpp:122] Setting up relu5_3
I1110 15:11:31.285712 104912 net.cpp:129] Top shape: 32 512 14 14 (3211264)
I1110 15:11:31.285717 104912 net.cpp:137] Memory required for data: 3988390400
I1110 15:11:31.285722 104912 layer_factory.hpp:77] Creating layer conv5_4
I1110 15:11:31.285734 104912 net.cpp:84] Creating Layer conv5_4
I1110 15:11:31.285740 104912 net.cpp:406] conv5_4 <- conv5_3
I1110 15:11:31.285748 104912 net.cpp:380] conv5_4 -> conv5_4
I1110 15:11:31.293145 104912 net.cpp:122] Setting up conv5_4
I1110 15:11:31.293175 104912 net.cpp:129] Top shape: 32 512 14 14 (3211264)
I1110 15:11:31.293181 104912 net.cpp:137] Memory required for data: 4001235456
I1110 15:11:31.293191 104912 layer_factory.hpp:77] Creating layer relu5_4
I1110 15:11:31.293202 104912 net.cpp:84] Creating Layer relu5_4
I1110 15:11:31.293210 104912 net.cpp:406] relu5_4 <- conv5_4
I1110 15:11:31.293217 104912 net.cpp:367] relu5_4 -> conv5_4 (in-place)
I1110 15:11:31.293227 104912 net.cpp:122] Setting up relu5_4
I1110 15:11:31.293236 104912 net.cpp:129] Top shape: 32 512 14 14 (3211264)
I1110 15:11:31.293241 104912 net.cpp:137] Memory required for data: 4014080512
I1110 15:11:31.293246 104912 layer_factory.hpp:77] Creating layer pool5
I1110 15:11:31.293257 104912 net.cpp:84] Creating Layer pool5
I1110 15:11:31.293263 104912 net.cpp:406] pool5 <- conv5_4
I1110 15:11:31.293272 104912 net.cpp:380] pool5 -> pool5
I1110 15:11:31.293328 104912 net.cpp:122] Setting up pool5
I1110 15:11:31.293336 104912 net.cpp:129] Top shape: 32 512 7 7 (802816)
I1110 15:11:31.293342 104912 net.cpp:137] Memory required for data: 4017291776
I1110 15:11:31.293347 104912 layer_factory.hpp:77] Creating layer fc6
I1110 15:11:31.293359 104912 net.cpp:84] Creating Layer fc6
I1110 15:11:31.293365 104912 net.cpp:406] fc6 <- pool5
I1110 15:11:31.293377 104912 net.cpp:380] fc6 -> fc6
I1110 15:11:31.553759 104912 net.cpp:122] Setting up fc6
I1110 15:11:31.553831 104912 net.cpp:129] Top shape: 32 4096 (131072)
I1110 15:11:31.553839 104912 net.cpp:137] Memory required for data: 4017816064
I1110 15:11:31.553906 104912 layer_factory.hpp:77] Creating layer relu6
I1110 15:11:31.553932 104912 net.cpp:84] Creating Layer relu6
I1110 15:11:31.553948 104912 net.cpp:406] relu6 <- fc6
I1110 15:11:31.553958 104912 net.cpp:367] relu6 -> fc6 (in-place)
I1110 15:11:31.553970 104912 net.cpp:122] Setting up relu6
I1110 15:11:31.553974 104912 net.cpp:129] Top shape: 32 4096 (131072)
I1110 15:11:31.553977 104912 net.cpp:137] Memory required for data: 4018340352
I1110 15:11:31.553979 104912 layer_factory.hpp:77] Creating layer drop6
I1110 15:11:31.553993 104912 net.cpp:84] Creating Layer drop6
I1110 15:11:31.553997 104912 net.cpp:406] drop6 <- fc6
I1110 15:11:31.554003 104912 net.cpp:367] drop6 -> fc6 (in-place)
I1110 15:11:31.554036 104912 net.cpp:122] Setting up drop6
I1110 15:11:31.554042 104912 net.cpp:129] Top shape: 32 4096 (131072)
I1110 15:11:31.554045 104912 net.cpp:137] Memory required for data: 4018864640
I1110 15:11:31.554047 104912 layer_factory.hpp:77] Creating layer fc7
I1110 15:11:31.554056 104912 net.cpp:84] Creating Layer fc7
I1110 15:11:31.554060 104912 net.cpp:406] fc7 <- fc6
I1110 15:11:31.554066 104912 net.cpp:380] fc7 -> fc7
I1110 15:11:31.594233 104912 net.cpp:122] Setting up fc7
I1110 15:11:31.594282 104912 net.cpp:129] Top shape: 32 4096 (131072)
I1110 15:11:31.594296 104912 net.cpp:137] Memory required for data: 4019388928
I1110 15:11:31.594316 104912 layer_factory.hpp:77] Creating layer relu7
I1110 15:11:31.594337 104912 net.cpp:84] Creating Layer relu7
I1110 15:11:31.594341 104912 net.cpp:406] relu7 <- fc7
I1110 15:11:31.594349 104912 net.cpp:367] relu7 -> fc7 (in-place)
I1110 15:11:31.594357 104912 net.cpp:122] Setting up relu7
I1110 15:11:31.594360 104912 net.cpp:129] Top shape: 32 4096 (131072)
I1110 15:11:31.594363 104912 net.cpp:137] Memory required for data: 4019913216
I1110 15:11:31.594367 104912 layer_factory.hpp:77] Creating layer drop7
I1110 15:11:31.594372 104912 net.cpp:84] Creating Layer drop7
I1110 15:11:31.594374 104912 net.cpp:406] drop7 <- fc7
I1110 15:11:31.594379 104912 net.cpp:367] drop7 -> fc7 (in-place)
I1110 15:11:31.594405 104912 net.cpp:122] Setting up drop7
I1110 15:11:31.594409 104912 net.cpp:129] Top shape: 32 4096 (131072)
I1110 15:11:31.594413 104912 net.cpp:137] Memory required for data: 4020437504
I1110 15:11:31.594415 104912 layer_factory.hpp:77] Creating layer fc8_re
I1110 15:11:31.594422 104912 net.cpp:84] Creating Layer fc8_re
I1110 15:11:31.594425 104912 net.cpp:406] fc8_re <- fc7
I1110 15:11:31.594429 104912 net.cpp:380] fc8_re -> fc8
I1110 15:11:31.595520 104912 net.cpp:122] Setting up fc8_re
I1110 15:11:31.595531 104912 net.cpp:129] Top shape: 32 80 (2560)
I1110 15:11:31.595535 104912 net.cpp:137] Memory required for data: 4020447744
I1110 15:11:31.595540 104912 layer_factory.hpp:77] Creating layer fc8_fc8_re_0_split
I1110 15:11:31.595546 104912 net.cpp:84] Creating Layer fc8_fc8_re_0_split
I1110 15:11:31.595548 104912 net.cpp:406] fc8_fc8_re_0_split <- fc8
I1110 15:11:31.595554 104912 net.cpp:380] fc8_fc8_re_0_split -> fc8_fc8_re_0_split_0
I1110 15:11:31.595561 104912 net.cpp:380] fc8_fc8_re_0_split -> fc8_fc8_re_0_split_1
I1110 15:11:31.595566 104912 net.cpp:380] fc8_fc8_re_0_split -> fc8_fc8_re_0_split_2
I1110 15:11:31.595605 104912 net.cpp:122] Setting up fc8_fc8_re_0_split
I1110 15:11:31.595610 104912 net.cpp:129] Top shape: 32 80 (2560)
I1110 15:11:31.595613 104912 net.cpp:129] Top shape: 32 80 (2560)
I1110 15:11:31.595616 104912 net.cpp:129] Top shape: 32 80 (2560)
I1110 15:11:31.595619 104912 net.cpp:137] Memory required for data: 4020478464
I1110 15:11:31.595623 104912 layer_factory.hpp:77] Creating layer loss
I1110 15:11:31.595631 104912 net.cpp:84] Creating Layer loss
I1110 15:11:31.595634 104912 net.cpp:406] loss <- fc8_fc8_re_0_split_0
I1110 15:11:31.595640 104912 net.cpp:406] loss <- label_data_1_split_0
I1110 15:11:31.595649 104912 net.cpp:380] loss -> loss/loss
…
