…
I1129 23:54:10.336988 189118 net.cpp:294] The NetState phase (0) differed from the phase (1) specified by a rule in layer acc/top-3
I1129 23:54:10.338883 189118 net.cpp:51] Initializing net from parameters: 
name: "ResNet-152"
state {
  phase: TRAIN
  level: 0
  stage: ""
}
layer {
  name: "data"
  type: "Python"
  top: "data"
  top: "label"
  include {
    phase: TRAIN
  }
  python_param {
    module: "data_layer_res-zscore"
    layer: "PythonDataLayer"
    param_str: "{\"path\":\"/home/yuchaohui/ych/caffe_ych/data/chaai/train/img_train_lmdb/\",\"batch_size\":10,\"input_size\":256,\"target_size\":240,\"mode\":\"train\"}"
    share_in_parallel: true
  }
}
layer {
  name: "conv1"
  type: "Convolution"
  bottom: "data"
  top: "conv1"
  convolution_param {
    num_output: 64
    bias_term: false
    pad: 3
    kernel_size: 7
    stride: 2
    weight_filler {
      type: "msra"
    }
  }
}
layer {
  name: "bn_conv1"
  type: "BatchNorm"
  bottom: "conv1"
  top: "conv1"
  batch_norm_param {
    use_global_stats: false
  }
}
layer {
  name: "scale_conv1"
  type: "Scale"
  bottom: "conv1"
  top: "conv1"
  scale_param {
    bias_term: true
  }
}
layer {
  name: "conv1_relu"
  type: "ReLU"
  bottom: "conv1"
  top: "conv1"
}
layer {
  name: "pool1"
  type: "Pooling"
  bottom: "conv1"
  top: "pool1"
  pooling_param {
    pool: MAX
    kernel_size: 3
    stride: 2
  }
}
layer {
  name: "res2a_branch1"
  type: "Convolution"
  bottom: "pool1"
  top: "res2a_branch1"
  convolution_param {
    num_output: 256
    bias_term: false
    pad: 0
    kernel_size: 1
    stride: 1
    weight_filler {
      type: "msra"
    }
  }
}
layer {
  name: "bn2a_branch1"
  type: "BatchNorm"
  bottom: "res2a_branch1"
  top: "res2a_branch1"
  batch_norm_param {
    use_global_stats: false
  }
}
layer {
  name: "scale2a_branch1"
  type: "Scale"
  bottom: "res2a_branch1"
  top: "res2a_branch1"
  scale_param {
    bias_term: true
  }
}
layer {
  name: "res2a_branch2a"
  type: "Convolution"
  bottom: "pool1"
  top: "res2a_branch2a"
  convolution_param {
    num_output: 64
    bias_term: false
    pad: 0
    kernel_size: 1
    stride: 1
    weight_filler {
      type: "msra"
    }
  }
}
layer {
  name: "bn2a_branch2a"
  type: "BatchNorm"
  bottom: "res2a_branch2a"
  top: "res2a_branch2a"
  batch_norm_param {
    use_global_stats: false
  }
}
layer {
  name: "scale2a_branch2a"
  type: "Scale"
  bottom: "res2a_branch2a"
  top: "res2a_branch2a"
  scale_param {
    bias_term: true
  }
}
layer {
  name: "res2a_branch2a_relu"
  type: "ReLU"
  bottom: "res2a_branch2a"
  top: "res2a_branch2a"
}
layer {
  name: "res2a_branch2b"
  type: "Convolution"
  bottom: "res2a_branch2a"
  top: "res2a_branch2b"
  convolution_param {
    num_output: 64
    bias_term: false
    pad: 1
    kernel_size: 3
    stride: 1
    weight_filler {
      type: "msra"
    }
  }
}
layer {
  name: "bn2a_branch2b"
  type: "BatchNorm"
  bottom: "res2a_branch2b"
  top: "res2a_branch2b"
  batch_norm_param {
    use_global_stats: false
  }
}
layer {
  name: "scale2a_branch2b"
  type: "Scale"
  bottom: "res2a_branch2b"
  top: "res2a_branch2b"
  scale_param {
    bias_term: true
  }
}
layer {
  name: "res2a_branch2b_relu"
  type: "ReLU"
  bottom: "res2a_branch2b"
  top: "res2a_branch2b"
}
layer {
  name: "res2a_branch2c"
  type: "Convolution"
  bottom: "res2a_branch2b"
  top: "res2a_branch2c"
  convolution_param {
    num_output: 256
    bias_term: false
    pad: 0
    kernel_size: 1
    stride: 1
    weight_filler {
      type: "msra"
    }
  }
}
layer {
  name: "bn2a_branch2c"
  type: "BatchNorm"
  bottom: "res2a_branch2c"
  top: "res2a_branch2c"
  batch_norm_param {
    use_global_stats: false
  }
}
layer {
  name: "scale2a_branch2c"
  type: "Scale"
  bottom: "res2a_branch2c"
  top: "res2a_branch2c"
  scale_param {
    bias_term: true
  }
}
layer {
  name: "res2a"
  type: "Eltwise"
  bottom: "res2a_branch1"
  bottom: "res2a_branch2c"
  top: "res2a"
  eltwise_param {
    operation: SUM
  }
}
layer {
  name: "res2a_relu"
  type: "ReLU"
  bottom: "res2a"
  top: "res2a"
}
layer {
  name: "res2b_branch2a"
  type: "Convolution"
  bottom: "res2a"
  top: "res2b_branch2a"
  convolution_param {
    num_output: 64
    bias_term: false
    pad: 0
    kernel_size: 1
    stride: 1
    weight_filler {
      type: "msra"
    }
  }
}
layer {
  name: "bn2b_branch2a"
  type: "BatchNorm"
  bottom: "res2b_branch2a"
  top: "res2b_branch2a"
  batch_norm_param {
    use_global_stats: false
  }
}
layer {
  name: "scale2b_branch2a"
  type: "Scale"
  bottom: "res2b_branch2a"
  top: "res2b_branch2a"
  scale_param {
    bias_term: true
  }
}
layer {
  name: "res2b_branch2a_relu"
  type: "ReLU"
  bottom: "res2b_branch2a"
  top: "res2b_branch2a"
}
layer {
  name: "res2b_branch2b"
  type: "Convolution"
  bottom: "res2b_branch2a"
  top: "res2b_branch2b"
  convolution_param {
    num_output: 64
    bias_term: false
    pad: 1
    kernel_size: 3
    stride: 1
    weight_filler {
      type: "msra"
    }
  }
}
layer {
  name: "bn2b_branch2b"
  type: "BatchNorm"
  bottom: "res2b_branch2b"
  top: "res2b_branch2b"
  batch_norm_param {
    use_global_stats: false
  }
}
layer {
  name: "scale2b_branch2b"
  type: "Scale"
  bottom: "res2b_branch2b"
  top: "res2b_branch2b"
  scale_param {
    bias_term: true
  }
}
layer {
  name: "res2b_branch2b_relu"
  type: "ReLU"
  bottom: "res2b_branch2b"
  top: "res2b_branch2b"
}
layer {
  name: "res2b_branch2c"
  type: "Convolution"
  bottom: "res2b_branch2b"
  top: "res2b_branch2c"
  convolution_param {
    num_output: 256
    bias_term: false
    pad: 0
    kernel_size: 1
    stride: 1
    weight_filler {
      type: "msra"
    }
  }
}
layer {
  name: "bn2b_branch2c"
  type: "BatchNorm"
  bottom: "res2b_branch2c"
  top: "res2b_branch2c"
  batch_norm_param {
    use_global_stats: false
  }
}
layer {
  name: "scale2b_branch2c"
  type: "Scale"
  bottom: "res2b_branch2c"
  top: "res2b_branch2c"
  scale_param {
    bias_term: true
  }
}
layer {
  name: "res2b"
  type: "Eltwise"
  bottom: "res2a"
  bottom: "res2b_branch2c"
  top: "res2b"
  eltwise_param {
    operation: SUM
  }
}
layer {
  name: "res2b_relu"
  type: "ReLU"
  bottom: "res2b"
  top: "res2b"
}
layer {
  name: "res2c_branch2a"
  type: "Convolution"
  bottom: "res2b"
  top: "res2c_branch2a"
  convolution_param {
    num_output: 64
    bias_term: false
    pad: 0
    kernel_size: 1
    stride: 1
    weight_filler {
      type: "msra"
    }
  }
}
layer {
  name: "bn2c_branch2a"
  type: "BatchNorm"
  bottom: "res2c_branch2a"
  top: "res2c_branch2a"
  batch_norm_param {
    use_global_stats: false
  }
}
layer {
  name: "scale2c_branch2a"
  type: "Scale"
  bottom: "res2c_branch2a"
  top: "res2c_branch2a"
  scale_param {
    bias_term: true
  }
}
layer {
  name: "res2c_branch2a_relu"
  type: "ReLU"
  bottom: "res2c_branch2a"
  top: "res2c_branch2a"
}
layer {
  name: "res2c_branch2b"
  type: "Convolution"
  bottom: "res2c_branch2a"
  top: "res2c_branch2b"
  convolution_param {
    num_output: 64
    bias_term: false
    pad: 1
    kernel_size: 3
    stride: 1
    weight_filler {
      type: "msra"
    }
  }
}
layer {
  name: "bn2c_branch2b"
  type: "BatchNorm"
  bottom: "res2c_branch2b"
  top: "res2c_branch2b"
  batch_norm_param {
    use_global_stats: false
  }
}
layer {
  name: "scale2c_branch2b"
  type: "Scale"
  bottom: "res2c_branch2b"
  top: "res2c_branch2b"
  scale_param {
    bias_term: true
  }
}
layer {
  name: "res2c_branch2b_relu"
  type: "ReLU"
  bottom: "res2c_branch2b"
  top: "res2c_branch2b"
}
layer {
  name: "res2c_branch2c"
  type: "Convolution"
  bottom: "res2c_branch2b"
  top: "res2c_branch2c"
  convolution_param {
    num_output: 256
    bias_term: false
    pad: 0
    kernel_size: 1
    stride: 1
    weight_filler {
      type: "msra"
    }
  }
}
layer {
  name: "bn2c_branch2c"
  type: "BatchNorm"
  bottom: "res2c_branch2c"
  top: "res2c_branch2c"
  batch_norm_param {
    use_global_stats: false
  }
}
layer {
  name: "scale2c_branch2c"
  type: "Scale"
  bottom: "res2c_branch2c"
  top: "res2c_branch2c"
  scale_param {
    bias_term: true
  }
}
layer {
  name: "res2c"
  type: "Eltwise"
  bottom: "res2b"
  bottom: "res2c_branch2c"
  top: "res2c"
  eltwise_param {
    operation: SUM
  }
}
layer {
  name: "res2c_relu"
  type: "ReLU"
  bottom: "res2c"
  top: "res2c"
}
layer {
  name: "res3a_branch1"
  type: "Convolution"
  bottom: "res2c"
  top: "res3a_branch1"
  convolution_param {
    num_output: 512
    bias_term: false
    pad: 0
    kernel_size: 1
    stride: 2
    weight_filler {
      type: "msra"
    }
  }
}
layer {
  name: "bn3a_branch1"
  type: "BatchNorm"
  bottom: "res3a_branch1"
  top: "res3a_branch1"
  batch_norm_param {
    use_global_stats: false
  }
}
layer {
  name: "scale3a_branch1"
  type: "Scale"
  bottom: "res3a_branch1"
  top: "res3a_branch1"
  scale_param {
    bias_term: true
  }
}
layer {
  name: "res3a_branch2a"
  type: "Convolution"
  bottom: "res2c"
  top: "res3a_branch2a"
  convolution_param {
    num_output: 128
    bias_term: false
    pad: 0
    kernel_size: 1
    stride: 2
    weight_filler {
      type: "msra"
    }
  }
}
layer {
  name: "bn3a_branch2a"
  type: "BatchNorm"
  bottom: "res3a_branch2a"
  top: "res3a_branch2a"
  batch_norm_param {
    use_global_stats: false
  }
}
layer {
  name: "scale3a_branch2a"
  type: "Scale"
  bottom: "res3a_branch2a"
  top: "res3a_branch2a"
  scale_param {
    bias_term: true
  }
}
layer {
  name: "res3a_branch2a_relu"
  type: "ReLU"
  bottom: "res3a_branch2a"
  top: "res3a_branch2a"
}
layer {
  name: "res3a_branch2b"
  type: "Convolution"
  bottom: "res3a_branch2a"
  top: "res3a_branch2b"
  convolution_param {
    num_output: 128
    bias_term: false
    pad: 1
    kernel_size: 3
    stride: 1
    weight_filler {
      type: "msra"
    }
  }
}
layer {
  name: "bn3a_branch2b"
  type: "BatchNorm"
  bottom: "res3a_branch2b"
  top: "res3a_branch2b"
  batch_norm_param {
    use_global_stats: false
  }
}
layer {
  name: "scale3a_branch2b"
  type: "Scale"
  bottom: "res3a_branch2b"
  top: "res3a_branch2b"
  scale_param {
    bias_term: true
  }
}
layer {
  name: "res3a_branch2b_relu"
  type: "ReLU"
  bottom: "res3a_branch2b"
  top: "res3a_branch2b"
}
layer {
  name: "res3a_branch2c"
  type: "Convolution"
  bottom: "res3a_branch2b"
  top: "res3a_branch2c"
  convolution_param {
    num_output: 512
    bias_term: false
    pad: 0
    kernel_size: 1
    stride: 1
    weight_filler {
      type: "msra"
    }
  }
}
layer {
  name: "bn3a_branch2c"
  type: "BatchNorm"
  bottom: "res3a_branch2c"
  top: "res3a_branch2c"
  batch_norm_param {
    use_global_stats: false
  }
}
layer {
  name: "scale3a_branch2c"
  type: "Scale"
  bottom: "res3a_branch2c"
  top: "res3a_branch2c"
  scale_param {
    bias_term: true
  }
}
layer {
  name: "res3a"
  type: "Eltwise"
  bottom: "res3a_branch1"
  bottom: "res3a_branch2c"
  top: "res3a"
  eltwise_param {
    operation: SUM
  }
}
layer {
  name: "res3a_relu"
  type: "ReLU"
  bottom: "res3a"
  top: "res3a"
}
layer {
  name: "res3b1_branch2a"
  type: "Convolution"
  bottom: "res3a"
  top: "res3b1_branch2a"
  convolution_param {
    num_output: 128
    bias_term: false
    pad: 0
    kernel_size: 1
    stride: 1
    weight_filler {
      type: "msra"
    }
  }
}
layer {
  name: "bn3b1_branch2a"
  type: "BatchNorm"
  bottom: "res3b1_branch2a"
  top: "res3b1_branch2a"
  batch_norm_param {
    use_global_stats: false
  }
}
layer {
  name: "scale3b1_branch2a"
  type: "Scale"
  bottom: "res3b1_branch2a"
  top: "res3b1_branch2a"
  scale_param {
    bias_term: true
  }
}
layer {
  name: "res3b1_branch2a_relu"
  type: "ReLU"
  bottom: "res3b1_branch2a"
  top: "res3b1_branch2a"
}
layer {
  name: "res3b1_branch2b"
  type: "Convolution"
  bottom: "res3b1_branch2a"
  top: "res3b1_branch2b"
  convolution_param {
    num_output: 128
    bias_term: false
    pad: 1
    kernel_size: 3
    stride: 1
    weight_filler {
      type: "msra"
    }
  }
}
layer {
  name: "bn3b1_branch2b"
  type: "BatchNorm"
  bottom: "res3b1_branch2b"
  top: "res3b1_branch2b"
  batch_norm_param {
    use_global_stats: false
  }
}
layer {
  name: "scale3b1_branch2b"
  type: "Scale"
  bottom: "res3b1_branch2b"
  top: "res3b1_branch2b"
  scale_param {
    bias_term: true
  }
}
layer {
  name: "res3b1_branch2b_relu"
  type: "ReLU"
  bottom: "res3b1_branch2b"
  top: "res3b1_branch2b"
}
layer {
  name: "res3b1_branch2c"
  type: "Convolution"
  bottom: "res3b1_branch2b"
  top: "res3b1_branch2c"
  convolution_param {
    num_output: 512
    bias_term: false
    pad: 0
    kernel_size: 1
    stride: 1
    weight_filler {
      type: "msra"
    }
  }
}
layer {
  name: "bn3b1_branch2c"
  type: "BatchNorm"
  bottom: "res3b1_branch2c"
  top: "res3b1_branch2c"
  batch_norm_param {
    use_global_stats: false
  }
}
layer {
  name: "scale3b1_branch2c"
  type: "Scale"
  bottom: "res3b1_branch2c"
  top: "res3b1_branch2c"
  scale_param {
    bias_term: true
  }
}
layer {
  name: "res3b1"
  type: "Eltwise"
  bottom: "res3a"
  bottom: "res3b1_branch2c"
  top: "res3b1"
  eltwise_param {
    operation: SUM
  }
}
layer {
  name: "res3b1_relu"
  type: "ReLU"
  bottom: "res3b1"
  top: "res3b1"
}
layer {
  name: "res3b2_branch2a"
  type: "Convolution"
  bottom: "res3b1"
  top: "res3b2_branch2a"
  convolution_param {
    num_output: 128
    bias_term: false
    pad: 0
    kernel_size: 1
    stride: 1
    weight_filler {
      type: "msra"
    }
  }
}
layer {
  name: "bn3b2_branch2a"
  type: "BatchNorm"
  bottom: "res3b2_branch2a"
  top: "res3b2_branch2a"
  batch_norm_param {
    use_global_stats: false
  }
}
layer {
  name: "scale3b2_branch2a"
  type: "Scale"
  bottom: "res3b2_branch2a"
  top: "res3b2_branch2a"
  scale_param {
    bias_term: true
  }
}
layer {
  name: "res3b2_branch2a_relu"
  type: "ReLU"
  bottom: "res3b2_branch2a"
  top: "res3b2_branch2a"
}
layer {
  name: "res3b2_branch2b"
  type: "Convolution"
  bottom: "res3b2_branch2a"
  top: "res3b2_branch2b"
  convolution_param {
    num_output: 128
    bias_term: false
    pad: 1
    kernel_size: 3
    stride: 1
    weight_filler {
      type: "msra"
    }
  }
}
layer {
  name: "bn3b2_branch2b"
  type: "BatchNorm"
  bottom: "res3b2_branch2b"
  top: "res3b2_branch2b"
  batch_norm_param {
    use_global_stats: false
  }
}
layer {
  name: "scale3b2_branch2b"
  type: "Scale"
  bottom: "res3b2_branch2b"
  top: "res3b2_branch2b"
  scale_param {
    bias_term: true
  }
}
layer {
  name: "res3b2_branch2b_relu"
  type: "ReLU"
  bottom: "res3b2_branch2b"
  top: "res3b2_branch2b"
}
layer {
  name: "res3b2_branch2c"
  type: "Convolution"
  bottom: "res3b2_branch2b"
  top: "res3b2_branch2c"
  convolution_param {
    num_output: 512
    bias_term: false
    pad: 0
    kernel_size: 1
    stride: 1
    weight_filler {
      type: "msra"
    }
  }
}
layer {
  name: "bn3b2_branch2c"
  type: "BatchNorm"
  bottom: "res3b2_branch2c"
  top: "res3b2_branch2c"
  batch_norm_param {
    use_global_stats: false
  }
}
layer {
  name: "scale3b2_branch2c"
  type: "Scale"
  bottom: "res3b2_branch2c"
  top: "res3b2_branch2c"
  scale_param {
    bias_term: true
  }
}
layer {
  name: "res3b2"
  type: "Eltwise"
  bottom: "res3b1"
  bottom: "res3b2_branch2c"
  top: "res3b2"
  eltwise_param {
    operation: SUM
  }
}
layer {
  name: "res3b2_relu"
  type: "ReLU"
  bottom: "res3b2"
  top: "res3b2"
}
layer {
  name: "res3b3_branch2a"
  type: "Convolution"
  bottom: "res3b2"
  top: "res3b3_branch2a"
  convolution_param {
    num_output: 128
    bias_term: false
    pad: 0
    kernel_size: 1
    stride: 1
    weight_filler {
      type: "msra"
    }
  }
}
layer {
  name: "bn3b3_branch2a"
  type: "BatchNorm"
  bottom: "res3b3_branch2a"
  top: "res3b3_branch2a"
  batch_norm_param {
    use_global_stats: false
  }
}
layer {
  name: "scale3b3_branch2a"
  type: "Scale"
  bottom: "res3b3_branch2a"
  top: "res3b3_branch2a"
  scale_param {
    bias_term: true
  }
}
layer {
  name: "res3b3_branch2a_relu"
  type: "ReLU"
  bottom: "res3b3_branch2a"
  top: "res3b3_branch2a"
}
layer {
  name: "res3b3_branch2b"
  type: "Convolution"
  bottom: "res3b3_branch2a"
  top: "res3b3_branch2b"
  convolution_param {
    num_output: 128
    bias_term: false
    pad: 1
    kernel_size: 3
    stride: 1
    weight_filler {
      type: "msra"
    }
  }
}
layer {
  name: "bn3b3_branch2b"
  type: "BatchNorm"
  bottom: "res3b3_branch2b"
  top: "res3b3_branch2b"
  batch_norm_param {
    use_global_stats: false
  }
}
layer {
  name: "scale3b3_branch2b"
  type: "Scale"
  bottom: "res3b3_branch2b"
  top: "res3b3_branch2b"
  scale_param {
    bias_term: true
  }
}
layer {
  name: "res3b3_branch2b_relu"
  type: "ReLU"
  bottom: "res3b3_branch2b"
  top: "res3b3_branch2b"
}
layer {
  name: "res3b3_branch2c"
  type: "Convolution"
  bottom: "res3b3_branch2b"
  top: "res3b3_branch2c"
  convolution_param {
    num_output: 512
    bias_term: false
    pad: 0
    kernel_size: 1
    stride: 1
    weight_filler {
      type: "msra"
    }
  }
}
layer {
  name: "bn3b3_branch2c"
  type: "BatchNorm"
  bottom: "res3b3_branch2c"
  top: "res3b3_branch2c"
  batch_norm_param {
    use_global_stats: false
  }
}
layer {
  name: "scale3b3_branch2c"
  type: "Scale"
  bottom: "res3b3_branch2c"
  top: "res3b3_branch2c"
  scale_param {
    bias_term: true
  }
}
layer {
  name: "res3b3"
  type: "Eltwise"
  bottom: "res3b2"
  bottom: "res3b3_branch2c"
  top: "res3b3"
  eltwise_param {
    operation: SUM
  }
}
layer {
  name: "res3b3_relu"
  type: "ReLU"
  bottom: "res3b3"
  top: "res3b3"
}
layer {
  name: "res3b4_branch2a"
  type: "Convolution"
  bottom: "res3b3"
  top: "res3b4_branch2a"
  convolution_param {
    num_output: 128
    bias_term: false
    pad: 0
    kernel_size: 1
    stride: 1
    weight_filler {
      type: "msra"
    }
  }
}
layer {
  name: "bn3b4_branch2a"
  type: "BatchNorm"
  bottom: "res3b4_branch2a"
  top: "res3b4_branch2a"
  batch_norm_param {
    use_global_stats: false
  }
}
layer {
  name: "scale3b4_branch2a"
  type: "Scale"
  bottom: "res3b4_branch2a"
  top: "res3b4_branch2a"
  scale_param {
    bias_term: true
  }
}
layer {
  name: "res3b4_branch2a_relu"
  type: "ReLU"
  bottom: "res3b4_branch2a"
  top: "res3b4_branch2a"
}
layer {
  name: "res3b4_branch2b"
  type: "Convolution"
  bottom: "res3b4_branch2a"
  top: "res3b4_branch2b"
  convolution_param {
    num_output: 128
    bias_term: false
    pad: 1
    kernel_size: 3
    stride: 1
    weight_filler {
      type: "msra"
    }
  }
}
layer {
  name: "bn3b4_branch2b"
  type: "BatchNorm"
  bottom: "res3b4_branch2b"
  top: "res3b4_branch2b"
  batch_norm_param {
    use_global_stats: false
  }
}
layer {
  name: "scale3b4_branch2b"
  type: "Scale"
  bottom: "res3b4_branch2b"
  top: "res3b4_branch2b"
  scale_param {
    bias_term: true
  }
}
layer {
  name: "res3b4_branch2b_relu"
  type: "ReLU"
  bottom: "res3b4_branch2b"
  top: "res3b4_branch2b"
}
layer {
  name: "res3b4_branch2c"
  type: "Convolution"
  bottom: "res3b4_branch2b"
  top: "res3b4_branch2c"
  convolution_param {
    num_output: 512
    bias_term: false
    pad: 0
    kernel_size: 1
    stride: 1
    weight_filler {
      type: "msra"
    }
  }
}
layer {
  name: "bn3b4_branch2c"
  type: "BatchNorm"
  bottom: "res3b4_branch2c"
  top: "res3b4_branch2c"
  batch_norm_param {
    use_global_stats: false
  }
}
layer {
  name: "scale3b4_branch2c"
  type: "Scale"
  bottom: "res3b4_branch2c"
  top: "res3b4_branch2c"
  scale_param {
    bias_term: true
  }
}
layer {
  name: "res3b4"
  type: "Eltwise"
  bottom: "res3b3"
  bottom: "res3b4_branch2c"
  top: "res3b4"
  eltwise_param {
    operation: SUM
  }
}
layer {
  name: "res3b4_relu"
  type: "ReLU"
  bottom: "res3b4"
  top: "res3b4"
}
layer {
  name: "res3b5_branch2a"
  type: "Convolution"
  bottom: "res3b4"
  top: "res3b5_branch2a"
  convolution_param {
    num_output: 128
    bias_term: false
    pad: 0
    kernel_size: 1
    stride: 1
    weight_filler {
      type: "msra"
    }
  }
}
layer {
  name: "bn3b5_branch2a"
  type: "BatchNorm"
  bottom: "res3b5_branch2a"
  top: "res3b5_branch2a"
  batch_norm_param {
    use_global_stats: false
  }
}
layer {
  name: "scale3b5_branch2a"
  type: "Scale"
  bottom: "res3b5_branch2a"
  top: "res3b5_branch2a"
  scale_param {
    bias_term: true
  }
}
layer {
  name: "res3b5_branch2a_relu"
  type: "ReLU"
  bottom: "res3b5_branch2a"
  top: "res3b5_branch2a"
}
layer {
  name: "res3b5_branch2b"
  type: "Convolution"
  bottom: "res3b5_branch2a"
  top: "res3b5_branch2b"
  convolution_param {
    num_output: 128
    bias_term: false
    pad: 1
    kernel_size: 3
    stride: 1
    weight_filler {
      type: "msra"
    }
  }
}
layer {
  name: "bn3b5_branch2b"
  type: "BatchNorm"
  bottom: "res3b5_branch2b"
  top: "res3b5_branch2b"
  batch_norm_param {
    use_global_stats: false
  }
}
layer {
  name: "scale3b5_branch2b"
  type: "Scale"
  bottom: "res3b5_branch2b"
  top: "res3b5_branch2b"
  scale_param {
    bias_term: true
  }
}
layer {
  name: "res3b5_branch2b_relu"
  type: "ReLU"
  bottom: "res3b5_branch2b"
  top: "res3b5_branch2b"
}
layer {
  name: "res3b5_branch2c"
  type: "Convolution"
  bottom: "res3b5_branch2b"
  top: "res3b5_branch2c"
  convolution_param {
    num_output: 512
    bias_term: false
    pad: 0
    kernel_size: 1
    stride: 1
    weight_filler {
      type: "msra"
    }
  }
}
layer {
  name: "bn3b5_branch2c"
  type: "BatchNorm"
  bottom: "res3b5_branch2c"
  top: "res3b5_branch2c"
  batch_norm_param {
    use_global_stats: false
  }
}
layer {
  name: "scale3b5_branch2c"
  type: "Scale"
  bottom: "res3b5_branch2c"
  top: "res3b5_branch2c"
  scale_param {
    bias_term: true
  }
}
layer {
  name: "res3b5"
  type: "Eltwise"
  bottom: "res3b4"
  bottom: "res3b5_branch2c"
  top: "res3b5"
  eltwise_param {
    operation: SUM
  }
}
layer {
  name: "res3b5_relu"
  type: "ReLU"
  bottom: "res3b5"
  top: "res3b5"
}
layer {
  name: "res3b6_branch2a"
  type: "Convolution"
  bottom: "res3b5"
  top: "res3b6_branch2a"
  convolution_param {
    num_output: 128
    bias_term: false
    pad: 0
    kernel_size: 1
    stride: 1
    weight_filler {
      type: "msra"
    }
  }
}
layer {
  name: "bn3b6_branch2a"
  type: "BatchNorm"
  bottom: "res3b6_branch2a"
  top: "res3b6_branch2a"
  batch_norm_param {
    use_global_stats: false
  }
}
layer {
  name: "scale3b6_branch2a"
  type: "Scale"
  bottom: "res3b6_branch2a"
  top: "res3b6_branch2a"
  scale_param {
    bias_term: true
  }
}
layer {
  name: "res3b6_branch2a_relu"
  type: "ReLU"
  bottom: "res3b6_branch2a"
  top: "res3b6_branch2a"
}
layer {
  name: "res3b6_branch2b"
  type: "Convolution"
  bottom: "res3b6_branch2a"
  top: "res3b6_branch2b"
  convolution_param {
    num_output: 128
    bias_term: false
    pad: 1
    kernel_size: 3
    stride: 1
    weight_filler {
      type: "msra"
    }
  }
}
layer {
  name: "bn3b6_branch2b"
  type: "BatchNorm"
  bottom: "res3b6_branch2b"
  top: "res3b6_branch2b"
  batch_norm_param {
    use_global_stats: false
  }
}
layer {
  name: "scale3b6_branch2b"
  type: "Scale"
  bottom: "res3b6_branch2b"
  top: "res3b6_branch2b"
  scale_param {
    bias_term: true
  }
}
layer {
  name: "res3b6_branch2b_relu"
  type: "ReLU"
  bottom: "res3b6_branch2b"
  top: "res3b6_branch2b"
}
layer {
  name: "res3b6_branch2c"
  type: "Convolution"
  bottom: "res3b6_branch2b"
  top: "res3b6_branch2c"
  convolution_param {
    num_output: 512
    bias_term: false
    pad: 0
    kernel_size: 1
    stride: 1
    weight_filler {
      type: "msra"
    }
  }
}
layer {
  name: "bn3b6_branch2c"
  type: "BatchNorm"
  bottom: "res3b6_branch2c"
  top: "res3b6_branch2c"
  batch_norm_param {
    use_global_stats: false
  }
}
layer {
  name: "scale3b6_branch2c"
  type: "Scale"
  bottom: "res3b6_branch2c"
  top: "res3b6_branch2c"
  scale_param {
    bias_term: true
  }
}
layer {
  name: "res3b6"
  type: "Eltwise"
  bottom: "res3b5"
  bottom: "res3b6_branch2c"
  top: "res3b6"
  eltwise_param {
    operation: SUM
  }
}
layer {
  name: "res3b6_relu"
  type: "ReLU"
  bottom: "res3b6"
  top: "res3b6"
}
layer {
  name: "res3b7_branch2a"
  type: "Convolution"
  bottom: "res3b6"
  top: "res3b7_branch2a"
  convolution_param {
    num_output: 128
    bias_term: false
    pad: 0
    kernel_size: 1
    stride: 1
    weight_filler {
      type: "msra"
    }
  }
}
layer {
  name: "bn3b7_branch2a"
  type: "BatchNorm"
  bottom: "res3b7_branch2a"
  top: "res3b7_branch2a"
  batch_norm_param {
    use_global_stats: false
  }
}
layer {
  name: "scale3b7_branch2a"
  type: "Scale"
  bottom: "res3b7_branch2a"
  top: "res3b7_branch2a"
  scale_param {
    bias_term: true
  }
}
layer {
  name: "res3b7_branch2a_relu"
  type: "ReLU"
  bottom: "res3b7_branch2a"
  top: "res3b7_branch2a"
}
layer {
  name: "res3b7_branch2b"
  type: "Convolution"
  bottom: "res3b7_branch2a"
  top: "res3b7_branch2b"
  convolution_param {
    num_output: 128
    bias_term: false
    pad: 1
    kernel_size: 3
    stride: 1
    weight_filler {
      type: "msra"
    }
  }
}
layer {
  name: "bn3b7_branch2b"
  type: "BatchNorm"
  bottom: "res3b7_branch2b"
  top: "res3b7_branch2b"
  batch_norm_param {
    use_global_stats: false
  }
}
layer {
  name: "scale3b7_branch2b"
  type: "Scale"
  bottom: "res3b7_branch2b"
  top: "res3b7_branch2b"
  scale_param {
    bias_term: true
  }
}
layer {
  name: "res3b7_branch2b_relu"
  type: "ReLU"
  bottom: "res3b7_branch2b"
  top: "res3b7_branch2b"
}
layer {
  name: "res3b7_branch2c"
  type: "Convolution"
  bottom: "res3b7_branch2b"
  top: "res3b7_branch2c"
  convolution_param {
    num_output: 512
    bias_term: false
    pad: 0
    kernel_size: 1
    stride: 1
    weight_filler {
      type: "msra"
    }
  }
}
layer {
  name: "bn3b7_branch2c"
  type: "BatchNorm"
  bottom: "res3b7_branch2c"
  top: "res3b7_branch2c"
  batch_norm_param {
    use_global_stats: false
  }
}
layer {
  name: "scale3b7_branch2c"
  type: "Scale"
  bottom: "res3b7_branch2c"
  top: "res3b7_branch2c"
  scale_param {
    bias_term: true
  }
}
layer {
  name: "res3b7"
  type: "Eltwise"
  bottom: "res3b6"
  bottom: "res3b7_branch2c"
  top: "res3b7"
  eltwise_param {
    operation: SUM
  }
}
layer {
  name: "res3b7_relu"
  type: "ReLU"
  bottom: "res3b7"
  top: "res3b7"
}
layer {
  name: "res4a_branch1"
  type: "Convolution"
  bottom: "res3b7"
  top: "res4a_branch1"
  convolution_param {
    num_output: 1024
    bias_term: false
    pad: 0
    kernel_size: 1
    stride: 2
    weight_filler {
      type: "msra"
    }
  }
}
layer {
  name: "bn4a_branch1"
  type: "BatchNorm"
  bottom: "res4a_branch1"
  top: "res4a_branch1"
  batch_norm_param {
    use_global_stats: false
  }
}
layer {
  name: "scale4a_branch1"
  type: "Scale"
  bottom: "res4a_branch1"
  top: "res4a_branch1"
  scale_param {
    bias_term: true
  }
}
layer {
  name: "res4a_branch2a"
  type: "Convolution"
  bottom: "res3b7"
  top: "res4a_branch2a"
  convolution_param {
    num_output: 256
    bias_term: false
    pad: 0
    kernel_size: 1
    stride: 2
    weight_filler {
      type: "msra"
    }
  }
}
layer {
  name: "bn4a_branch2a"
  type: "BatchNorm"
  bottom: "res4a_branch2a"
  top: "res4a_branch2a"
  batch_norm_param {
    use_global_stats: false
  }
}
layer {
  name: "scale4a_branch2a"
  type: "Scale"
  bottom: "res4a_branch2a"
  top: "res4a_branch2a"
  scale_param {
    bias_term: true
  }
}
layer {
  name: "res4a_branch2a_relu"
  type: "ReLU"
  bottom: "res4a_branch2a"
  top: "res4a_branch2a"
}
layer {
  name: "res4a_branch2b"
  type: "Convolution"
  bottom: "res4a_branch2a"
  top: "res4a_branch2b"
  convolution_param {
    num_output: 256
    bias_term: false
    pad: 1
    kernel_size: 3
    stride: 1
    weight_filler {
      type: "msra"
    }
  }
}
layer {
  name: "bn4a_branch2b"
  type: "BatchNorm"
  bottom: "res4a_branch2b"
  top: "res4a_branch2b"
  batch_norm_param {
    use_global_stats: false
  }
}
layer {
  name: "scale4a_branch2b"
  type: "Scale"
  bottom: "res4a_branch2b"
  top: "res4a_branch2b"
  scale_param {
    bias_term: true
  }
}
layer {
  name: "res4a_branch2b_relu"
  type: "ReLU"
  bottom: "res4a_branch2b"
  top: "res4a_branch2b"
}
layer {
  name: "res4a_branch2c"
  type: "Convolution"
  bottom: "res4a_branch2b"
  top: "res4a_branch2c"
  convolution_param {
    num_output: 1024
    bias_term: false
    pad: 0
    kernel_size: 1
    stride: 1
    weight_filler {
      type: "msra"
    }
  }
}
layer {
  name: "bn4a_branch2c"
  type: "BatchNorm"
  bottom: "res4a_branch2c"
  top: "res4a_branch2c"
  batch_norm_param {
    use_global_stats: false
  }
}
layer {
  name: "scale4a_branch2c"
  type: "Scale"
  bottom: "res4a_branch2c"
  top: "res4a_branch2c"
  scale_param {
    bias_term: true
  }
}
layer {
  name: "res4a"
  type: "Eltwise"
  bottom: "res4a_branch1"
  bottom: "res4a_branch2c"
  top: "res4a"
  eltwise_param {
    operation: SUM
  }
}
layer {
  name: "res4a_relu"
  type: "ReLU"
  bottom: "res4a"
  top: "res4a"
}
layer {
  name: "res4b1_branch2a"
  type: "Convolution"
  bottom: "res4a"
  top: "res4b1_branch2a"
  convolution_param {
    num_output: 256
    bias_term: false
    pad: 0
    kernel_size: 1
    stride: 1
    weight_filler {
      type: "msra"
    }
  }
}
layer {
  name: "bn4b1_branch2a"
  type: "BatchNorm"
  bottom: "res4b1_branch2a"
  top: "res4b1_branch2a"
  batch_norm_param {
    use_global_stats: false
  }
}
layer {
  name: "scale4b1_branch2a"
  type: "Scale"
  bottom: "res4b1_branch2a"
  top: "res4b1_branch2a"
  scale_param {
    bias_term: true
  }
}
layer {
  name: "res4b1_branch2a_relu"
  type: "ReLU"
  bottom: "res4b1_branch2a"
  top: "res4b1_branch2a"
}
layer {
  name: "res4b1_branch2b"
  type: "Convolution"
  bottom: "res4b1_branch2a"
  top: "res4b1_branch2b"
  convolution_param {
    num_output: 256
    bias_term: false
    pad: 1
    kernel_size: 3
    stride: 1
    weight_filler {
      type: "msra"
    }
  }
}
layer {
  name: "bn4b1_branch2b"
  type: "BatchNorm"
  bottom: "res4b1_branch2b"
  top: "res4b1_branch2b"
  batch_norm_param {
    use_global_stats: false
  }
}
layer {
  name: "scale4b1_branch2b"
  type: "Scale"
  bottom: "res4b1_branch2b"
  top: "res4b1_branch2b"
  scale_param {
    bias_term: true
  }
}
layer {
  name: "res4b1_branch2b_relu"
  type: "ReLU"
I1129 23:54:10.340792 189118 layer_factory.hpp:77] Creating layer data
I1129 23:54:10.933923 189118 net.cpp:84] Creating Layer data
I1129 23:54:10.933986 189118 net.cpp:380] data -> data
I1129 23:54:10.934020 189118 net.cpp:380] data -> label
I1129 23:54:11.701406 189118 net.cpp:122] Setting up data
I1129 23:54:11.701457 189118 net.cpp:129] Top shape: 10 3 240 240 (1728000)
I1129 23:54:11.701463 189118 net.cpp:129] Top shape: 10 1 (10)
I1129 23:54:11.701467 189118 net.cpp:137] Memory required for data: 6912040
I1129 23:54:11.701488 189118 layer_factory.hpp:77] Creating layer conv1
I1129 23:54:11.701545 189118 net.cpp:84] Creating Layer conv1
I1129 23:54:11.701555 189118 net.cpp:406] conv1 <- data
I1129 23:54:11.701578 189118 net.cpp:380] conv1 -> conv1
I1129 23:54:11.702637 189118 net.cpp:122] Setting up conv1
I1129 23:54:11.702649 189118 net.cpp:129] Top shape: 10 64 120 120 (9216000)
I1129 23:54:11.702653 189118 net.cpp:137] Memory required for data: 43776040
I1129 23:54:11.702680 189118 layer_factory.hpp:77] Creating layer bn_conv1
I1129 23:54:11.702692 189118 net.cpp:84] Creating Layer bn_conv1
I1129 23:54:11.702697 189118 net.cpp:406] bn_conv1 <- conv1
I1129 23:54:11.702703 189118 net.cpp:367] bn_conv1 -> conv1 (in-place)
I1129 23:54:11.702852 189118 net.cpp:122] Setting up bn_conv1
I1129 23:54:11.702859 189118 net.cpp:129] Top shape: 10 64 120 120 (9216000)
I1129 23:54:11.702862 189118 net.cpp:137] Memory required for data: 80640040
I1129 23:54:11.702872 189118 layer_factory.hpp:77] Creating layer scale_conv1
I1129 23:54:11.702901 189118 net.cpp:84] Creating Layer scale_conv1
I1129 23:54:11.702919 189118 net.cpp:406] scale_conv1 <- conv1
I1129 23:54:11.702924 189118 net.cpp:367] scale_conv1 -> conv1 (in-place)
I1129 23:54:11.702961 189118 layer_factory.hpp:77] Creating layer scale_conv1
I1129 23:54:11.703065 189118 net.cpp:122] Setting up scale_conv1
I1129 23:54:11.703073 189118 net.cpp:129] Top shape: 10 64 120 120 (9216000)
I1129 23:54:11.703075 189118 net.cpp:137] Memory required for data: 117504040
I1129 23:54:11.703083 189118 layer_factory.hpp:77] Creating layer conv1_relu
I1129 23:54:11.703091 189118 net.cpp:84] Creating Layer conv1_relu
I1129 23:54:11.703095 189118 net.cpp:406] conv1_relu <- conv1
I1129 23:54:11.703105 189118 net.cpp:367] conv1_relu -> conv1 (in-place)
I1129 23:54:11.703110 189118 net.cpp:122] Setting up conv1_relu
I1129 23:54:11.703114 189118 net.cpp:129] Top shape: 10 64 120 120 (9216000)
I1129 23:54:11.703117 189118 net.cpp:137] Memory required for data: 154368040
I1129 23:54:11.703120 189118 layer_factory.hpp:77] Creating layer pool1
I1129 23:54:11.703130 189118 net.cpp:84] Creating Layer pool1
I1129 23:54:11.703133 189118 net.cpp:406] pool1 <- conv1
I1129 23:54:11.703138 189118 net.cpp:380] pool1 -> pool1
I1129 23:54:11.703177 189118 net.cpp:122] Setting up pool1
I1129 23:54:11.703183 189118 net.cpp:129] Top shape: 10 64 60 60 (2304000)
I1129 23:54:11.703186 189118 net.cpp:137] Memory required for data: 163584040
I1129 23:54:11.703188 189118 layer_factory.hpp:77] Creating layer pool1_pool1_0_split
I1129 23:54:11.703200 189118 net.cpp:84] Creating Layer pool1_pool1_0_split
I1129 23:54:11.703203 189118 net.cpp:406] pool1_pool1_0_split <- pool1
I1129 23:54:11.703208 189118 net.cpp:380] pool1_pool1_0_split -> pool1_pool1_0_split_0
I1129 23:54:11.703215 189118 net.cpp:380] pool1_pool1_0_split -> pool1_pool1_0_split_1
I1129 23:54:11.703239 189118 net.cpp:122] Setting up pool1_pool1_0_split
I1129 23:54:11.703244 189118 net.cpp:129] Top shape: 10 64 60 60 (2304000)
I1129 23:54:11.703248 189118 net.cpp:129] Top shape: 10 64 60 60 (2304000)
I1129 23:54:11.703250 189118 net.cpp:137] Memory required for data: 182016040
I1129 23:54:11.703254 189118 layer_factory.hpp:77] Creating layer res2a_branch1
I1129 23:54:11.703263 189118 net.cpp:84] Creating Layer res2a_branch1
I1129 23:54:11.703265 189118 net.cpp:406] res2a_branch1 <- pool1_pool1_0_split_0
I1129 23:54:11.703271 189118 net.cpp:380] res2a_branch1 -> res2a_branch1
I1129 23:54:11.703526 189118 net.cpp:122] Setting up res2a_branch1
I1129 23:54:11.703532 189118 net.cpp:129] Top shape: 10 256 60 60 (9216000)
I1129 23:54:11.703536 189118 net.cpp:137] Memory required for data: 218880040
I1129 23:54:11.703539 189118 layer_factory.hpp:77] Creating layer bn2a_branch1
I1129 23:54:11.703546 189118 net.cpp:84] Creating Layer bn2a_branch1
I1129 23:54:11.703549 189118 net.cpp:406] bn2a_branch1 <- res2a_branch1
I1129 23:54:11.703559 189118 net.cpp:367] bn2a_branch1 -> res2a_branch1 (in-place)
I1129 23:54:11.704196 189118 net.cpp:122] Setting up bn2a_branch1
I1129 23:54:11.704207 189118 net.cpp:129] Top shape: 10 256 60 60 (9216000)
I1129 23:54:11.704210 189118 net.cpp:137] Memory required for data: 255744040
I1129 23:54:11.704218 189118 layer_factory.hpp:77] Creating layer scale2a_branch1
I1129 23:54:11.704224 189118 net.cpp:84] Creating Layer scale2a_branch1
I1129 23:54:11.704228 189118 net.cpp:406] scale2a_branch1 <- res2a_branch1
I1129 23:54:11.704234 189118 net.cpp:367] scale2a_branch1 -> res2a_branch1 (in-place)
I1129 23:54:11.704263 189118 layer_factory.hpp:77] Creating layer scale2a_branch1
I1129 23:54:11.704339 189118 net.cpp:122] Setting up scale2a_branch1
I1129 23:54:11.704346 189118 net.cpp:129] Top shape: 10 256 60 60 (9216000)
I1129 23:54:11.704349 189118 net.cpp:137] Memory required for data: 292608040
I1129 23:54:11.704360 189118 layer_factory.hpp:77] Creating layer res2a_branch2a
I1129 23:54:11.704366 189118 net.cpp:84] Creating Layer res2a_branch2a
I1129 23:54:11.704370 189118 net.cpp:406] res2a_branch2a <- pool1_pool1_0_split_1
I1129 23:54:11.704376 189118 net.cpp:380] res2a_branch2a -> res2a_branch2a
I1129 23:54:11.704533 189118 net.cpp:122] Setting up res2a_branch2a
I1129 23:54:11.704546 189118 net.cpp:129] Top shape: 10 64 60 60 (2304000)
I1129 23:54:11.704550 189118 net.cpp:137] Memory required for data: 301824040
I1129 23:54:11.704553 189118 layer_factory.hpp:77] Creating layer bn2a_branch2a
I1129 23:54:11.704560 189118 net.cpp:84] Creating Layer bn2a_branch2a
I1129 23:54:11.704563 189118 net.cpp:406] bn2a_branch2a <- res2a_branch2a
I1129 23:54:11.704568 189118 net.cpp:367] bn2a_branch2a -> res2a_branch2a (in-place)
I1129 23:54:11.704690 189118 net.cpp:122] Setting up bn2a_branch2a
I1129 23:54:11.704696 189118 net.cpp:129] Top shape: 10 64 60 60 (2304000)
I1129 23:54:11.704699 189118 net.cpp:137] Memory required for data: 311040040
I1129 23:54:11.704705 189118 layer_factory.hpp:77] Creating layer scale2a_branch2a
I1129 23:54:11.704711 189118 net.cpp:84] Creating Layer scale2a_branch2a
I1129 23:54:11.704715 189118 net.cpp:406] scale2a_branch2a <- res2a_branch2a
I1129 23:54:11.704723 189118 net.cpp:367] scale2a_branch2a -> res2a_branch2a (in-place)
I1129 23:54:11.704751 189118 layer_factory.hpp:77] Creating layer scale2a_branch2a
I1129 23:54:11.704833 189118 net.cpp:122] Setting up scale2a_branch2a
I1129 23:54:11.704839 189118 net.cpp:129] Top shape: 10 64 60 60 (2304000)
I1129 23:54:11.704843 189118 net.cpp:137] Memory required for data: 320256040
I1129 23:54:11.704852 189118 layer_factory.hpp:77] Creating layer res2a_branch2a_relu
I1129 23:54:11.704857 189118 net.cpp:84] Creating Layer res2a_branch2a_relu
I1129 23:54:11.704860 189118 net.cpp:406] res2a_branch2a_relu <- res2a_branch2a
I1129 23:54:11.704864 189118 net.cpp:367] res2a_branch2a_relu -> res2a_branch2a (in-place)
I1129 23:54:11.704869 189118 net.cpp:122] Setting up res2a_branch2a_relu
I1129 23:54:11.704872 189118 net.cpp:129] Top shape: 10 64 60 60 (2304000)
I1129 23:54:11.704875 189118 net.cpp:137] Memory required for data: 329472040
I1129 23:54:11.704882 189118 layer_factory.hpp:77] Creating layer res2a_branch2b
I1129 23:54:11.704891 189118 net.cpp:84] Creating Layer res2a_branch2b
I1129 23:54:11.704895 189118 net.cpp:406] res2a_branch2b <- res2a_branch2a
I1129 23:54:11.704900 189118 net.cpp:380] res2a_branch2b -> res2a_branch2b
I1129 23:54:11.705798 189118 net.cpp:122] Setting up res2a_branch2b
I1129 23:54:11.705809 189118 net.cpp:129] Top shape: 10 64 60 60 (2304000)
I1129 23:54:11.705812 189118 net.cpp:137] Memory required for data: 338688040
I1129 23:54:11.705816 189118 layer_factory.hpp:77] Creating layer bn2a_branch2b
I1129 23:54:11.705821 189118 net.cpp:84] Creating Layer bn2a_branch2b
I1129 23:54:11.705826 189118 net.cpp:406] bn2a_branch2b <- res2a_branch2b
I1129 23:54:11.705832 189118 net.cpp:367] bn2a_branch2b -> res2a_branch2b (in-place)
I1129 23:54:11.705957 189118 net.cpp:122] Setting up bn2a_branch2b
I1129 23:54:11.705963 189118 net.cpp:129] Top shape: 10 64 60 60 (2304000)
I1129 23:54:11.705966 189118 net.cpp:137] Memory required for data: 347904040
I1129 23:54:11.705972 189118 layer_factory.hpp:77] Creating layer scale2a_branch2b
I1129 23:54:11.705981 189118 net.cpp:84] Creating Layer scale2a_branch2b
I1129 23:54:11.705986 189118 net.cpp:406] scale2a_branch2b <- res2a_branch2b
I1129 23:54:11.705991 189118 net.cpp:367] scale2a_branch2b -> res2a_branch2b (in-place)
I1129 23:54:11.706019 189118 layer_factory.hpp:77] Creating layer scale2a_branch2b
I1129 23:54:11.706102 189118 net.cpp:122] Setting up scale2a_branch2b
I1129 23:54:11.706109 189118 net.cpp:129] Top shape: 10 64 60 60 (2304000)
I1129 23:54:11.706111 189118 net.cpp:137] Memory required for data: 357120040
I1129 23:54:11.706116 189118 layer_factory.hpp:77] Creating layer res2a_branch2b_relu
I1129 23:54:11.706125 189118 net.cpp:84] Creating Layer res2a_branch2b_relu
I1129 23:54:11.706127 189118 net.cpp:406] res2a_branch2b_relu <- res2a_branch2b
I1129 23:54:11.706133 189118 net.cpp:367] res2a_branch2b_relu -> res2a_branch2b (in-place)
I1129 23:54:11.706138 189118 net.cpp:122] Setting up res2a_branch2b_relu
I1129 23:54:11.706142 189118 net.cpp:129] Top shape: 10 64 60 60 (2304000)
I1129 23:54:11.706148 189118 net.cpp:137] Memory required for data: 366336040
I1129 23:54:11.706161 189118 layer_factory.hpp:77] Creating layer res2a_branch2c
I1129 23:54:11.706168 189118 net.cpp:84] Creating Layer res2a_branch2c
I1129 23:54:11.706171 189118 net.cpp:406] res2a_branch2c <- res2a_branch2b
I1129 23:54:11.706182 189118 net.cpp:380] res2a_branch2c -> res2a_branch2c
I1129 23:54:11.706425 189118 net.cpp:122] Setting up res2a_branch2c
I1129 23:54:11.706431 189118 net.cpp:129] Top shape: 10 256 60 60 (9216000)
I1129 23:54:11.706434 189118 net.cpp:137] Memory required for data: 403200040
I1129 23:54:11.706439 189118 layer_factory.hpp:77] Creating layer bn2a_branch2c
I1129 23:54:11.706444 189118 net.cpp:84] Creating Layer bn2a_branch2c
I1129 23:54:11.706447 189118 net.cpp:406] bn2a_branch2c <- res2a_branch2c
I1129 23:54:11.706451 189118 net.cpp:367] bn2a_branch2c -> res2a_branch2c (in-place)
I1129 23:54:11.706568 189118 net.cpp:122] Setting up bn2a_branch2c
I1129 23:54:11.706574 189118 net.cpp:129] Top shape: 10 256 60 60 (9216000)
I1129 23:54:11.706578 189118 net.cpp:137] Memory required for data: 440064040
I1129 23:54:11.706583 189118 layer_factory.hpp:77] Creating layer scale2a_branch2c
I1129 23:54:11.706588 189118 net.cpp:84] Creating Layer scale2a_branch2c
I1129 23:54:11.706590 189118 net.cpp:406] scale2a_branch2c <- res2a_branch2c
I1129 23:54:11.706595 189118 net.cpp:367] scale2a_branch2c -> res2a_branch2c (in-place)
I1129 23:54:11.706621 189118 layer_factory.hpp:77] Creating layer scale2a_branch2c
I1129 23:54:11.706696 189118 net.cpp:122] Setting up scale2a_branch2c
I1129 23:54:11.706702 189118 net.cpp:129] Top shape: 10 256 60 60 (9216000)
I1129 23:54:11.706704 189118 net.cpp:137] Memory required for data: 476928040
I1129 23:54:11.706709 189118 layer_factory.hpp:77] Creating layer res2a
I1129 23:54:11.706717 189118 net.cpp:84] Creating Layer res2a
I1129 23:54:11.706720 189118 net.cpp:406] res2a <- res2a_branch1
I1129 23:54:11.706723 189118 net.cpp:406] res2a <- res2a_branch2c
I1129 23:54:11.706727 189118 net.cpp:380] res2a -> res2a
I1129 23:54:11.706748 189118 net.cpp:122] Setting up res2a
I1129 23:54:11.706753 189118 net.cpp:129] Top shape: 10 256 60 60 (9216000)
I1129 23:54:11.706756 189118 net.cpp:137] Memory required for data: 513792040
I1129 23:54:11.706763 189118 layer_factory.hpp:77] Creating layer res2a_relu
I1129 23:54:11.706768 189118 net.cpp:84] Creating Layer res2a_relu
I1129 23:54:11.706771 189118 net.cpp:406] res2a_relu <- res2a
I1129 23:54:11.706782 189118 net.cpp:367] res2a_relu -> res2a (in-place)
I1129 23:54:11.706789 189118 net.cpp:122] Setting up res2a_relu
I1129 23:54:11.706791 189118 net.cpp:129] Top shape: 10 256 60 60 (9216000)
I1129 23:54:11.706795 189118 net.cpp:137] Memory required for data: 550656040
I1129 23:54:11.706799 189118 layer_factory.hpp:77] Creating layer res2a_res2a_relu_0_split
I1129 23:54:11.706802 189118 net.cpp:84] Creating Layer res2a_res2a_relu_0_split
I1129 23:54:11.706805 189118 net.cpp:406] res2a_res2a_relu_0_split <- res2a
I1129 23:54:11.706809 189118 net.cpp:380] res2a_res2a_relu_0_split -> res2a_res2a_relu_0_split_0
I1129 23:54:11.706816 189118 net.cpp:380] res2a_res2a_relu_0_split -> res2a_res2a_relu_0_split_1
I1129 23:54:11.706838 189118 net.cpp:122] Setting up res2a_res2a_relu_0_split
I1129 23:54:11.706843 189118 net.cpp:129] Top shape: 10 256 60 60 (9216000)
I1129 23:54:11.706847 189118 net.cpp:129] Top shape: 10 256 60 60 (9216000)
I1129 23:54:11.706851 189118 net.cpp:137] Memory required for data: 624384040
I1129 23:54:11.706852 189118 layer_factory.hpp:77] Creating layer res2b_branch2a
I1129 23:54:11.706859 189118 net.cpp:84] Creating Layer res2b_branch2a
I1129 23:54:11.706863 189118 net.cpp:406] res2b_branch2a <- res2a_res2a_relu_0_split_0
I1129 23:54:11.706868 189118 net.cpp:380] res2b_branch2a -> res2b_branch2a
I1129 23:54:11.707108 189118 net.cpp:122] Setting up res2b_branch2a
I1129 23:54:11.707114 189118 net.cpp:129] Top shape: 10 64 60 60 (2304000)
I1129 23:54:11.707118 189118 net.cpp:137] Memory required for data: 633600040
I1129 23:54:11.707125 189118 layer_factory.hpp:77] Creating layer bn2b_branch2a
I1129 23:54:11.707135 189118 net.cpp:84] Creating Layer bn2b_branch2a
I1129 23:54:11.707139 189118 net.cpp:406] bn2b_branch2a <- res2b_branch2a
I1129 23:54:11.707144 189118 net.cpp:367] bn2b_branch2a -> res2b_branch2a (in-place)
I1129 23:54:11.707268 189118 net.cpp:122] Setting up bn2b_branch2a
I1129 23:54:11.707273 189118 net.cpp:129] Top shape: 10 64 60 60 (2304000)
I1129 23:54:11.707276 189118 net.cpp:137] Memory required for data: 642816040
I1129 23:54:11.707290 189118 layer_factory.hpp:77] Creating layer scale2b_branch2a
I1129 23:54:11.707298 189118 net.cpp:84] Creating Layer scale2b_branch2a
I1129 23:54:11.707300 189118 net.cpp:406] scale2b_branch2a <- res2b_branch2a
I1129 23:54:11.707309 189118 net.cpp:367] scale2b_branch2a -> res2b_branch2a (in-place)
I1129 23:54:11.707350 189118 layer_factory.hpp:77] Creating layer scale2b_branch2a
I1129 23:54:11.707432 189118 net.cpp:122] Setting up scale2b_branch2a
I1129 23:54:11.707438 189118 net.cpp:129] Top shape: 10 64 60 60 (2304000)
I1129 23:54:11.707442 189118 net.cpp:137] Memory required for data: 652032040
I1129 23:54:11.707446 189118 layer_factory.hpp:77] Creating layer res2b_branch2a_relu
I1129 23:54:11.707453 189118 net.cpp:84] Creating Layer res2b_branch2a_relu
I1129 23:54:11.707455 189118 net.cpp:406] res2b_branch2a_relu <- res2b_branch2a
I1129 23:54:11.707460 189118 net.cpp:367] res2b_branch2a_relu -> res2b_branch2a (in-place)
I1129 23:54:11.707465 189118 net.cpp:122] Setting up res2b_branch2a_relu
I1129 23:54:11.707469 189118 net.cpp:129] Top shape: 10 64 60 60 (2304000)
I1129 23:54:11.707473 189118 net.cpp:137] Memory required for data: 661248040
I1129 23:54:11.707474 189118 layer_factory.hpp:77] Creating layer res2b_branch2b
I1129 23:54:11.707480 189118 net.cpp:84] Creating Layer res2b_branch2b
I1129 23:54:11.707484 189118 net.cpp:406] res2b_branch2b <- res2b_branch2a
I1129 23:54:11.707489 189118 net.cpp:380] res2b_branch2b -> res2b_branch2b
I1129 23:54:11.707887 189118 net.cpp:122] Setting up res2b_branch2b
I1129 23:54:11.707895 189118 net.cpp:129] Top shape: 10 64 60 60 (2304000)
I1129 23:54:11.707897 189118 net.cpp:137] Memory required for data: 670464040
I1129 23:54:11.707901 189118 layer_factory.hpp:77] Creating layer bn2b_branch2b
I1129 23:54:11.707906 189118 net.cpp:84] Creating Layer bn2b_branch2b
I1129 23:54:11.707911 189118 net.cpp:406] bn2b_branch2b <- res2b_branch2b
I1129 23:54:11.707914 189118 net.cpp:367] bn2b_branch2b -> res2b_branch2b (in-place)
I1129 23:54:11.708039 189118 net.cpp:122] Setting up bn2b_branch2b
I1129 23:54:11.708045 189118 net.cpp:129] Top shape: 10 64 60 60 (2304000)
I1129 23:54:11.708047 189118 net.cpp:137] Memory required for data: 679680040
I1129 23:54:11.708057 189118 layer_factory.hpp:77] Creating layer scale2b_branch2b
I1129 23:54:11.708063 189118 net.cpp:84] Creating Layer scale2b_branch2b
I1129 23:54:11.708067 189118 net.cpp:406] scale2b_branch2b <- res2b_branch2b
I1129 23:54:11.708076 189118 net.cpp:367] scale2b_branch2b -> res2b_branch2b (in-place)
I1129 23:54:11.708103 189118 layer_factory.hpp:77] Creating layer scale2b_branch2b
I1129 23:54:11.708184 189118 net.cpp:122] Setting up scale2b_branch2b
I1129 23:54:11.708189 189118 net.cpp:129] Top shape: 10 64 60 60 (2304000)
I1129 23:54:11.708192 189118 net.cpp:137] Memory required for data: 688896040
I1129 23:54:11.708197 189118 layer_factory.hpp:77] Creating layer res2b_branch2b_relu
I1129 23:54:11.708202 189118 net.cpp:84] Creating Layer res2b_branch2b_relu
I1129 23:54:11.708205 189118 net.cpp:406] res2b_branch2b_relu <- res2b_branch2b
I1129 23:54:11.708210 189118 net.cpp:367] res2b_branch2b_relu -> res2b_branch2b (in-place)
I1129 23:54:11.708214 189118 net.cpp:122] Setting up res2b_branch2b_relu
I1129 23:54:11.708218 189118 net.cpp:129] Top shape: 10 64 60 60 (2304000)
I1129 23:54:11.708220 189118 net.cpp:137] Memory required for data: 698112040
I1129 23:54:11.708223 189118 layer_factory.hpp:77] Creating layer res2b_branch2c
I1129 23:54:11.708235 189118 net.cpp:84] Creating Layer res2b_branch2c
I1129 23:54:11.708241 189118 net.cpp:406] res2b_branch2c <- res2b_branch2b
I1129 23:54:11.708251 189118 net.cpp:380] res2b_branch2c -> res2b_branch2c
I1129 23:54:11.708494 189118 net.cpp:122] Setting up res2b_branch2c
I1129 23:54:11.708500 189118 net.cpp:129] Top shape: 10 256 60 60 (9216000)
I1129 23:54:11.708503 189118 net.cpp:137] Memory required for data: 734976040
I1129 23:54:11.708506 189118 layer_factory.hpp:77] Creating layer bn2b_branch2c
I1129 23:54:11.708513 189118 net.cpp:84] Creating Layer bn2b_branch2c
I1129 23:54:11.708516 189118 net.cpp:406] bn2b_branch2c <- res2b_branch2c
I1129 23:54:11.708520 189118 net.cpp:367] bn2b_branch2c -> res2b_branch2c (in-place)
I1129 23:54:11.708642 189118 net.cpp:122] Setting up bn2b_branch2c
I1129 23:54:11.708647 189118 net.cpp:129] Top shape: 10 256 60 60 (9216000)
I1129 23:54:11.708650 189118 net.cpp:137] Memory required for data: 771840040
I1129 23:54:11.708659 189118 layer_factory.hpp:77] Creating layer scale2b_branch2c
I1129 23:54:11.708668 189118 net.cpp:84] Creating Layer scale2b_branch2c
I1129 23:54:11.708673 189118 net.cpp:406] scale2b_branch2c <- res2b_branch2c
I1129 23:54:11.708678 189118 net.cpp:367] scale2b_branch2c -> res2b_branch2c (in-place)
I1129 23:54:11.708703 189118 layer_factory.hpp:77] Creating layer scale2b_branch2c
I1129 23:54:11.708781 189118 net.cpp:122] Setting up scale2b_branch2c
I1129 23:54:11.708786 189118 net.cpp:129] Top shape: 10 256 60 60 (9216000)
I1129 23:54:11.708789 189118 net.cpp:137] Memory required for data: 808704040
I1129 23:54:11.708794 189118 layer_factory.hpp:77] Creating layer res2b
I1129 23:54:11.708798 189118 net.cpp:84] Creating Layer res2b
I1129 23:54:11.708801 189118 net.cpp:406] res2b <- res2a_res2a_relu_0_split_1
I1129 23:54:11.708806 189118 net.cpp:406] res2b <- res2b_branch2c
I1129 23:54:11.708811 189118 net.cpp:380] res2b -> res2b
I1129 23:54:11.708829 189118 net.cpp:122] Setting up res2b
I1129 23:54:11.708835 189118 net.cpp:129] Top shape: 10 256 60 60 (9216000)
I1129 23:54:11.708837 189118 net.cpp:137] Memory required for data: 845568040
I1129 23:54:11.708840 189118 layer_factory.hpp:77] Creating layer res2b_relu
I1129 23:54:11.708844 189118 net.cpp:84] Creating Layer res2b_relu
I1129 23:54:11.708847 189118 net.cpp:406] res2b_relu <- res2b
I1129 23:54:11.708858 189118 net.cpp:367] res2b_relu -> res2b (in-place)
I1129 23:54:11.708863 189118 net.cpp:122] Setting up res2b_relu
I1129 23:54:11.708868 189118 net.cpp:129] Top shape: 10 256 60 60 (9216000)
I1129 23:54:11.708870 189118 net.cpp:137] Memory required for data: 882432040
I1129 23:54:11.708873 189118 layer_factory.hpp:77] Creating layer res2b_res2b_relu_0_split
I1129 23:54:11.708878 189118 net.cpp:84] Creating Layer res2b_res2b_relu_0_split
I1129 23:54:11.708880 189118 net.cpp:406] res2b_res2b_relu_0_split <- res2b
I1129 23:54:11.708884 189118 net.cpp:380] res2b_res2b_relu_0_split -> res2b_res2b_relu_0_split_0
I1129 23:54:11.708889 189118 net.cpp:380] res2b_res2b_relu_0_split -> res2b_res2b_relu_0_split_1
I1129 23:54:11.708914 189118 net.cpp:122] Setting up res2b_res2b_relu_0_split
I1129 23:54:11.708919 189118 net.cpp:129] Top shape: 10 256 60 60 (9216000)
I1129 23:54:11.708922 189118 net.cpp:129] Top shape: 10 256 60 60 (9216000)
I1129 23:54:11.708925 189118 net.cpp:137] Memory required for data: 956160040
I1129 23:54:11.708931 189118 layer_factory.hpp:77] Creating layer res2c_branch2a
I1129 23:54:11.708937 189118 net.cpp:84] Creating Layer res2c_branch2a
I1129 23:54:11.708940 189118 net.cpp:406] res2c_branch2a <- res2b_res2b_relu_0_split_0
I1129 23:54:11.708946 189118 net.cpp:380] res2c_branch2a -> res2c_branch2a
I1129 23:54:11.709187 189118 net.cpp:122] Setting up res2c_branch2a
I1129 23:54:11.709193 189118 net.cpp:129] Top shape: 10 64 60 60 (2304000)
I1129 23:54:11.709197 189118 net.cpp:137] Memory required for data: 965376040
I1129 23:54:11.709200 189118 layer_factory.hpp:77] Creating layer bn2c_branch2a
I1129 23:54:11.709206 189118 net.cpp:84] Creating Layer bn2c_branch2a
I1129 23:54:11.709209 189118 net.cpp:406] bn2c_branch2a <- res2c_branch2a
I1129 23:54:11.709218 189118 net.cpp:367] bn2c_branch2a -> res2c_branch2a (in-place)
I1129 23:54:11.709350 189118 net.cpp:122] Setting up bn2c_branch2a
I1129 23:54:11.709357 189118 net.cpp:129] Top shape: 10 64 60 60 (2304000)
I1129 23:54:11.709358 189118 net.cpp:137] Memory required for data: 974592040
I1129 23:54:11.709364 189118 layer_factory.hpp:77] Creating layer scale2c_branch2a
I1129 23:54:11.709370 189118 net.cpp:84] Creating Layer scale2c_branch2a
I1129 23:54:11.709374 189118 net.cpp:406] scale2c_branch2a <- res2c_branch2a
I1129 23:54:11.709383 189118 net.cpp:367] scale2c_branch2a -> res2c_branch2a (in-place)
I1129 23:54:11.709411 189118 layer_factory.hpp:77] Creating layer scale2c_branch2a
I1129 23:54:11.709496 189118 net.cpp:122] Setting up scale2c_branch2a
I1129 23:54:11.709501 189118 net.cpp:129] Top shape: 10 64 60 60 (2304000)
I1129 23:54:11.709504 189118 net.cpp:137] Memory required for data: 983808040
I1129 23:54:11.709509 189118 layer_factory.hpp:77] Creating layer res2c_branch2a_relu
I1129 23:54:11.709514 189118 net.cpp:84] Creating Layer res2c_branch2a_relu
I1129 23:54:11.709518 189118 net.cpp:406] res2c_branch2a_relu <- res2c_branch2a
I1129 23:54:11.709522 189118 net.cpp:367] res2c_branch2a_relu -> res2c_branch2a (in-place)
I1129 23:54:11.709527 189118 net.cpp:122] Setting up res2c_branch2a_relu
I1129 23:54:11.709530 189118 net.cpp:129] Top shape: 10 64 60 60 (2304000)
I1129 23:54:11.709532 189118 net.cpp:137] Memory required for data: 993024040
I1129 23:54:11.709540 189118 layer_factory.hpp:77] Creating layer res2c_branch2b
I1129 23:54:11.709549 189118 net.cpp:84] Creating Layer res2c_branch2b
I1129 23:54:11.709553 189118 net.cpp:406] res2c_branch2b <- res2c_branch2a
I1129 23:54:11.709556 189118 net.cpp:380] res2c_branch2b -> res2c_branch2b
I1129 23:54:11.709959 189118 net.cpp:122] Setting up res2c_branch2b
I1129 23:54:11.709965 189118 net.cpp:129] Top shape: 10 64 60 60 (2304000)
I1129 23:54:11.709969 189118 net.cpp:137] Memory required for data: 1002240040
I1129 23:54:11.709971 189118 layer_factory.hpp:77] Creating layer bn2c_branch2b
I1129 23:54:11.709976 189118 net.cpp:84] Creating Layer bn2c_branch2b
I1129 23:54:11.709980 189118 net.cpp:406] bn2c_branch2b <- res2c_branch2b
I1129 23:54:11.709985 189118 net.cpp:367] bn2c_branch2b -> res2c_branch2b (in-place)
I1129 23:54:11.710109 189118 net.cpp:122] Setting up bn2c_branch2b
I1129 23:54:11.710115 189118 net.cpp:129] Top shape: 10 64 60 60 (2304000)
I1129 23:54:11.710119 189118 net.cpp:137] Memory required for data: 1011456040
I1129 23:54:11.710129 189118 layer_factory.hpp:77] Creating layer scale2c_branch2b
I1129 23:54:11.710134 189118 net.cpp:84] Creating Layer scale2c_branch2b
I1129 23:54:11.710136 189118 net.cpp:406] scale2c_branch2b <- res2c_branch2b
I1129 23:54:11.710146 189118 net.cpp:367] scale2c_branch2b -> res2c_branch2b (in-place)
I1129 23:54:11.710173 189118 layer_factory.hpp:77] Creating layer scale2c_branch2b
I1129 23:54:11.710253 189118 net.cpp:122] Setting up scale2c_branch2b
I1129 23:54:11.710259 189118 net.cpp:129] Top shape: 10 64 60 60 (2304000)
I1129 23:54:11.710263 189118 net.cpp:137] Memory required for data: 1020672040
I1129 23:54:11.710266 189118 layer_factory.hpp:77] Creating layer res2c_branch2b_relu
I1129 23:54:11.710274 189118 net.cpp:84] Creating Layer res2c_branch2b_relu
I1129 23:54:11.710278 189118 net.cpp:406] res2c_branch2b_relu <- res2c_branch2b
I1129 23:54:11.710283 189118 net.cpp:367] res2c_branch2b_relu -> res2c_branch2b (in-place)
I1129 23:54:11.710289 189118 net.cpp:122] Setting up res2c_branch2b_relu
I1129 23:54:11.710291 189118 net.cpp:129] Top shape: 10 64 60 60 (2304000)
I1129 23:54:11.710294 189118 net.cpp:137] Memory required for data: 1029888040
I1129 23:54:11.710299 189118 layer_factory.hpp:77] Creating layer res2c_branch2c
I1129 23:54:11.710305 189118 net.cpp:84] Creating Layer res2c_branch2c
I1129 23:54:11.710309 189118 net.cpp:406] res2c_branch2c <- res2c_branch2b
I1129 23:54:11.710312 189118 net.cpp:380] res2c_branch2c -> res2c_branch2c
I1129 23:54:11.710558 189118 net.cpp:122] Setting up res2c_branch2c
I1129 23:54:11.710567 189118 net.cpp:129] Top shape: 10 256 60 60 (9216000)
I1129 23:54:11.710577 189118 net.cpp:137] Memory required for data: 1066752040
I1129 23:54:11.710582 189118 layer_factory.hpp:77] Creating layer bn2c_branch2c
I1129 23:54:11.710587 189118 net.cpp:84] Creating Layer bn2c_branch2c
I1129 23:54:11.710589 189118 net.cpp:406] bn2c_branch2c <- res2c_branch2c
I1129 23:54:11.710595 189118 net.cpp:367] bn2c_branch2c -> res2c_branch2c (in-place)
I1129 23:54:11.710716 189118 net.cpp:122] Setting up bn2c_branch2c
I1129 23:54:11.710721 189118 net.cpp:129] Top shape: 10 256 60 60 (9216000)
I1129 23:54:11.710724 189118 net.cpp:137] Memory required for data: 1103616040
I1129 23:54:11.710729 189118 layer_factory.hpp:77] Creating layer scale2c_branch2c
I1129 23:54:11.710734 189118 net.cpp:84] Creating Layer scale2c_branch2c
I1129 23:54:11.710737 189118 net.cpp:406] scale2c_branch2c <- res2c_branch2c
I1129 23:54:11.710747 189118 net.cpp:367] scale2c_branch2c -> res2c_branch2c (in-place)
I1129 23:54:11.710773 189118 layer_factory.hpp:77] Creating layer scale2c_branch2c
I1129 23:54:11.710849 189118 net.cpp:122] Setting up scale2c_branch2c
I1129 23:54:11.710855 189118 net.cpp:129] Top shape: 10 256 60 60 (9216000)
I1129 23:54:11.710857 189118 net.cpp:137] Memory required for data: 1140480040
I1129 23:54:11.710870 189118 layer_factory.hpp:77] Creating layer res2c
I1129 23:54:11.710880 189118 net.cpp:84] Creating Layer res2c
I1129 23:54:11.710883 189118 net.cpp:406] res2c <- res2b_res2b_relu_0_split_1
I1129 23:54:11.710886 189118 net.cpp:406] res2c <- res2c_branch2c
I1129 23:54:11.710891 189118 net.cpp:380] res2c -> res2c
I1129 23:54:11.710911 189118 net.cpp:122] Setting up res2c
I1129 23:54:11.710916 189118 net.cpp:129] Top shape: 10 256 60 60 (9216000)
I1129 23:54:11.710919 189118 net.cpp:137] Memory required for data: 1177344040
I1129 23:54:11.710938 189118 layer_factory.hpp:77] Creating layer res2c_relu
I1129 23:54:11.710942 189118 net.cpp:84] Creating Layer res2c_relu
I1129 23:54:11.710947 189118 net.cpp:406] res2c_relu <- res2c
I1129 23:54:11.710950 189118 net.cpp:367] res2c_relu -> res2c (in-place)
I1129 23:54:11.710954 189118 net.cpp:122] Setting up res2c_relu
I1129 23:54:11.710958 189118 net.cpp:129] Top shape: 10 256 60 60 (9216000)
I1129 23:54:11.710963 189118 net.cpp:137] Memory required for data: 1214208040
I1129 23:54:11.710964 189118 layer_factory.hpp:77] Creating layer res2c_res2c_relu_0_split
I1129 23:54:11.710968 189118 net.cpp:84] Creating Layer res2c_res2c_relu_0_split
I1129 23:54:11.710971 189118 net.cpp:406] res2c_res2c_relu_0_split <- res2c
I1129 23:54:11.710976 189118 net.cpp:380] res2c_res2c_relu_0_split -> res2c_res2c_relu_0_split_0
I1129 23:54:11.710983 189118 net.cpp:380] res2c_res2c_relu_0_split -> res2c_res2c_relu_0_split_1
I1129 23:54:11.711007 189118 net.cpp:122] Setting up res2c_res2c_relu_0_split
I1129 23:54:11.711012 189118 net.cpp:129] Top shape: 10 256 60 60 (9216000)
I1129 23:54:11.711016 189118 net.cpp:129] Top shape: 10 256 60 60 (9216000)
I1129 23:54:11.711019 189118 net.cpp:137] Memory required for data: 1287936040
I1129 23:54:11.711021 189118 layer_factory.hpp:77] Creating layer res3a_branch1
I1129 23:54:11.711030 189118 net.cpp:84] Creating Layer res3a_branch1
I1129 23:54:11.711033 189118 net.cpp:406] res3a_branch1 <- res2c_res2c_relu_0_split_0
I1129 23:54:11.711040 189118 net.cpp:380] res3a_branch1 -> res3a_branch1
I1129 23:54:11.712687 189118 net.cpp:122] Setting up res3a_branch1
I1129 23:54:11.712698 189118 net.cpp:129] Top shape: 10 512 30 30 (4608000)
I1129 23:54:11.712702 189118 net.cpp:137] Memory required for data: 1306368040
I1129 23:54:11.712707 189118 layer_factory.hpp:77] Creating layer bn3a_branch1
I1129 23:54:11.712718 189118 net.cpp:84] Creating Layer bn3a_branch1
I1129 23:54:11.712723 189118 net.cpp:406] bn3a_branch1 <- res3a_branch1
I1129 23:54:11.712728 189118 net.cpp:367] bn3a_branch1 -> res3a_branch1 (in-place)
I1129 23:54:11.713369 189118 net.cpp:122] Setting up bn3a_branch1
I1129 23:54:11.713379 189118 net.cpp:129] Top shape: 10 512 30 30 (4608000)
I1129 23:54:11.713387 189118 net.cpp:137] Memory required for data: 1324800040
I1129 23:54:11.713399 189118 layer_factory.hpp:77] Creating layer scale3a_branch1
I1129 23:54:11.713407 189118 net.cpp:84] Creating Layer scale3a_branch1
I1129 23:54:11.713412 189118 net.cpp:406] scale3a_branch1 <- res3a_branch1
I1129 23:54:11.713420 189118 net.cpp:367] scale3a_branch1 -> res3a_branch1 (in-place)
I1129 23:54:11.713471 189118 layer_factory.hpp:77] Creating layer scale3a_branch1
I1129 23:54:11.713547 189118 net.cpp:122] Setting up scale3a_branch1
I1129 23:54:11.713553 189118 net.cpp:129] Top shape: 10 512 30 30 (4608000)
I1129 23:54:11.713557 189118 net.cpp:137] Memory required for data: 1343232040
I1129 23:54:11.713562 189118 layer_factory.hpp:77] Creating layer res3a_branch2a
I1129 23:54:11.713569 189118 net.cpp:84] Creating Layer res3a_branch2a
I1129 23:54:11.713572 189118 net.cpp:406] res3a_branch2a <- res2c_res2c_relu_0_split_1
I1129 23:54:11.713578 189118 net.cpp:380] res3a_branch2a -> res3a_branch2a
I1129 23:54:11.713953 189118 net.cpp:122] Setting up res3a_branch2a
I1129 23:54:11.713960 189118 net.cpp:129] Top shape: 10 128 30 30 (1152000)
I1129 23:54:11.713963 189118 net.cpp:137] Memory required for data: 1347840040
I1129 23:54:11.713966 189118 layer_factory.hpp:77] Creating layer bn3a_branch2a
I1129 23:54:11.713973 189118 net.cpp:84] Creating Layer bn3a_branch2a
I1129 23:54:11.713975 189118 net.cpp:406] bn3a_branch2a <- res3a_branch2a
I1129 23:54:11.713979 189118 net.cpp:367] bn3a_branch2a -> res3a_branch2a (in-place)
I1129 23:54:11.714107 189118 net.cpp:122] Setting up bn3a_branch2a
I1129 23:54:11.714114 189118 net.cpp:129] Top shape: 10 128 30 30 (1152000)
I1129 23:54:11.714117 189118 net.cpp:137] Memory required for data: 1352448040
I1129 23:54:11.714123 189118 layer_factory.hpp:77] Creating layer scale3a_branch2a
I1129 23:54:11.714131 189118 net.cpp:84] Creating Layer scale3a_branch2a
I1129 23:54:11.714135 189118 net.cpp:406] scale3a_branch2a <- res3a_branch2a
I1129 23:54:11.714140 189118 net.cpp:367] scale3a_branch2a -> res3a_branch2a (in-place)
I1129 23:54:11.714167 189118 layer_factory.hpp:77] Creating layer scale3a_branch2a
I1129 23:54:11.714242 189118 net.cpp:122] Setting up scale3a_branch2a
I1129 23:54:11.714248 189118 net.cpp:129] Top shape: 10 128 30 30 (1152000)
I1129 23:54:11.714251 189118 net.cpp:137] Memory required for data: 1357056040
I1129 23:54:11.714257 189118 layer_factory.hpp:77] Creating layer res3a_branch2a_relu
I1129 23:54:11.714260 189118 net.cpp:84] Creating Layer res3a_branch2a_relu
I1129 23:54:11.714264 189118 net.cpp:406] res3a_branch2a_relu <- res3a_branch2a
I1129 23:54:11.714270 189118 net.cpp:367] res3a_branch2a_relu -> res3a_branch2a (in-place)
I1129 23:54:11.714274 189118 net.cpp:122] Setting up res3a_branch2a_relu
I1129 23:54:11.714278 189118 net.cpp:129] Top shape: 10 128 30 30 (1152000)
I1129 23:54:11.714282 189118 net.cpp:137] Memory required for data: 1361664040
I1129 23:54:11.714284 189118 layer_factory.hpp:77] Creating layer res3a_branch2b
I1129 23:54:11.714292 189118 net.cpp:84] Creating Layer res3a_branch2b
I1129 23:54:11.714294 189118 net.cpp:406] res3a_branch2b <- res3a_branch2a
I1129 23:54:11.714299 189118 net.cpp:380] res3a_branch2b -> res3a_branch2b
I1129 23:54:11.716091 189118 net.cpp:122] Setting up res3a_branch2b
I1129 23:54:11.716102 189118 net.cpp:129] Top shape: 10 128 30 30 (1152000)
I1129 23:54:11.716105 189118 net.cpp:137] Memory required for data: 1366272040
I1129 23:54:11.716109 189118 layer_factory.hpp:77] Creating layer bn3a_branch2b
I1129 23:54:11.716115 189118 net.cpp:84] Creating Layer bn3a_branch2b
I1129 23:54:11.716118 189118 net.cpp:406] bn3a_branch2b <- res3a_branch2b
I1129 23:54:11.716122 189118 net.cpp:367] bn3a_branch2b -> res3a_branch2b (in-place)
I1129 23:54:11.716249 189118 net.cpp:122] Setting up bn3a_branch2b
I1129 23:54:11.716255 189118 net.cpp:129] Top shape: 10 128 30 30 (1152000)
I1129 23:54:11.716259 189118 net.cpp:137] Memory required for data: 1370880040
I1129 23:54:11.716264 189118 layer_factory.hpp:77] Creating layer scale3a_branch2b
I1129 23:54:11.716280 189118 net.cpp:84] Creating Layer scale3a_branch2b
I1129 23:54:11.716289 189118 net.cpp:406] scale3a_branch2b <- res3a_branch2b
I1129 23:54:11.716294 189118 net.cpp:367] scale3a_branch2b -> res3a_branch2b (in-place)
I1129 23:54:11.716322 189118 layer_factory.hpp:77] Creating layer scale3a_branch2b
I1129 23:54:11.716400 189118 net.cpp:122] Setting up scale3a_branch2b
I1129 23:54:11.716406 189118 net.cpp:129] Top shape: 10 128 30 30 (1152000)
I1129 23:54:11.716409 189118 net.cpp:137] Memory required for data: 1375488040
I1129 23:54:11.716414 189118 layer_factory.hpp:77] Creating layer res3a_branch2b_relu
I1129 23:54:11.716419 189118 net.cpp:84] Creating Layer res3a_branch2b_relu
I1129 23:54:11.716421 189118 net.cpp:406] res3a_branch2b_relu <- res3a_branch2b
I1129 23:54:11.716431 189118 net.cpp:367] res3a_branch2b_relu -> res3a_branch2b (in-place)
I1129 23:54:11.716436 189118 net.cpp:122] Setting up res3a_branch2b_relu
I1129 23:54:11.716441 189118 net.cpp:129] Top shape: 10 128 30 30 (1152000)
I1129 23:54:11.716444 189118 net.cpp:137] Memory required for data: 1380096040
I1129 23:54:11.716446 189118 layer_factory.hpp:77] Creating layer res3a_branch2c
I1129 23:54:11.716451 189118 net.cpp:84] Creating Layer res3a_branch2c
I1129 23:54:11.716457 189118 net.cpp:406] res3a_branch2c <- res3a_branch2b
I1129 23:54:11.716461 189118 net.cpp:380] res3a_branch2c -> res3a_branch2c
I1129 23:54:11.717084 189118 net.cpp:122] Setting up res3a_branch2c
I1129 23:54:11.717090 189118 net.cpp:129] Top shape: 10 512 30 30 (4608000)
I1129 23:54:11.717093 189118 net.cpp:137] Memory required for data: 1398528040
I1129 23:54:11.717097 189118 layer_factory.hpp:77] Creating layer bn3a_branch2c
I1129 23:54:11.717110 189118 net.cpp:84] Creating Layer bn3a_branch2c
I1129 23:54:11.717114 189118 net.cpp:406] bn3a_branch2c <- res3a_branch2c
I1129 23:54:11.717118 189118 net.cpp:367] bn3a_branch2c -> res3a_branch2c (in-place)
I1129 23:54:11.717243 189118 net.cpp:122] Setting up bn3a_branch2c
I1129 23:54:11.717248 189118 net.cpp:129] Top shape: 10 512 30 30 (4608000)
I1129 23:54:11.717252 189118 net.cpp:137] Memory required for data: 1416960040
I1129 23:54:11.717262 189118 layer_factory.hpp:77] Creating layer scale3a_branch2c
I1129 23:54:11.717269 189118 net.cpp:84] Creating Layer scale3a_branch2c
I1129 23:54:11.717272 189118 net.cpp:406] scale3a_branch2c <- res3a_branch2c
I1129 23:54:11.717277 189118 net.cpp:367] scale3a_branch2c -> res3a_branch2c (in-place)
I1129 23:54:11.717311 189118 layer_factory.hpp:77] Creating layer scale3a_branch2c
I1129 23:54:11.717387 189118 net.cpp:122] Setting up scale3a_branch2c
I1129 23:54:11.717393 189118 net.cpp:129] Top shape: 10 512 30 30 (4608000)
I1129 23:54:11.717396 189118 net.cpp:137] Memory required for data: 1435392040
I1129 23:54:11.717401 189118 layer_factory.hpp:77] Creating layer res3a
I1129 23:54:11.717406 189118 net.cpp:84] Creating Layer res3a
I1129 23:54:11.717408 189118 net.cpp:406] res3a <- res3a_branch1
I1129 23:54:11.717417 189118 net.cpp:406] res3a <- res3a_branch2c
I1129 23:54:11.717423 189118 net.cpp:380] res3a -> res3a
I1129 23:54:11.717442 189118 net.cpp:122] Setting up res3a
I1129 23:54:11.717447 189118 net.cpp:129] Top shape: 10 512 30 30 (4608000)
I1129 23:54:11.717448 189118 net.cpp:137] Memory required for data: 1453824040
I1129 23:54:11.717453 189118 layer_factory.hpp:77] Creating layer res3a_relu
I1129 23:54:11.717456 189118 net.cpp:84] Creating Layer res3a_relu
I1129 23:54:11.717459 189118 net.cpp:406] res3a_relu <- res3a
I1129 23:54:11.717463 189118 net.cpp:367] res3a_relu -> res3a (in-place)
I1129 23:54:11.717468 189118 net.cpp:122] Setting up res3a_relu
I1129 23:54:11.717470 189118 net.cpp:129] Top shape: 10 512 30 30 (4608000)
I1129 23:54:11.717473 189118 net.cpp:137] Memory required for data: 1472256040
I1129 23:54:11.717476 189118 layer_factory.hpp:77] Creating layer res3a_res3a_relu_0_split
I1129 23:54:11.717480 189118 net.cpp:84] Creating Layer res3a_res3a_relu_0_split
I1129 23:54:11.717483 189118 net.cpp:406] res3a_res3a_relu_0_split <- res3a
I1129 23:54:11.717492 189118 net.cpp:380] res3a_res3a_relu_0_split -> res3a_res3a_relu_0_split_0
I1129 23:54:11.717504 189118 net.cpp:380] res3a_res3a_relu_0_split -> res3a_res3a_relu_0_split_1
I1129 23:54:11.717528 189118 net.cpp:122] Setting up res3a_res3a_relu_0_split
I1129 23:54:11.717533 189118 net.cpp:129] Top shape: 10 512 30 30 (4608000)
I1129 23:54:11.717537 189118 net.cpp:129] Top shape: 10 512 30 30 (4608000)
I1129 23:54:11.717540 189118 net.cpp:137] Memory required for data: 1509120040
I1129 23:54:11.717548 189118 layer_factory.hpp:77] Creating layer res3b1_branch2a
I1129 23:54:11.717555 189118 net.cpp:84] Creating Layer res3b1_branch2a
I1129 23:54:11.717557 189118 net.cpp:406] res3b1_branch2a <- res3a_res3a_relu_0_split_0
I1129 23:54:11.717562 189118 net.cpp:380] res3b1_branch2a -> res3b1_branch2a
I1129 23:54:11.718699 189118 net.cpp:122] Setting up res3b1_branch2a
I1129 23:54:11.718709 189118 net.cpp:129] Top shape: 10 128 30 30 (1152000)
I1129 23:54:11.718713 189118 net.cpp:137] Memory required for data: 1513728040
I1129 23:54:11.718717 189118 layer_factory.hpp:77] Creating layer bn3b1_branch2a
I1129 23:54:11.718722 189118 net.cpp:84] Creating Layer bn3b1_branch2a
I1129 23:54:11.718726 189118 net.cpp:406] bn3b1_branch2a <- res3b1_branch2a
I1129 23:54:11.718737 189118 net.cpp:367] bn3b1_branch2a -> res3b1_branch2a (in-place)
I1129 23:54:11.718868 189118 net.cpp:122] Setting up bn3b1_branch2a
I1129 23:54:11.718873 189118 net.cpp:129] Top shape: 10 128 30 30 (1152000)
I1129 23:54:11.718876 189118 net.cpp:137] Memory required for data: 1518336040
I1129 23:54:11.718881 189118 layer_factory.hpp:77] Creating layer scale3b1_branch2a
I1129 23:54:11.718886 189118 net.cpp:84] Creating Layer scale3b1_branch2a
I1129 23:54:11.718889 189118 net.cpp:406] scale3b1_branch2a <- res3b1_branch2a
I1129 23:54:11.718894 189118 net.cpp:367] scale3b1_branch2a -> res3b1_branch2a (in-place)
I1129 23:54:11.718921 189118 layer_factory.hpp:77] Creating layer scale3b1_branch2a
I1129 23:54:11.718998 189118 net.cpp:122] Setting up scale3b1_branch2a
I1129 23:54:11.719004 189118 net.cpp:129] Top shape: 10 128 30 30 (1152000)
I1129 23:54:11.719007 189118 net.cpp:137] Memory required for data: 1522944040
I1129 23:54:11.719012 189118 layer_factory.hpp:77] Creating layer res3b1_branch2a_relu
I1129 23:54:11.719015 189118 net.cpp:84] Creating Layer res3b1_branch2a_relu
I1129 23:54:11.719019 189118 net.cpp:406] res3b1_branch2a_relu <- res3b1_branch2a
I1129 23:54:11.719028 189118 net.cpp:367] res3b1_branch2a_relu -> res3b1_branch2a (in-place)
I1129 23:54:11.719034 189118 net.cpp:122] Setting up res3b1_branch2a_relu
I1129 23:54:11.719038 189118 net.cpp:129] Top shape: 10 128 30 30 (1152000)
I1129 23:54:11.719041 189118 net.cpp:137] Memory required for data: 1527552040
I1129 23:54:11.719048 189118 layer_factory.hpp:77] Creating layer res3b1_branch2b
I1129 23:54:11.719053 189118 net.cpp:84] Creating Layer res3b1_branch2b
I1129 23:54:11.719056 189118 net.cpp:406] res3b1_branch2b <- res3b1_branch2a
I1129 23:54:11.719064 189118 net.cpp:380] res3b1_branch2b -> res3b1_branch2b
I1129 23:54:11.720850 189118 net.cpp:122] Setting up res3b1_branch2b
I1129 23:54:11.720861 189118 net.cpp:129] Top shape: 10 128 30 30 (1152000)
I1129 23:54:11.720863 189118 net.cpp:137] Memory required for data: 1532160040
I1129 23:54:11.720868 189118 layer_factory.hpp:77] Creating layer bn3b1_branch2b
I1129 23:54:11.720873 189118 net.cpp:84] Creating Layer bn3b1_branch2b
I1129 23:54:11.720877 189118 net.cpp:406] bn3b1_branch2b <- res3b1_branch2b
I1129 23:54:11.720886 189118 net.cpp:367] bn3b1_branch2b -> res3b1_branch2b (in-place)
I1129 23:54:11.721019 189118 net.cpp:122] Setting up bn3b1_branch2b
I1129 23:54:11.721025 189118 net.cpp:129] Top shape: 10 128 30 30 (1152000)
I1129 23:54:11.721027 189118 net.cpp:137] Memory required for data: 1536768040
I1129 23:54:11.721034 189118 layer_factory.hpp:77] Creating layer scale3b1_branch2b
I1129 23:54:11.721038 189118 net.cpp:84] Creating Layer scale3b1_branch2b
I1129 23:54:11.721041 189118 net.cpp:406] scale3b1_branch2b <- res3b1_branch2b
I1129 23:54:11.721050 189118 net.cpp:367] scale3b1_branch2b -> res3b1_branch2b (in-place)
I1129 23:54:11.721086 189118 layer_factory.hpp:77] Creating layer scale3b1_branch2b
I1129 23:54:11.721163 189118 net.cpp:122] Setting up scale3b1_branch2b
I1129 23:54:11.721168 189118 net.cpp:129] Top shape: 10 128 30 30 (1152000)
I1129 23:54:11.721171 189118 net.cpp:137] Memory required for data: 1541376040
I1129 23:54:11.721175 189118 layer_factory.hpp:77] Creating layer res3b1_branch2b_relu
I1129 23:54:11.721182 189118 net.cpp:84] Creating Layer res3b1_branch2b_relu
I1129 23:54:11.721185 189118 net.cpp:406] res3b1_branch2b_relu <- res3b1_branch2b
I1129 23:54:11.721190 189118 net.cpp:367] res3b1_branch2b_relu -> res3b1_branch2b (in-place)
I1129 23:54:11.721195 189118 net.cpp:122] Setting up res3b1_branch2b_relu
I1129 23:54:11.721199 189118 net.cpp:129] Top shape: 10 128 30 30 (1152000)
I1129 23:54:11.721201 189118 net.cpp:137] Memory required for data: 1545984040
I1129 23:54:11.721204 189118 layer_factory.hpp:77] Creating layer res3b1_branch2c
I1129 23:54:11.721215 189118 net.cpp:84] Creating Layer res3b1_branch2c
I1129 23:54:11.721218 189118 net.cpp:406] res3b1_branch2c <- res3b1_branch2b
I1129 23:54:11.721225 189118 net.cpp:380] res3b1_branch2c -> res3b1_branch2c
I1129 23:54:11.721848 189118 net.cpp:122] Setting up res3b1_branch2c
I1129 23:54:11.721854 189118 net.cpp:129] Top shape: 10 512 30 30 (4608000)
I1129 23:54:11.721858 189118 net.cpp:137] Memory required for data: 1564416040
I1129 23:54:11.721863 189118 layer_factory.hpp:77] Creating layer bn3b1_branch2c
I1129 23:54:11.721868 189118 net.cpp:84] Creating Layer bn3b1_branch2c
I1129 23:54:11.721871 189118 net.cpp:406] bn3b1_branch2c <- res3b1_branch2c
I1129 23:54:11.721876 189118 net.cpp:367] bn3b1_branch2c -> res3b1_branch2c (in-place)
I1129 23:54:11.722000 189118 net.cpp:122] Setting up bn3b1_branch2c
I1129 23:54:11.722005 189118 net.cpp:129] Top shape: 10 512 30 30 (4608000)
I1129 23:54:11.722008 189118 net.cpp:137] Memory required for data: 1582848040
I1129 23:54:11.722013 189118 layer_factory.hpp:77] Creating layer scale3b1_branch2c
I1129 23:54:11.722018 189118 net.cpp:84] Creating Layer scale3b1_branch2c
I1129 23:54:11.722021 189118 net.cpp:406] scale3b1_branch2c <- res3b1_branch2c
I1129 23:54:11.722026 189118 net.cpp:367] scale3b1_branch2c -> res3b1_branch2c (in-place)
I1129 23:54:11.722055 189118 layer_factory.hpp:77] Creating layer scale3b1_branch2c
I1129 23:54:11.722134 189118 net.cpp:122] Setting up scale3b1_branch2c
I1129 23:54:11.722141 189118 net.cpp:129] Top shape: 10 512 30 30 (4608000)
I1129 23:54:11.722143 189118 net.cpp:137] Memory required for data: 1601280040
I1129 23:54:11.722149 189118 layer_factory.hpp:77] Creating layer res3b1
I1129 23:54:11.722156 189118 net.cpp:84] Creating Layer res3b1
I1129 23:54:11.722158 189118 net.cpp:406] res3b1 <- res3a_res3a_relu_0_split_1
I1129 23:54:11.722167 189118 net.cpp:406] res3b1 <- res3b1_branch2c
I1129 23:54:11.722172 189118 net.cpp:380] res3b1 -> res3b1
I1129 23:54:11.722190 189118 net.cpp:122] Setting up res3b1
I1129 23:54:11.722195 189118 net.cpp:129] Top shape: 10 512 30 30 (4608000)
I1129 23:54:11.722198 189118 net.cpp:137] Memory required for data: 1619712040
I1129 23:54:11.722206 189118 layer_factory.hpp:77] Creating layer res3b1_relu
I1129 23:54:11.722210 189118 net.cpp:84] Creating Layer res3b1_relu
I1129 23:54:11.722213 189118 net.cpp:406] res3b1_relu <- res3b1
I1129 23:54:11.722219 189118 net.cpp:367] res3b1_relu -> res3b1 (in-place)
I1129 23:54:11.722224 189118 net.cpp:122] Setting up res3b1_relu
I1129 23:54:11.722229 189118 net.cpp:129] Top shape: 10 512 30 30 (4608000)
I1129 23:54:11.722230 189118 net.cpp:137] Memory required for data: 1638144040
I1129 23:54:11.722234 189118 layer_factory.hpp:77] Creating layer res3b1_res3b1_relu_0_split
I1129 23:54:11.722237 189118 net.cpp:84] Creating Layer res3b1_res3b1_relu_0_split
I1129 23:54:11.722240 189118 net.cpp:406] res3b1_res3b1_relu_0_split <- res3b1
I1129 23:54:11.722251 189118 net.cpp:380] res3b1_res3b1_relu_0_split -> res3b1_res3b1_relu_0_split_0
I1129 23:54:11.722261 189118 net.cpp:380] res3b1_res3b1_relu_0_split -> res3b1_res3b1_relu_0_split_1
I1129 23:54:11.722292 189118 net.cpp:122] Setting up res3b1_res3b1_relu_0_split
I1129 23:54:11.722297 189118 net.cpp:129] Top shape: 10 512 30 30 (4608000)
I1129 23:54:11.722301 189118 net.cpp:129] Top shape: 10 512 30 30 (4608000)
I1129 23:54:11.722303 189118 net.cpp:137] Memory required for data: 1675008040
I1129 23:54:11.722307 189118 layer_factory.hpp:77] Creating layer res3b2_branch2a
I1129 23:54:11.722314 189118 net.cpp:84] Creating Layer res3b2_branch2a
I1129 23:54:11.722318 189118 net.cpp:406] res3b2_branch2a <- res3b1_res3b1_relu_0_split_0
I1129 23:54:11.722322 189118 net.cpp:380] res3b2_branch2a -> res3b2_branch2a
I1129 23:54:11.722949 189118 net.cpp:122] Setting up res3b2_branch2a
I1129 23:54:11.722954 189118 net.cpp:129] Top shape: 10 128 30 30 (1152000)
I1129 23:54:11.722957 189118 net.cpp:137] Memory required for data: 1679616040
I1129 23:54:11.722961 189118 layer_factory.hpp:77] Creating layer bn3b2_branch2a
I1129 23:54:11.722966 189118 net.cpp:84] Creating Layer bn3b2_branch2a
I1129 23:54:11.722970 189118 net.cpp:406] bn3b2_branch2a <- res3b2_branch2a
I1129 23:54:11.722973 189118 net.cpp:367] bn3b2_branch2a -> res3b2_branch2a (in-place)
I1129 23:54:11.723098 189118 net.cpp:122] Setting up bn3b2_branch2a
I1129 23:54:11.723105 189118 net.cpp:129] Top shape: 10 128 30 30 (1152000)
I1129 23:54:11.723109 189118 net.cpp:137] Memory required for data: 1684224040
I1129 23:54:11.723124 189118 layer_factory.hpp:77] Creating layer scale3b2_branch2a
I1129 23:54:11.723129 189118 net.cpp:84] Creating Layer scale3b2_branch2a
I1129 23:54:11.723132 189118 net.cpp:406] scale3b2_branch2a <- res3b2_branch2a
I1129 23:54:11.723136 189118 net.cpp:367] scale3b2_branch2a -> res3b2_branch2a (in-place)
I1129 23:54:11.723165 189118 layer_factory.hpp:77] Creating layer scale3b2_branch2a
I1129 23:54:11.723243 189118 net.cpp:122] Setting up scale3b2_branch2a
I1129 23:54:11.723249 189118 net.cpp:129] Top shape: 10 128 30 30 (1152000)
I1129 23:54:11.723253 189118 net.cpp:137] Memory required for data: 1688832040
I1129 23:54:11.723256 189118 layer_factory.hpp:77] Creating layer res3b2_branch2a_relu
I1129 23:54:11.723263 189118 net.cpp:84] Creating Layer res3b2_branch2a_relu
I1129 23:54:11.723266 189118 net.cpp:406] res3b2_branch2a_relu <- res3b2_branch2a
I1129 23:54:11.723269 189118 net.cpp:367] res3b2_branch2a_relu -> res3b2_branch2a (in-place)
I1129 23:54:11.723273 189118 net.cpp:122] Setting up res3b2_branch2a_relu
I1129 23:54:11.723278 189118 net.cpp:129] Top shape: 10 128 30 30 (1152000)
I1129 23:54:11.723280 189118 net.cpp:137] Memory required for data: 1693440040
I1129 23:54:11.723284 189118 layer_factory.hpp:77] Creating layer res3b2_branch2b
I1129 23:54:11.723292 189118 net.cpp:84] Creating Layer res3b2_branch2b
I1129 23:54:11.723295 189118 net.cpp:406] res3b2_branch2b <- res3b2_branch2a
I1129 23:54:11.723300 189118 net.cpp:380] res3b2_branch2b -> res3b2_branch2b
I1129 23:54:11.725051 189118 net.cpp:122] Setting up res3b2_branch2b
I1129 23:54:11.725062 189118 net.cpp:129] Top shape: 10 128 30 30 (1152000)
I1129 23:54:11.725065 189118 net.cpp:137] Memory required for data: 1698048040
I1129 23:54:11.725069 189118 layer_factory.hpp:77] Creating layer bn3b2_branch2b
I1129 23:54:11.725075 189118 net.cpp:84] Creating Layer bn3b2_branch2b
I1129 23:54:11.725078 189118 net.cpp:406] bn3b2_branch2b <- res3b2_branch2b
I1129 23:54:11.725087 189118 net.cpp:367] bn3b2_branch2b -> res3b2_branch2b (in-place)
I1129 23:54:11.725219 189118 net.cpp:122] Setting up bn3b2_branch2b
I1129 23:54:11.725225 189118 net.cpp:129] Top shape: 10 128 30 30 (1152000)
I1129 23:54:11.725229 189118 net.cpp:137] Memory required for data: 1702656040
I1129 23:54:11.725239 189118 layer_factory.hpp:77] Creating layer scale3b2_branch2b
I1129 23:54:11.725245 189118 net.cpp:84] Creating Layer scale3b2_branch2b
I1129 23:54:11.725248 189118 net.cpp:406] scale3b2_branch2b <- res3b2_branch2b
I1129 23:54:11.725252 189118 net.cpp:367] scale3b2_branch2b -> res3b2_branch2b (in-place)
I1129 23:54:11.725286 189118 layer_factory.hpp:77] Creating layer scale3b2_branch2b
I1129 23:54:11.725370 189118 net.cpp:122] Setting up scale3b2_branch2b
I1129 23:54:11.725376 189118 net.cpp:129] Top shape: 10 128 30 30 (1152000)
I1129 23:54:11.725379 189118 net.cpp:137] Memory required for data: 1707264040
I1129 23:54:11.725384 189118 layer_factory.hpp:77] Creating layer res3b2_branch2b_relu
I1129 23:54:11.725389 189118 net.cpp:84] Creating Layer res3b2_branch2b_relu
I1129 23:54:11.725391 189118 net.cpp:406] res3b2_branch2b_relu <- res3b2_branch2b
I1129 23:54:11.725404 189118 net.cpp:367] res3b2_branch2b_relu -> res3b2_branch2b (in-place)
I1129 23:54:11.725410 189118 net.cpp:122] Setting up res3b2_branch2b_relu
I1129 23:54:11.725414 189118 net.cpp:129] Top shape: 10 128 30 30 (1152000)
I1129 23:54:11.725417 189118 net.cpp:137] Memory required for data: 1711872040
I1129 23:54:11.725420 189118 layer_factory.hpp:77] Creating layer res3b2_branch2c
I1129 23:54:11.725426 189118 net.cpp:84] Creating Layer res3b2_branch2c
I1129 23:54:11.725430 189118 net.cpp:406] res3b2_branch2c <- res3b2_branch2b
I1129 23:54:11.725435 189118 net.cpp:380] res3b2_branch2c -> res3b2_branch2c
I1129 23:54:11.726052 189118 net.cpp:122] Setting up res3b2_branch2c
I1129 23:54:11.726058 189118 net.cpp:129] Top shape: 10 512 30 30 (4608000)
I1129 23:54:11.726061 189118 net.cpp:137] Memory required for data: 1730304040
I1129 23:54:11.726065 189118 layer_factory.hpp:77] Creating layer bn3b2_branch2c
I1129 23:54:11.726069 189118 net.cpp:84] Creating Layer bn3b2_branch2c
I1129 23:54:11.726073 189118 net.cpp:406] bn3b2_branch2c <- res3b2_branch2c
I1129 23:54:11.726081 189118 net.cpp:367] bn3b2_branch2c -> res3b2_branch2c (in-place)
I1129 23:54:11.726209 189118 net.cpp:122] Setting up bn3b2_branch2c
I1129 23:54:11.726214 189118 net.cpp:129] Top shape: 10 512 30 30 (4608000)
I1129 23:54:11.726217 189118 net.cpp:137] Memory required for data: 1748736040
I1129 23:54:11.726227 189118 layer_factory.hpp:77] Creating layer scale3b2_branch2c
I1129 23:54:11.726234 189118 net.cpp:84] Creating Layer scale3b2_branch2c
I1129 23:54:11.726238 189118 net.cpp:406] scale3b2_branch2c <- res3b2_branch2c
I1129 23:54:11.726241 189118 net.cpp:367] scale3b2_branch2c -> res3b2_branch2c (in-place)
I1129 23:54:11.726272 189118 layer_factory.hpp:77] Creating layer scale3b2_branch2c
I1129 23:54:11.726348 189118 net.cpp:122] Setting up scale3b2_branch2c
I1129 23:54:11.726353 189118 net.cpp:129] Top shape: 10 512 30 30 (4608000)
I1129 23:54:11.726356 189118 net.cpp:137] Memory required for data: 1767168040
I1129 23:54:11.726361 189118 layer_factory.hpp:77] Creating layer res3b2
I1129 23:54:11.726367 189118 net.cpp:84] Creating Layer res3b2
I1129 23:54:11.726371 189118 net.cpp:406] res3b2 <- res3b1_res3b1_relu_0_split_1
I1129 23:54:11.726378 189118 net.cpp:406] res3b2 <- res3b2_branch2c
I1129 23:54:11.726383 189118 net.cpp:380] res3b2 -> res3b2
I1129 23:54:11.726402 189118 net.cpp:122] Setting up res3b2
I1129 23:54:11.726408 189118 net.cpp:129] Top shape: 10 512 30 30 (4608000)
I1129 23:54:11.726409 189118 net.cpp:137] Memory required for data: 1785600040
I1129 23:54:11.726413 189118 layer_factory.hpp:77] Creating layer res3b2_relu
I1129 23:54:11.726418 189118 net.cpp:84] Creating Layer res3b2_relu
I1129 23:54:11.726420 189118 net.cpp:406] res3b2_relu <- res3b2
I1129 23:54:11.726425 189118 net.cpp:367] res3b2_relu -> res3b2 (in-place)
I1129 23:54:11.726430 189118 net.cpp:122] Setting up res3b2_relu
I1129 23:54:11.726433 189118 net.cpp:129] Top shape: 10 512 30 30 (4608000)
I1129 23:54:11.726436 189118 net.cpp:137] Memory required for data: 1804032040
I1129 23:54:11.726439 189118 layer_factory.hpp:77] Creating layer res3b2_res3b2_relu_0_split
I1129 23:54:11.726444 189118 net.cpp:84] Creating Layer res3b2_res3b2_relu_0_split
I1129 23:54:11.726446 189118 net.cpp:406] res3b2_res3b2_relu_0_split <- res3b2
I1129 23:54:11.726455 189118 net.cpp:380] res3b2_res3b2_relu_0_split -> res3b2_res3b2_relu_0_split_0
I1129 23:54:11.726461 189118 net.cpp:380] res3b2_res3b2_relu_0_split -> res3b2_res3b2_relu_0_split_1
I1129 23:54:11.726490 189118 net.cpp:122] Setting up res3b2_res3b2_relu_0_split
I1129 23:54:11.726500 189118 net.cpp:129] Top shape: 10 512 30 30 (4608000)
I1129 23:54:11.726503 189118 net.cpp:129] Top shape: 10 512 30 30 (4608000)
I1129 23:54:11.726506 189118 net.cpp:137] Memory required for data: 1840896040
I1129 23:54:11.726513 189118 layer_factory.hpp:77] Creating layer res3b3_branch2a
I1129 23:54:11.726519 189118 net.cpp:84] Creating Layer res3b3_branch2a
I1129 23:54:11.726523 189118 net.cpp:406] res3b3_branch2a <- res3b2_res3b2_relu_0_split_0
I1129 23:54:11.726529 189118 net.cpp:380] res3b3_branch2a -> res3b3_branch2a
I1129 23:54:11.727707 189118 net.cpp:122] Setting up res3b3_branch2a
I1129 23:54:11.727718 189118 net.cpp:129] Top shape: 10 128 30 30 (1152000)
I1129 23:54:11.727721 189118 net.cpp:137] Memory required for data: 1845504040
I1129 23:54:11.727725 189118 layer_factory.hpp:77] Creating layer bn3b3_branch2a
I1129 23:54:11.727731 189118 net.cpp:84] Creating Layer bn3b3_branch2a
I1129 23:54:11.727735 189118 net.cpp:406] bn3b3_branch2a <- res3b3_branch2a
I1129 23:54:11.727740 189118 net.cpp:367] bn3b3_branch2a -> res3b3_branch2a (in-place)
I1129 23:54:11.727869 189118 net.cpp:122] Setting up bn3b3_branch2a
I1129 23:54:11.727876 189118 net.cpp:129] Top shape: 10 128 30 30 (1152000)
I1129 23:54:11.727879 189118 net.cpp:137] Memory required for data: 1850112040
I1129 23:54:11.727896 189118 layer_factory.hpp:77] Creating layer scale3b3_branch2a
I1129 23:54:11.727903 189118 net.cpp:84] Creating Layer scale3b3_branch2a
I1129 23:54:11.727907 189118 net.cpp:406] scale3b3_branch2a <- res3b3_branch2a
I1129 23:54:11.727913 189118 net.cpp:367] scale3b3_branch2a -> res3b3_branch2a (in-place)
I1129 23:54:11.727941 189118 layer_factory.hpp:77] Creating layer scale3b3_branch2a
I1129 23:54:11.728018 189118 net.cpp:122] Setting up scale3b3_branch2a
I1129 23:54:11.728024 189118 net.cpp:129] Top shape: 10 128 30 30 (1152000)
I1129 23:54:11.728026 189118 net.cpp:137] Memory required for data: 1854720040
I1129 23:54:11.728031 189118 layer_factory.hpp:77] Creating layer res3b3_branch2a_relu
I1129 23:54:11.728035 189118 net.cpp:84] Creating Layer res3b3_branch2a_relu
I1129 23:54:11.728039 189118 net.cpp:406] res3b3_branch2a_relu <- res3b3_branch2a
I1129 23:54:11.728042 189118 net.cpp:367] res3b3_branch2a_relu -> res3b3_branch2a (in-place)
I1129 23:54:11.728047 189118 net.cpp:122] Setting up res3b3_branch2a_relu
I1129 23:54:11.728050 189118 net.cpp:129] Top shape: 10 128 30 30 (1152000)
I1129 23:54:11.728054 189118 net.cpp:137] Memory required for data: 1859328040
I1129 23:54:11.728061 189118 layer_factory.hpp:77] Creating layer res3b3_branch2b
I1129 23:54:11.728070 189118 net.cpp:84] Creating Layer res3b3_branch2b
I1129 23:54:11.728072 189118 net.cpp:406] res3b3_branch2b <- res3b3_branch2a
I1129 23:54:11.728080 189118 net.cpp:380] res3b3_branch2b -> res3b3_branch2b
I1129 23:54:11.729826 189118 net.cpp:122] Setting up res3b3_branch2b
I1129 23:54:11.729836 189118 net.cpp:129] Top shape: 10 128 30 30 (1152000)
I1129 23:54:11.729840 189118 net.cpp:137] Memory required for data: 1863936040
I1129 23:54:11.729843 189118 layer_factory.hpp:77] Creating layer bn3b3_branch2b
I1129 23:54:11.729851 189118 net.cpp:84] Creating Layer bn3b3_branch2b
I1129 23:54:11.729853 189118 net.cpp:406] bn3b3_branch2b <- res3b3_branch2b
I1129 23:54:11.729857 189118 net.cpp:367] bn3b3_branch2b -> res3b3_branch2b (in-place)
I1129 23:54:11.729988 189118 net.cpp:122] Setting up bn3b3_branch2b
I1129 23:54:11.729993 189118 net.cpp:129] Top shape: 10 128 30 30 (1152000)
I1129 23:54:11.729996 189118 net.cpp:137] Memory required for data: 1868544040
I1129 23:54:11.730001 189118 layer_factory.hpp:77] Creating layer scale3b3_branch2b
I1129 23:54:11.730007 189118 net.cpp:84] Creating Layer scale3b3_branch2b
I1129 23:54:11.730010 189118 net.cpp:406] scale3b3_branch2b <- res3b3_branch2b
I1129 23:54:11.730015 189118 net.cpp:367] scale3b3_branch2b -> res3b3_branch2b (in-place)
I1129 23:54:11.730043 189118 layer_factory.hpp:77] Creating layer scale3b3_branch2b
I1129 23:54:11.730128 189118 net.cpp:122] Setting up scale3b3_branch2b
I1129 23:54:11.730139 189118 net.cpp:129] Top shape: 10 128 30 30 (1152000)
I1129 23:54:11.730142 189118 net.cpp:137] Memory required for data: 1873152040
I1129 23:54:11.730146 189118 layer_factory.hpp:77] Creating layer res3b3_branch2b_relu
I1129 23:54:11.730154 189118 net.cpp:84] Creating Layer res3b3_branch2b_relu
I1129 23:54:11.730156 189118 net.cpp:406] res3b3_branch2b_relu <- res3b3_branch2b
I1129 23:54:11.730160 189118 net.cpp:367] res3b3_branch2b_relu -> res3b3_branch2b (in-place)
I1129 23:54:11.730165 189118 net.cpp:122] Setting up res3b3_branch2b_relu
I1129 23:54:11.730170 189118 net.cpp:129] Top shape: 10 128 30 30 (1152000)
I1129 23:54:11.730171 189118 net.cpp:137] Memory required for data: 1877760040
I1129 23:54:11.730180 189118 layer_factory.hpp:77] Creating layer res3b3_branch2c
I1129 23:54:11.730186 189118 net.cpp:84] Creating Layer res3b3_branch2c
I1129 23:54:11.730190 189118 net.cpp:406] res3b3_branch2c <- res3b3_branch2b
I1129 23:54:11.730195 189118 net.cpp:380] res3b3_branch2c -> res3b3_branch2c
I1129 23:54:11.730824 189118 net.cpp:122] Setting up res3b3_branch2c
I1129 23:54:11.730831 189118 net.cpp:129] Top shape: 10 512 30 30 (4608000)
I1129 23:54:11.730834 189118 net.cpp:137] Memory required for data: 1896192040
I1129 23:54:11.730839 189118 layer_factory.hpp:77] Creating layer bn3b3_branch2c
I1129 23:54:11.730846 189118 net.cpp:84] Creating Layer bn3b3_branch2c
I1129 23:54:11.730850 189118 net.cpp:406] bn3b3_branch2c <- res3b3_branch2c
I1129 23:54:11.730854 189118 net.cpp:367] bn3b3_branch2c -> res3b3_branch2c (in-place)
I1129 23:54:11.730983 189118 net.cpp:122] Setting up bn3b3_branch2c
I1129 23:54:11.730988 189118 net.cpp:129] Top shape: 10 512 30 30 (4608000)
I1129 23:54:11.730990 189118 net.cpp:137] Memory required for data: 1914624040
I1129 23:54:11.730996 189118 layer_factory.hpp:77] Creating layer scale3b3_branch2c
I1129 23:54:11.731003 189118 net.cpp:84] Creating Layer scale3b3_branch2c
I1129 23:54:11.731006 189118 net.cpp:406] scale3b3_branch2c <- res3b3_branch2c
I1129 23:54:11.731010 189118 net.cpp:367] scale3b3_branch2c -> res3b3_branch2c (in-place)
I1129 23:54:11.731040 189118 layer_factory.hpp:77] Creating layer scale3b3_branch2c
I1129 23:54:11.731119 189118 net.cpp:122] Setting up scale3b3_branch2c
I1129 23:54:11.731125 189118 net.cpp:129] Top shape: 10 512 30 30 (4608000)
I1129 23:54:11.731127 189118 net.cpp:137] Memory required for data: 1933056040
I1129 23:54:11.731132 189118 layer_factory.hpp:77] Creating layer res3b3
I1129 23:54:11.731137 189118 net.cpp:84] Creating Layer res3b3
I1129 23:54:11.731140 189118 net.cpp:406] res3b3 <- res3b2_res3b2_relu_0_split_1
I1129 23:54:11.731143 189118 net.cpp:406] res3b3 <- res3b3_branch2c
I1129 23:54:11.731150 189118 net.cpp:380] res3b3 -> res3b3
I1129 23:54:11.731166 189118 net.cpp:122] Setting up res3b3
I1129 23:54:11.731173 189118 net.cpp:129] Top shape: 10 512 30 30 (4608000)
I1129 23:54:11.731175 189118 net.cpp:137] Memory required for data: 1951488040
I1129 23:54:11.731184 189118 layer_factory.hpp:77] Creating layer res3b3_relu
I1129 23:54:11.731189 189118 net.cpp:84] Creating Layer res3b3_relu
I1129 23:54:11.731191 189118 net.cpp:406] res3b3_relu <- res3b3
I1129 23:54:11.731195 189118 net.cpp:367] res3b3_relu -> res3b3 (in-place)
I1129 23:54:11.731200 189118 net.cpp:122] Setting up res3b3_relu
I1129 23:54:11.731204 189118 net.cpp:129] Top shape: 10 512 30 30 (4608000)
I1129 23:54:11.731206 189118 net.cpp:137] Memory required for data: 1969920040
I1129 23:54:11.731209 189118 layer_factory.hpp:77] Creating layer res3b3_res3b3_relu_0_split
I1129 23:54:11.731214 189118 net.cpp:84] Creating Layer res3b3_res3b3_relu_0_split
I1129 23:54:11.731216 189118 net.cpp:406] res3b3_res3b3_relu_0_split <- res3b3
I1129 23:54:11.731221 189118 net.cpp:380] res3b3_res3b3_relu_0_split -> res3b3_res3b3_relu_0_split_0
I1129 23:54:11.731227 189118 net.cpp:380] res3b3_res3b3_relu_0_split -> res3b3_res3b3_relu_0_split_1
I1129 23:54:11.731252 189118 net.cpp:122] Setting up res3b3_res3b3_relu_0_split
I1129 23:54:11.731261 189118 net.cpp:129] Top shape: 10 512 30 30 (4608000)
I1129 23:54:11.731269 189118 net.cpp:129] Top shape: 10 512 30 30 (4608000)
I1129 23:54:11.731271 189118 net.cpp:137] Memory required for data: 2006784040
I1129 23:54:11.731276 189118 layer_factory.hpp:77] Creating layer res3b4_branch2a
I1129 23:54:11.731281 189118 net.cpp:84] Creating Layer res3b4_branch2a
I1129 23:54:11.731284 189118 net.cpp:406] res3b4_branch2a <- res3b3_res3b3_relu_0_split_0
I1129 23:54:11.731288 189118 net.cpp:380] res3b4_branch2a -> res3b4_branch2a
I1129 23:54:11.731915 189118 net.cpp:122] Setting up res3b4_branch2a
I1129 23:54:11.731923 189118 net.cpp:129] Top shape: 10 128 30 30 (1152000)
I1129 23:54:11.731925 189118 net.cpp:137] Memory required for data: 2011392040
I1129 23:54:11.731930 189118 layer_factory.hpp:77] Creating layer bn3b4_branch2a
I1129 23:54:11.731938 189118 net.cpp:84] Creating Layer bn3b4_branch2a
I1129 23:54:11.731942 189118 net.cpp:406] bn3b4_branch2a <- res3b4_branch2a
I1129 23:54:11.731950 189118 net.cpp:367] bn3b4_branch2a -> res3b4_branch2a (in-place)
I1129 23:54:11.732079 189118 net.cpp:122] Setting up bn3b4_branch2a
I1129 23:54:11.732085 189118 net.cpp:129] Top shape: 10 128 30 30 (1152000)
I1129 23:54:11.732087 189118 net.cpp:137] Memory required for data: 2016000040
I1129 23:54:11.732094 189118 layer_factory.hpp:77] Creating layer scale3b4_branch2a
I1129 23:54:11.732098 189118 net.cpp:84] Creating Layer scale3b4_branch2a
I1129 23:54:11.732102 189118 net.cpp:406] scale3b4_branch2a <- res3b4_branch2a
I1129 23:54:11.732106 189118 net.cpp:367] scale3b4_branch2a -> res3b4_branch2a (in-place)
I1129 23:54:11.732136 189118 layer_factory.hpp:77] Creating layer scale3b4_branch2a
I1129 23:54:11.732213 189118 net.cpp:122] Setting up scale3b4_branch2a
I1129 23:54:11.732219 189118 net.cpp:129] Top shape: 10 128 30 30 (1152000)
I1129 23:54:11.732221 189118 net.cpp:137] Memory required for data: 2020608040
I1129 23:54:11.732226 189118 layer_factory.hpp:77] Creating layer res3b4_branch2a_relu
I1129 23:54:11.732230 189118 net.cpp:84] Creating Layer res3b4_branch2a_relu
I1129 23:54:11.732234 189118 net.cpp:406] res3b4_branch2a_relu <- res3b4_branch2a
I1129 23:54:11.732239 189118 net.cpp:367] res3b4_branch2a_relu -> res3b4_branch2a (in-place)
I1129 23:54:11.732244 189118 net.cpp:122] Setting up res3b4_branch2a_relu
I1129 23:54:11.732247 189118 net.cpp:129] Top shape: 10 128 30 30 (1152000)
I1129 23:54:11.732250 189118 net.cpp:137] Memory required for data: 2025216040
I1129 23:54:11.732254 189118 layer_factory.hpp:77] Creating layer res3b4_branch2b
I1129 23:54:11.732259 189118 net.cpp:84] Creating Layer res3b4_branch2b
I1129 23:54:11.732261 189118 net.cpp:406] res3b4_branch2b <- res3b4_branch2a
I1129 23:54:11.732269 189118 net.cpp:380] res3b4_branch2b -> res3b4_branch2b
I1129 23:54:11.734009 189118 net.cpp:122] Setting up res3b4_branch2b
I1129 23:54:11.734019 189118 net.cpp:129] Top shape: 10 128 30 30 (1152000)
I1129 23:54:11.734022 189118 net.cpp:137] Memory required for data: 2029824040
I1129 23:54:11.734027 189118 layer_factory.hpp:77] Creating layer bn3b4_branch2b
I1129 23:54:11.734032 189118 net.cpp:84] Creating Layer bn3b4_branch2b
I1129 23:54:11.734035 189118 net.cpp:406] bn3b4_branch2b <- res3b4_branch2b
I1129 23:54:11.734040 189118 net.cpp:367] bn3b4_branch2b -> res3b4_branch2b (in-place)
I1129 23:54:11.734170 189118 net.cpp:122] Setting up bn3b4_branch2b
I1129 23:54:11.734176 189118 net.cpp:129] Top shape: 10 128 30 30 (1152000)
I1129 23:54:11.734179 189118 net.cpp:137] Memory required for data: 2034432040
I1129 23:54:11.734191 189118 layer_factory.hpp:77] Creating layer scale3b4_branch2b
I1129 23:54:11.734196 189118 net.cpp:84] Creating Layer scale3b4_branch2b
I1129 23:54:11.734200 189118 net.cpp:406] scale3b4_branch2b <- res3b4_branch2b
I1129 23:54:11.734205 189118 net.cpp:367] scale3b4_branch2b -> res3b4_branch2b (in-place)
I1129 23:54:11.734236 189118 layer_factory.hpp:77] Creating layer scale3b4_branch2b
I1129 23:54:11.734316 189118 net.cpp:122] Setting up scale3b4_branch2b
I1129 23:54:11.734323 189118 net.cpp:129] Top shape: 10 128 30 30 (1152000)
I1129 23:54:11.734328 189118 net.cpp:137] Memory required for data: 2039040040
I1129 23:54:11.734338 189118 layer_factory.hpp:77] Creating layer res3b4_branch2b_relu
I1129 23:54:11.734345 189118 net.cpp:84] Creating Layer res3b4_branch2b_relu
I1129 23:54:11.734349 189118 net.cpp:406] res3b4_branch2b_relu <- res3b4_branch2b
I1129 23:54:11.734352 189118 net.cpp:367] res3b4_branch2b_relu -> res3b4_branch2b (in-place)
I1129 23:54:11.734357 189118 net.cpp:122] Setting up res3b4_branch2b_relu
I1129 23:54:11.734361 189118 net.cpp:129] Top shape: 10 128 30 30 (1152000)
I1129 23:54:11.734364 189118 net.cpp:137] Memory required for data: 2043648040
I1129 23:54:11.734366 189118 layer_factory.hpp:77] Creating layer res3b4_branch2c
I1129 23:54:11.734374 189118 net.cpp:84] Creating Layer res3b4_branch2c
I1129 23:54:11.734377 189118 net.cpp:406] res3b4_branch2c <- res3b4_branch2b
I1129 23:54:11.734383 189118 net.cpp:380] res3b4_branch2c -> res3b4_branch2c
I1129 23:54:11.735002 189118 net.cpp:122] Setting up res3b4_branch2c
I1129 23:54:11.735008 189118 net.cpp:129] Top shape: 10 512 30 30 (4608000)
I1129 23:54:11.735011 189118 net.cpp:137] Memory required for data: 2062080040
I1129 23:54:11.735015 189118 layer_factory.hpp:77] Creating layer bn3b4_branch2c
I1129 23:54:11.735019 189118 net.cpp:84] Creating Layer bn3b4_branch2c
I1129 23:54:11.735023 189118 net.cpp:406] bn3b4_branch2c <- res3b4_branch2c
I1129 23:54:11.735028 189118 net.cpp:367] bn3b4_branch2c -> res3b4_branch2c (in-place)
I1129 23:54:11.735163 189118 net.cpp:122] Setting up bn3b4_branch2c
I1129 23:54:11.735169 189118 net.cpp:129] Top shape: 10 512 30 30 (4608000)
I1129 23:54:11.735172 189118 net.cpp:137] Memory required for data: 2080512040
I1129 23:54:11.735183 189118 layer_factory.hpp:77] Creating layer scale3b4_branch2c
I1129 23:54:11.735188 189118 net.cpp:84] Creating Layer scale3b4_branch2c
I1129 23:54:11.735190 189118 net.cpp:406] scale3b4_branch2c <- res3b4_branch2c
I1129 23:54:11.735194 189118 net.cpp:367] scale3b4_branch2c -> res3b4_branch2c (in-place)
I1129 23:54:11.735225 189118 layer_factory.hpp:77] Creating layer scale3b4_branch2c
I1129 23:54:11.735304 189118 net.cpp:122] Setting up scale3b4_branch2c
I1129 23:54:11.735311 189118 net.cpp:129] Top shape: 10 512 30 30 (4608000)
I1129 23:54:11.735313 189118 net.cpp:137] Memory required for data: 2098944040
I1129 23:54:11.735318 189118 layer_factory.hpp:77] Creating layer res3b4
I1129 23:54:11.735322 189118 net.cpp:84] Creating Layer res3b4
I1129 23:54:11.735329 189118 net.cpp:406] res3b4 <- res3b3_res3b3_relu_0_split_1
I1129 23:54:11.735334 189118 net.cpp:406] res3b4 <- res3b4_branch2c
I1129 23:54:11.735340 189118 net.cpp:380] res3b4 -> res3b4
I1129 23:54:11.735358 189118 net.cpp:122] Setting up res3b4
I1129 23:54:11.735363 189118 net.cpp:129] Top shape: 10 512 30 30 (4608000)
I1129 23:54:11.735366 189118 net.cpp:137] Memory required for data: 2117376040
I1129 23:54:11.735369 189118 layer_factory.hpp:77] Creating layer res3b4_relu
I1129 23:54:11.735375 189118 net.cpp:84] Creating Layer res3b4_relu
I1129 23:54:11.735378 189118 net.cpp:406] res3b4_relu <- res3b4
I1129 23:54:11.735383 189118 net.cpp:367] res3b4_relu -> res3b4 (in-place)
I1129 23:54:11.735388 189118 net.cpp:122] Setting up res3b4_relu
I1129 23:54:11.735390 189118 net.cpp:129] Top shape: 10 512 30 30 (4608000)
I1129 23:54:11.735394 189118 net.cpp:137] Memory required for data: 2135808040
I1129 23:54:11.735396 189118 layer_factory.hpp:77] Creating layer res3b4_res3b4_relu_0_split
I1129 23:54:11.735402 189118 net.cpp:84] Creating Layer res3b4_res3b4_relu_0_split
I1129 23:54:11.735405 189118 net.cpp:406] res3b4_res3b4_relu_0_split <- res3b4
I1129 23:54:11.735409 189118 net.cpp:380] res3b4_res3b4_relu_0_split -> res3b4_res3b4_relu_0_split_0
I1129 23:54:11.735414 189118 net.cpp:380] res3b4_res3b4_relu_0_split -> res3b4_res3b4_relu_0_split_1
I1129 23:54:11.735440 189118 net.cpp:122] Setting up res3b4_res3b4_relu_0_split
I1129 23:54:11.735445 189118 net.cpp:129] Top shape: 10 512 30 30 (4608000)
I1129 23:54:11.735451 189118 net.cpp:129] Top shape: 10 512 30 30 (4608000)
I1129 23:54:11.735460 189118 net.cpp:137] Memory required for data: 2172672040
I1129 23:54:11.735469 189118 layer_factory.hpp:77] Creating layer res3b5_branch2a
I1129 23:54:11.735477 189118 net.cpp:84] Creating Layer res3b5_branch2a
I1129 23:54:11.735481 189118 net.cpp:406] res3b5_branch2a <- res3b4_res3b4_relu_0_split_0
I1129 23:54:11.735486 189118 net.cpp:380] res3b5_branch2a -> res3b5_branch2a
I1129 23:54:11.736609 189118 net.cpp:122] Setting up res3b5_branch2a
I1129 23:54:11.736619 189118 net.cpp:129] Top shape: 10 128 30 30 (1152000)
I1129 23:54:11.736621 189118 net.cpp:137] Memory required for data: 2177280040
I1129 23:54:11.736626 189118 layer_factory.hpp:77] Creating layer bn3b5_branch2a
I1129 23:54:11.736631 189118 net.cpp:84] Creating Layer bn3b5_branch2a
I1129 23:54:11.736635 189118 net.cpp:406] bn3b5_branch2a <- res3b5_branch2a
I1129 23:54:11.736641 189118 net.cpp:367] bn3b5_branch2a -> res3b5_branch2a (in-place)
I1129 23:54:11.736773 189118 net.cpp:122] Setting up bn3b5_branch2a
I1129 23:54:11.736780 189118 net.cpp:129] Top shape: 10 128 30 30 (1152000)
I1129 23:54:11.736783 189118 net.cpp:137] Memory required for data: 2181888040
I1129 23:54:11.736788 189118 layer_factory.hpp:77] Creating layer scale3b5_branch2a
I1129 23:54:11.736793 189118 net.cpp:84] Creating Layer scale3b5_branch2a
I1129 23:54:11.736796 189118 net.cpp:406] scale3b5_branch2a <- res3b5_branch2a
I1129 23:54:11.736800 189118 net.cpp:367] scale3b5_branch2a -> res3b5_branch2a (in-place)
I1129 23:54:11.736829 189118 layer_factory.hpp:77] Creating layer scale3b5_branch2a
I1129 23:54:11.736909 189118 net.cpp:122] Setting up scale3b5_branch2a
I1129 23:54:11.736915 189118 net.cpp:129] Top shape: 10 128 30 30 (1152000)
I1129 23:54:11.736918 189118 net.cpp:137] Memory required for data: 2186496040
I1129 23:54:11.736923 189118 layer_factory.hpp:77] Creating layer res3b5_branch2a_relu
I1129 23:54:11.736944 189118 net.cpp:84] Creating Layer res3b5_branch2a_relu
I1129 23:54:11.736948 189118 net.cpp:406] res3b5_branch2a_relu <- res3b5_branch2a
I1129 23:54:11.736953 189118 net.cpp:367] res3b5_branch2a_relu -> res3b5_branch2a (in-place)
I1129 23:54:11.736958 189118 net.cpp:122] Setting up res3b5_branch2a_relu
I1129 23:54:11.736961 189118 net.cpp:129] Top shape: 10 128 30 30 (1152000)
I1129 23:54:11.736964 189118 net.cpp:137] Memory required for data: 2191104040
I1129 23:54:11.736968 189118 layer_factory.hpp:77] Creating layer res3b5_branch2b
I1129 23:54:11.736974 189118 net.cpp:84] Creating Layer res3b5_branch2b
I1129 23:54:11.736976 189118 net.cpp:406] res3b5_branch2b <- res3b5_branch2a
I1129 23:54:11.736980 189118 net.cpp:380] res3b5_branch2b -> res3b5_branch2b
I1129 23:54:11.738726 189118 net.cpp:122] Setting up res3b5_branch2b
I1129 23:54:11.738736 189118 net.cpp:129] Top shape: 10 128 30 30 (1152000)
I1129 23:54:11.738739 189118 net.cpp:137] Memory required for data: 2195712040
I1129 23:54:11.738744 189118 layer_factory.hpp:77] Creating layer bn3b5_branch2b
I1129 23:54:11.738750 189118 net.cpp:84] Creating Layer bn3b5_branch2b
I1129 23:54:11.738754 189118 net.cpp:406] bn3b5_branch2b <- res3b5_branch2b
I1129 23:54:11.738759 189118 net.cpp:367] bn3b5_branch2b -> res3b5_branch2b (in-place)
I1129 23:54:11.738891 189118 net.cpp:122] Setting up bn3b5_branch2b
I1129 23:54:11.738898 189118 net.cpp:129] Top shape: 10 128 30 30 (1152000)
I1129 23:54:11.738900 189118 net.cpp:137] Memory required for data: 2200320040
I1129 23:54:11.738905 189118 layer_factory.hpp:77] Creating layer scale3b5_branch2b
I1129 23:54:11.738910 189118 net.cpp:84] Creating Layer scale3b5_branch2b
I1129 23:54:11.738914 189118 net.cpp:406] scale3b5_branch2b <- res3b5_branch2b
I1129 23:54:11.738919 189118 net.cpp:367] scale3b5_branch2b -> res3b5_branch2b (in-place)
I1129 23:54:11.738950 189118 layer_factory.hpp:77] Creating layer scale3b5_branch2b
I1129 23:54:11.739030 189118 net.cpp:122] Setting up scale3b5_branch2b
I1129 23:54:11.739037 189118 net.cpp:129] Top shape: 10 128 30 30 (1152000)
I1129 23:54:11.739038 189118 net.cpp:137] Memory required for data: 2204928040
I1129 23:54:11.739048 189118 layer_factory.hpp:77] Creating layer res3b5_branch2b_relu
I1129 23:54:11.739063 189118 net.cpp:84] Creating Layer res3b5_branch2b_relu
I1129 23:54:11.739066 189118 net.cpp:406] res3b5_branch2b_relu <- res3b5_branch2b
I1129 23:54:11.739070 189118 net.cpp:367] res3b5_branch2b_relu -> res3b5_branch2b (in-place)
I1129 23:54:11.739074 189118 net.cpp:122] Setting up res3b5_branch2b_relu
I1129 23:54:11.739078 189118 net.cpp:129] Top shape: 10 128 30 30 (1152000)
I1129 23:54:11.739081 189118 net.cpp:137] Memory required for data: 2209536040
I1129 23:54:11.739084 189118 layer_factory.hpp:77] Creating layer res3b5_branch2c
I1129 23:54:11.739091 189118 net.cpp:84] Creating Layer res3b5_branch2c
I1129 23:54:11.739095 189118 net.cpp:406] res3b5_branch2c <- res3b5_branch2b
I1129 23:54:11.739101 189118 net.cpp:380] res3b5_branch2c -> res3b5_branch2c
I1129 23:54:11.739737 189118 net.cpp:122] Setting up res3b5_branch2c
I1129 23:54:11.739745 189118 net.cpp:129] Top shape: 10 512 30 30 (4608000)
I1129 23:54:11.739748 189118 net.cpp:137] Memory required for data: 2227968040
I1129 23:54:11.739753 189118 layer_factory.hpp:77] Creating layer bn3b5_branch2c
I1129 23:54:11.739756 189118 net.cpp:84] Creating Layer bn3b5_branch2c
I1129 23:54:11.739759 189118 net.cpp:406] bn3b5_branch2c <- res3b5_branch2c
I1129 23:54:11.739764 189118 net.cpp:367] bn3b5_branch2c -> res3b5_branch2c (in-place)
I1129 23:54:11.739895 189118 net.cpp:122] Setting up bn3b5_branch2c
I1129 23:54:11.739902 189118 net.cpp:129] Top shape: 10 512 30 30 (4608000)
I1129 23:54:11.739904 189118 net.cpp:137] Memory required for data: 2246400040
I1129 23:54:11.739909 189118 layer_factory.hpp:77] Creating layer scale3b5_branch2c
I1129 23:54:11.739915 189118 net.cpp:84] Creating Layer scale3b5_branch2c
I1129 23:54:11.739919 189118 net.cpp:406] scale3b5_branch2c <- res3b5_branch2c
I1129 23:54:11.739923 189118 net.cpp:367] scale3b5_branch2c -> res3b5_branch2c (in-place)
I1129 23:54:11.739954 189118 layer_factory.hpp:77] Creating layer scale3b5_branch2c
I1129 23:54:11.740031 189118 net.cpp:122] Setting up scale3b5_branch2c
I1129 23:54:11.740037 189118 net.cpp:129] Top shape: 10 512 30 30 (4608000)
I1129 23:54:11.740041 189118 net.cpp:137] Memory required for data: 2264832040
I1129 23:54:11.740046 189118 layer_factory.hpp:77] Creating layer res3b5
I1129 23:54:11.740056 189118 net.cpp:84] Creating Layer res3b5
I1129 23:54:11.740061 189118 net.cpp:406] res3b5 <- res3b4_res3b4_relu_0_split_1
I1129 23:54:11.740063 189118 net.cpp:406] res3b5 <- res3b5_branch2c
I1129 23:54:11.740068 189118 net.cpp:380] res3b5 -> res3b5
I1129 23:54:11.740087 189118 net.cpp:122] Setting up res3b5
I1129 23:54:11.740092 189118 net.cpp:129] Top shape: 10 512 30 30 (4608000)
I1129 23:54:11.740094 189118 net.cpp:137] Memory required for data: 2283264040
I1129 23:54:11.740098 189118 layer_factory.hpp:77] Creating layer res3b5_relu
I1129 23:54:11.740103 189118 net.cpp:84] Creating Layer res3b5_relu
I1129 23:54:11.740105 189118 net.cpp:406] res3b5_relu <- res3b5
I1129 23:54:11.740110 189118 net.cpp:367] res3b5_relu -> res3b5 (in-place)
I1129 23:54:11.740115 189118 net.cpp:122] Setting up res3b5_relu
I1129 23:54:11.740119 189118 net.cpp:129] Top shape: 10 512 30 30 (4608000)
I1129 23:54:11.740121 189118 net.cpp:137] Memory required for data: 2301696040
I1129 23:54:11.740124 189118 layer_factory.hpp:77] Creating layer res3b5_res3b5_relu_0_split
I1129 23:54:11.740128 189118 net.cpp:84] Creating Layer res3b5_res3b5_relu_0_split
I1129 23:54:11.740131 189118 net.cpp:406] res3b5_res3b5_relu_0_split <- res3b5
I1129 23:54:11.740135 189118 net.cpp:380] res3b5_res3b5_relu_0_split -> res3b5_res3b5_relu_0_split_0
I1129 23:54:11.740140 189118 net.cpp:380] res3b5_res3b5_relu_0_split -> res3b5_res3b5_relu_0_split_1
I1129 23:54:11.740167 189118 net.cpp:122] Setting up res3b5_res3b5_relu_0_split
I1129 23:54:11.740172 189118 net.cpp:129] Top shape: 10 512 30 30 (4608000)
I1129 23:54:11.740176 189118 net.cpp:129] Top shape: 10 512 30 30 (4608000)
I1129 23:54:11.740178 189118 net.cpp:137] Memory required for data: 2338560040
I1129 23:54:11.740185 189118 layer_factory.hpp:77] Creating layer res3b6_branch2a
I1129 23:54:11.740196 189118 net.cpp:84] Creating Layer res3b6_branch2a
I1129 23:54:11.740200 189118 net.cpp:406] res3b6_branch2a <- res3b5_res3b5_relu_0_split_0
I1129 23:54:11.740206 189118 net.cpp:380] res3b6_branch2a -> res3b6_branch2a
I1129 23:54:11.740834 189118 net.cpp:122] Setting up res3b6_branch2a
I1129 23:54:11.740841 189118 net.cpp:129] Top shape: 10 128 30 30 (1152000)
I1129 23:54:11.740844 189118 net.cpp:137] Memory required for data: 2343168040
I1129 23:54:11.740847 189118 layer_factory.hpp:77] Creating layer bn3b6_branch2a
I1129 23:54:11.740860 189118 net.cpp:84] Creating Layer bn3b6_branch2a
I1129 23:54:11.740864 189118 net.cpp:406] bn3b6_branch2a <- res3b6_branch2a
I1129 23:54:11.740867 189118 net.cpp:367] bn3b6_branch2a -> res3b6_branch2a (in-place)
I1129 23:54:11.740998 189118 net.cpp:122] Setting up bn3b6_branch2a
I1129 23:54:11.741004 189118 net.cpp:129] Top shape: 10 128 30 30 (1152000)
I1129 23:54:11.741006 189118 net.cpp:137] Memory required for data: 2347776040
I1129 23:54:11.741013 189118 layer_factory.hpp:77] Creating layer scale3b6_branch2a
I1129 23:54:11.741017 189118 net.cpp:84] Creating Layer scale3b6_branch2a
I1129 23:54:11.741020 189118 net.cpp:406] scale3b6_branch2a <- res3b6_branch2a
I1129 23:54:11.741026 189118 net.cpp:367] scale3b6_branch2a -> res3b6_branch2a (in-place)
I1129 23:54:11.741053 189118 layer_factory.hpp:77] Creating layer scale3b6_branch2a
I1129 23:54:11.741129 189118 net.cpp:122] Setting up scale3b6_branch2a
I1129 23:54:11.741135 189118 net.cpp:129] Top shape: 10 128 30 30 (1152000)
I1129 23:54:11.741138 189118 net.cpp:137] Memory required for data: 2352384040
I1129 23:54:11.741143 189118 layer_factory.hpp:77] Creating layer res3b6_branch2a_relu
I1129 23:54:11.741148 189118 net.cpp:84] Creating Layer res3b6_branch2a_relu
I1129 23:54:11.741153 189118 net.cpp:406] res3b6_branch2a_relu <- res3b6_branch2a
I1129 23:54:11.741156 189118 net.cpp:367] res3b6_branch2a_relu -> res3b6_branch2a (in-place)
I1129 23:54:11.741160 189118 net.cpp:122] Setting up res3b6_branch2a_relu
I1129 23:54:11.741163 189118 net.cpp:129] Top shape: 10 128 30 30 (1152000)
I1129 23:54:11.741166 189118 net.cpp:137] Memory required for data: 2356992040
I1129 23:54:11.741169 189118 layer_factory.hpp:77] Creating layer res3b6_branch2b
I1129 23:54:11.741176 189118 net.cpp:84] Creating Layer res3b6_branch2b
I1129 23:54:11.741179 189118 net.cpp:406] res3b6_branch2b <- res3b6_branch2a
I1129 23:54:11.741184 189118 net.cpp:380] res3b6_branch2b -> res3b6_branch2b
I1129 23:54:11.742974 189118 net.cpp:122] Setting up res3b6_branch2b
I1129 23:54:11.742985 189118 net.cpp:129] Top shape: 10 128 30 30 (1152000)
I1129 23:54:11.742986 189118 net.cpp:137] Memory required for data: 2361600040
I1129 23:54:11.742996 189118 layer_factory.hpp:77] Creating layer bn3b6_branch2b
I1129 23:54:11.743002 189118 net.cpp:84] Creating Layer bn3b6_branch2b
I1129 23:54:11.743005 189118 net.cpp:406] bn3b6_branch2b <- res3b6_branch2b
I1129 23:54:11.743011 189118 net.cpp:367] bn3b6_branch2b -> res3b6_branch2b (in-place)
I1129 23:54:11.743149 189118 net.cpp:122] Setting up bn3b6_branch2b
I1129 23:54:11.743154 189118 net.cpp:129] Top shape: 10 128 30 30 (1152000)
I1129 23:54:11.743156 189118 net.cpp:137] Memory required for data: 2366208040
I1129 23:54:11.743161 189118 layer_factory.hpp:77] Creating layer scale3b6_branch2b
I1129 23:54:11.743167 189118 net.cpp:84] Creating Layer scale3b6_branch2b
I1129 23:54:11.743170 189118 net.cpp:406] scale3b6_branch2b <- res3b6_branch2b
I1129 23:54:11.743175 189118 net.cpp:367] scale3b6_branch2b -> res3b6_branch2b (in-place)
I1129 23:54:11.743206 189118 layer_factory.hpp:77] Creating layer scale3b6_branch2b
I1129 23:54:11.743288 189118 net.cpp:122] Setting up scale3b6_branch2b
I1129 23:54:11.743295 189118 net.cpp:129] Top shape: 10 128 30 30 (1152000)
I1129 23:54:11.743297 189118 net.cpp:137] Memory required for data: 2370816040
I1129 23:54:11.743302 189118 layer_factory.hpp:77] Creating layer res3b6_branch2b_relu
I1129 23:54:11.743310 189118 net.cpp:84] Creating Layer res3b6_branch2b_relu
I1129 23:54:11.743319 189118 net.cpp:406] res3b6_branch2b_relu <- res3b6_branch2b
I1129 23:54:11.743324 189118 net.cpp:367] res3b6_branch2b_relu -> res3b6_branch2b (in-place)
I1129 23:54:11.743335 189118 net.cpp:122] Setting up res3b6_branch2b_relu
I1129 23:54:11.743338 189118 net.cpp:129] Top shape: 10 128 30 30 (1152000)
I1129 23:54:11.743341 189118 net.cpp:137] Memory required for data: 2375424040
I1129 23:54:11.743345 189118 layer_factory.hpp:77] Creating layer res3b6_branch2c
I1129 23:54:11.743350 189118 net.cpp:84] Creating Layer res3b6_branch2c
I1129 23:54:11.743353 189118 net.cpp:406] res3b6_branch2c <- res3b6_branch2b
I1129 23:54:11.743360 189118 net.cpp:380] res3b6_branch2c -> res3b6_branch2c
I1129 23:54:11.743995 189118 net.cpp:122] Setting up res3b6_branch2c
I1129 23:54:11.744002 189118 net.cpp:129] Top shape: 10 512 30 30 (4608000)
I1129 23:54:11.744005 189118 net.cpp:137] Memory required for data: 2393856040
I1129 23:54:11.744014 189118 layer_factory.hpp:77] Creating layer bn3b6_branch2c
I1129 23:54:11.744019 189118 net.cpp:84] Creating Layer bn3b6_branch2c
I1129 23:54:11.744022 189118 net.cpp:406] bn3b6_branch2c <- res3b6_branch2c
I1129 23:54:11.744029 189118 net.cpp:367] bn3b6_branch2c -> res3b6_branch2c (in-place)
I1129 23:54:11.744163 189118 net.cpp:122] Setting up bn3b6_branch2c
I1129 23:54:11.744168 189118 net.cpp:129] Top shape: 10 512 30 30 (4608000)
I1129 23:54:11.744170 189118 net.cpp:137] Memory required for data: 2412288040
I1129 23:54:11.744176 189118 layer_factory.hpp:77] Creating layer scale3b6_branch2c
I1129 23:54:11.744181 189118 net.cpp:84] Creating Layer scale3b6_branch2c
I1129 23:54:11.744184 189118 net.cpp:406] scale3b6_branch2c <- res3b6_branch2c
I1129 23:54:11.744189 189118 net.cpp:367] scale3b6_branch2c -> res3b6_branch2c (in-place)
I1129 23:54:11.744220 189118 layer_factory.hpp:77] Creating layer scale3b6_branch2c
I1129 23:54:11.744297 189118 net.cpp:122] Setting up scale3b6_branch2c
I1129 23:54:11.744303 189118 net.cpp:129] Top shape: 10 512 30 30 (4608000)
I1129 23:54:11.744307 189118 net.cpp:137] Memory required for data: 2430720040
I1129 23:54:11.744312 189118 layer_factory.hpp:77] Creating layer res3b6
I1129 23:54:11.744315 189118 net.cpp:84] Creating Layer res3b6
I1129 23:54:11.744318 189118 net.cpp:406] res3b6 <- res3b5_res3b5_relu_0_split_1
I1129 23:54:11.744323 189118 net.cpp:406] res3b6 <- res3b6_branch2c
I1129 23:54:11.744328 189118 net.cpp:380] res3b6 -> res3b6
I1129 23:54:11.744345 189118 net.cpp:122] Setting up res3b6
I1129 23:54:11.744350 189118 net.cpp:129] Top shape: 10 512 30 30 (4608000)
I1129 23:54:11.744352 189118 net.cpp:137] Memory required for data: 2449152040
I1129 23:54:11.744355 189118 layer_factory.hpp:77] Creating layer res3b6_relu
I1129 23:54:11.744361 189118 net.cpp:84] Creating Layer res3b6_relu
I1129 23:54:11.744364 189118 net.cpp:406] res3b6_relu <- res3b6
I1129 23:54:11.744369 189118 net.cpp:367] res3b6_relu -> res3b6 (in-place)
I1129 23:54:11.744374 189118 net.cpp:122] Setting up res3b6_relu
I1129 23:54:11.744377 189118 net.cpp:129] Top shape: 10 512 30 30 (4608000)
I1129 23:54:11.744379 189118 net.cpp:137] Memory required for data: 2467584040
I1129 23:54:11.744386 189118 layer_factory.hpp:77] Creating layer res3b6_res3b6_relu_0_split
I1129 23:54:11.744393 189118 net.cpp:84] Creating Layer res3b6_res3b6_relu_0_split
I1129 23:54:11.744396 189118 net.cpp:406] res3b6_res3b6_relu_0_split <- res3b6
I1129 23:54:11.744400 189118 net.cpp:380] res3b6_res3b6_relu_0_split -> res3b6_res3b6_relu_0_split_0
I1129 23:54:11.744405 189118 net.cpp:380] res3b6_res3b6_relu_0_split -> res3b6_res3b6_relu_0_split_1
I1129 23:54:11.744431 189118 net.cpp:122] Setting up res3b6_res3b6_relu_0_split
I1129 23:54:11.744436 189118 net.cpp:129] Top shape: 10 512 30 30 (4608000)
I1129 23:54:11.744439 189118 net.cpp:129] Top shape: 10 512 30 30 (4608000)
I1129 23:54:11.744442 189118 net.cpp:137] Memory required for data: 2504448040
I1129 23:54:11.744446 189118 layer_factory.hpp:77] Creating layer res3b7_branch2a
I1129 23:54:11.744457 189118 net.cpp:84] Creating Layer res3b7_branch2a
I1129 23:54:11.744467 189118 net.cpp:406] res3b7_branch2a <- res3b6_res3b6_relu_0_split_0
I1129 23:54:11.744472 189118 net.cpp:380] res3b7_branch2a -> res3b7_branch2a
I1129 23:54:11.745613 189118 net.cpp:122] Setting up res3b7_branch2a
I1129 23:54:11.745623 189118 net.cpp:129] Top shape: 10 128 30 30 (1152000)
I1129 23:54:11.745626 189118 net.cpp:137] Memory required for data: 2509056040
I1129 23:54:11.745630 189118 layer_factory.hpp:77] Creating layer bn3b7_branch2a
I1129 23:54:11.745636 189118 net.cpp:84] Creating Layer bn3b7_branch2a
I1129 23:54:11.745640 189118 net.cpp:406] bn3b7_branch2a <- res3b7_branch2a
I1129 23:54:11.745647 189118 net.cpp:367] bn3b7_branch2a -> res3b7_branch2a (in-place)
I1129 23:54:11.745784 189118 net.cpp:122] Setting up bn3b7_branch2a
I1129 23:54:11.745790 189118 net.cpp:129] Top shape: 10 128 30 30 (1152000)
I1129 23:54:11.745792 189118 net.cpp:137] Memory required for data: 2513664040
I1129 23:54:11.745797 189118 layer_factory.hpp:77] Creating layer scale3b7_branch2a
I1129 23:54:11.745802 189118 net.cpp:84] Creating Layer scale3b7_branch2a
I1129 23:54:11.745805 189118 net.cpp:406] scale3b7_branch2a <- res3b7_branch2a
I1129 23:54:11.745810 189118 net.cpp:367] scale3b7_branch2a -> res3b7_branch2a (in-place)
I1129 23:54:11.745839 189118 layer_factory.hpp:77] Creating layer scale3b7_branch2a
I1129 23:54:11.745920 189118 net.cpp:122] Setting up scale3b7_branch2a
I1129 23:54:11.745928 189118 net.cpp:129] Top shape: 10 128 30 30 (1152000)
I1129 23:54:11.745929 189118 net.cpp:137] Memory required for data: 2518272040
I1129 23:54:11.745939 189118 layer_factory.hpp:77] Creating layer res3b7_branch2a_relu
I1129 23:54:11.745945 189118 net.cpp:84] Creating Layer res3b7_branch2a_relu
I1129 23:54:11.745949 189118 net.cpp:406] res3b7_branch2a_relu <- res3b7_branch2a
I1129 23:54:11.745954 189118 net.cpp:367] res3b7_branch2a_relu -> res3b7_branch2a (in-place)
I1129 23:54:11.745957 189118 net.cpp:122] Setting up res3b7_branch2a_relu
I1129 23:54:11.745961 189118 net.cpp:129] Top shape: 10 128 30 30 (1152000)
I1129 23:54:11.745965 189118 net.cpp:137] Memory required for data: 2522880040
I1129 23:54:11.745967 189118 layer_factory.hpp:77] Creating layer res3b7_branch2b
I1129 23:54:11.745975 189118 net.cpp:84] Creating Layer res3b7_branch2b
I1129 23:54:11.745977 189118 net.cpp:406] res3b7_branch2b <- res3b7_branch2a
I1129 23:54:11.745982 189118 net.cpp:380] res3b7_branch2b -> res3b7_branch2b
I1129 23:54:11.747743 189118 net.cpp:122] Setting up res3b7_branch2b
I1129 23:54:11.747753 189118 net.cpp:129] Top shape: 10 128 30 30 (1152000)
I1129 23:54:11.747756 189118 net.cpp:137] Memory required for data: 2527488040
I1129 23:54:11.747761 189118 layer_factory.hpp:77] Creating layer bn3b7_branch2b
I1129 23:54:11.747766 189118 net.cpp:84] Creating Layer bn3b7_branch2b
I1129 23:54:11.747769 189118 net.cpp:406] bn3b7_branch2b <- res3b7_branch2b
I1129 23:54:11.747776 189118 net.cpp:367] bn3b7_branch2b -> res3b7_branch2b (in-place)
I1129 23:54:11.747910 189118 net.cpp:122] Setting up bn3b7_branch2b
I1129 23:54:11.747916 189118 net.cpp:129] Top shape: 10 128 30 30 (1152000)
I1129 23:54:11.747918 189118 net.cpp:137] Memory required for data: 2532096040
I1129 23:54:11.747925 189118 layer_factory.hpp:77] Creating layer scale3b7_branch2b
I1129 23:54:11.747930 189118 net.cpp:84] Creating Layer scale3b7_branch2b
I1129 23:54:11.747932 189118 net.cpp:406] scale3b7_branch2b <- res3b7_branch2b
I1129 23:54:11.747942 189118 net.cpp:367] scale3b7_branch2b -> res3b7_branch2b (in-place)
I1129 23:54:11.747977 189118 layer_factory.hpp:77] Creating layer scale3b7_branch2b
I1129 23:54:11.748064 189118 net.cpp:122] Setting up scale3b7_branch2b
I1129 23:54:11.748070 189118 net.cpp:129] Top shape: 10 128 30 30 (1152000)
I1129 23:54:11.748072 189118 net.cpp:137] Memory required for data: 2536704040
I1129 23:54:11.748081 189118 layer_factory.hpp:77] Creating layer res3b7_branch2b_relu
I1129 23:54:11.748086 189118 net.cpp:84] Creating Layer res3b7_branch2b_relu
I1129 23:54:11.748092 189118 net.cpp:406] res3b7_branch2b_relu <- res3b7_branch2b
I1129 23:54:11.748106 189118 net.cpp:367] res3b7_branch2b_relu -> res3b7_branch2b (in-place)
I1129 23:54:11.748111 189118 net.cpp:122] Setting up res3b7_branch2b_relu
I1129 23:54:11.748116 189118 net.cpp:129] Top shape: 10 128 30 30 (1152000)
I1129 23:54:11.748117 189118 net.cpp:137] Memory required for data: 2541312040
I1129 23:54:11.748121 189118 layer_factory.hpp:77] Creating layer res3b7_branch2c
I1129 23:54:11.748126 189118 net.cpp:84] Creating Layer res3b7_branch2c
I1129 23:54:11.748129 189118 net.cpp:406] res3b7_branch2c <- res3b7_branch2b
I1129 23:54:11.748136 189118 net.cpp:380] res3b7_branch2c -> res3b7_branch2c
I1129 23:54:11.748769 189118 net.cpp:122] Setting up res3b7_branch2c
I1129 23:54:11.748776 189118 net.cpp:129] Top shape: 10 512 30 30 (4608000)
I1129 23:54:11.748780 189118 net.cpp:137] Memory required for data: 2559744040
I1129 23:54:11.748783 189118 layer_factory.hpp:77] Creating layer bn3b7_branch2c
I1129 23:54:11.748790 189118 net.cpp:84] Creating Layer bn3b7_branch2c
I1129 23:54:11.748792 189118 net.cpp:406] bn3b7_branch2c <- res3b7_branch2c
I1129 23:54:11.748797 189118 net.cpp:367] bn3b7_branch2c -> res3b7_branch2c (in-place)
I1129 23:54:11.748931 189118 net.cpp:122] Setting up bn3b7_branch2c
I1129 23:54:11.748936 189118 net.cpp:129] Top shape: 10 512 30 30 (4608000)
I1129 23:54:11.748939 189118 net.cpp:137] Memory required for data: 2578176040
I1129 23:54:11.748945 189118 layer_factory.hpp:77] Creating layer scale3b7_branch2c
I1129 23:54:11.748950 189118 net.cpp:84] Creating Layer scale3b7_branch2c
I1129 23:54:11.748953 189118 net.cpp:406] scale3b7_branch2c <- res3b7_branch2c
I1129 23:54:11.748958 189118 net.cpp:367] scale3b7_branch2c -> res3b7_branch2c (in-place)
I1129 23:54:11.748988 189118 layer_factory.hpp:77] Creating layer scale3b7_branch2c
I1129 23:54:11.749068 189118 net.cpp:122] Setting up scale3b7_branch2c
I1129 23:54:11.749074 189118 net.cpp:129] Top shape: 10 512 30 30 (4608000)
I1129 23:54:11.749078 189118 net.cpp:137] Memory required for data: 2596608040
I1129 23:54:11.749088 189118 layer_factory.hpp:77] Creating layer res3b7
I1129 23:54:11.749094 189118 net.cpp:84] Creating Layer res3b7
I1129 23:54:11.749097 189118 net.cpp:406] res3b7 <- res3b6_res3b6_relu_0_split_1
I1129 23:54:11.749100 189118 net.cpp:406] res3b7 <- res3b7_branch2c
I1129 23:54:11.749105 189118 net.cpp:380] res3b7 -> res3b7
I1129 23:54:11.749125 189118 net.cpp:122] Setting up res3b7
I1129 23:54:11.749130 189118 net.cpp:129] Top shape: 10 512 30 30 (4608000)
I1129 23:54:11.749132 189118 net.cpp:137] Memory required for data: 2615040040
I1129 23:54:11.749135 189118 layer_factory.hpp:77] Creating layer res3b7_relu
I1129 23:54:11.749140 189118 net.cpp:84] Creating Layer res3b7_relu
I1129 23:54:11.749142 189118 net.cpp:406] res3b7_relu <- res3b7
I1129 23:54:11.749147 189118 net.cpp:367] res3b7_relu -> res3b7 (in-place)
I1129 23:54:11.749152 189118 net.cpp:122] Setting up res3b7_relu
I1129 23:54:11.749156 189118 net.cpp:129] Top shape: 10 512 30 30 (4608000)
I1129 23:54:11.749158 189118 net.cpp:137] Memory required for data: 2633472040
I1129 23:54:11.749161 189118 layer_factory.hpp:77] Creating layer res3b7_res3b7_relu_0_split
I1129 23:54:11.749166 189118 net.cpp:84] Creating Layer res3b7_res3b7_relu_0_split
I1129 23:54:11.749168 189118 net.cpp:406] res3b7_res3b7_relu_0_split <- res3b7
I1129 23:54:11.749174 189118 net.cpp:380] res3b7_res3b7_relu_0_split -> res3b7_res3b7_relu_0_split_0
I1129 23:54:11.749179 189118 net.cpp:380] res3b7_res3b7_relu_0_split -> res3b7_res3b7_relu_0_split_1
I1129 23:54:11.749204 189118 net.cpp:122] Setting up res3b7_res3b7_relu_0_split
I1129 23:54:11.749209 189118 net.cpp:129] Top shape: 10 512 30 30 (4608000)
I1129 23:54:11.749212 189118 net.cpp:129] Top shape: 10 512 30 30 (4608000)
I1129 23:54:11.749215 189118 net.cpp:137] Memory required for data: 2670336040
I1129 23:54:11.749218 189118 layer_factory.hpp:77] Creating layer res4a_branch1
I1129 23:54:11.749225 189118 net.cpp:84] Creating Layer res4a_branch1
I1129 23:54:11.749231 189118 net.cpp:406] res4a_branch1 <- res3b7_res3b7_relu_0_split_0
I1129 23:54:11.749243 189118 net.cpp:380] res4a_branch1 -> res4a_branch1
I1129 23:54:11.754204 189118 net.cpp:122] Setting up res4a_branch1
I1129 23:54:11.754215 189118 net.cpp:129] Top shape: 10 1024 15 15 (2304000)
I1129 23:54:11.754217 189118 net.cpp:137] Memory required for data: 2679552040
I1129 23:54:11.754227 189118 layer_factory.hpp:77] Creating layer bn4a_branch1
I1129 23:54:11.754235 189118 net.cpp:84] Creating Layer bn4a_branch1
I1129 23:54:11.754240 189118 net.cpp:406] bn4a_branch1 <- res4a_branch1
I1129 23:54:11.754243 189118 net.cpp:367] bn4a_branch1 -> res4a_branch1 (in-place)
I1129 23:54:11.754391 189118 net.cpp:122] Setting up bn4a_branch1
I1129 23:54:11.754397 189118 net.cpp:129] Top shape: 10 1024 15 15 (2304000)
I1129 23:54:11.754400 189118 net.cpp:137] Memory required for data: 2688768040
I1129 23:54:11.754406 189118 layer_factory.hpp:77] Creating layer scale4a_branch1
I1129 23:54:11.754411 189118 net.cpp:84] Creating Layer scale4a_branch1
I1129 23:54:11.754415 189118 net.cpp:406] scale4a_branch1 <- res4a_branch1
I1129 23:54:11.754420 189118 net.cpp:367] scale4a_branch1 -> res4a_branch1 (in-place)
I1129 23:54:11.754447 189118 layer_factory.hpp:77] Creating layer scale4a_branch1
I1129 23:54:11.754535 189118 net.cpp:122] Setting up scale4a_branch1
I1129 23:54:11.754542 189118 net.cpp:129] Top shape: 10 1024 15 15 (2304000)
I1129 23:54:11.754545 189118 net.cpp:137] Memory required for data: 2697984040
I1129 23:54:11.754550 189118 layer_factory.hpp:77] Creating layer res4a_branch2a
I1129 23:54:11.754557 189118 net.cpp:84] Creating Layer res4a_branch2a
I1129 23:54:11.754561 189118 net.cpp:406] res4a_branch2a <- res3b7_res3b7_relu_0_split_1
I1129 23:54:11.754566 189118 net.cpp:380] res4a_branch2a -> res4a_branch2a
I1129 23:54:11.755775 189118 net.cpp:122] Setting up res4a_branch2a
I1129 23:54:11.755784 189118 net.cpp:129] Top shape: 10 256 15 15 (576000)
I1129 23:54:11.755786 189118 net.cpp:137] Memory required for data: 2700288040
I1129 23:54:11.755790 189118 layer_factory.hpp:77] Creating layer bn4a_branch2a
I1129 23:54:11.755796 189118 net.cpp:84] Creating Layer bn4a_branch2a
I1129 23:54:11.755800 189118 net.cpp:406] bn4a_branch2a <- res4a_branch2a
I1129 23:54:11.755805 189118 net.cpp:367] bn4a_branch2a -> res4a_branch2a (in-place)
I1129 23:54:11.755954 189118 net.cpp:122] Setting up bn4a_branch2a
I1129 23:54:11.755960 189118 net.cpp:129] Top shape: 10 256 15 15 (576000)
I1129 23:54:11.755964 189118 net.cpp:137] Memory required for data: 2702592040
I1129 23:54:11.755975 189118 layer_factory.hpp:77] Creating layer scale4a_branch2a
I1129 23:54:11.755980 189118 net.cpp:84] Creating Layer scale4a_branch2a
I1129 23:54:11.755983 189118 net.cpp:406] scale4a_branch2a <- res4a_branch2a
I1129 23:54:11.755988 189118 net.cpp:367] scale4a_branch2a -> res4a_branch2a (in-place)
I1129 23:54:11.756019 189118 layer_factory.hpp:77] Creating layer scale4a_branch2a
I1129 23:54:11.756100 189118 net.cpp:122] Setting up scale4a_branch2a
I1129 23:54:11.756106 189118 net.cpp:129] Top shape: 10 256 15 15 (576000)
I1129 23:54:11.756109 189118 net.cpp:137] Memory required for data: 2704896040
I1129 23:54:11.756114 189118 layer_factory.hpp:77] Creating layer res4a_branch2a_relu
I1129 23:54:11.756120 189118 net.cpp:84] Creating Layer res4a_branch2a_relu
I1129 23:54:11.756124 189118 net.cpp:406] res4a_branch2a_relu <- res4a_branch2a
I1129 23:54:11.756127 189118 net.cpp:367] res4a_branch2a_relu -> res4a_branch2a (in-place)
I1129 23:54:11.756134 189118 net.cpp:122] Setting up res4a_branch2a_relu
I1129 23:54:11.756137 189118 net.cpp:129] Top shape: 10 256 15 15 (576000)
I1129 23:54:11.756139 189118 net.cpp:137] Memory required for data: 2707200040
I1129 23:54:11.756142 189118 layer_factory.hpp:77] Creating layer res4a_branch2b
I1129 23:54:11.756150 189118 net.cpp:84] Creating Layer res4a_branch2b
I1129 23:54:11.756153 189118 net.cpp:406] res4a_branch2b <- res4a_branch2a
I1129 23:54:11.756163 189118 net.cpp:380] res4a_branch2b -> res4a_branch2b
I1129 23:54:11.761720 189118 net.cpp:122] Setting up res4a_branch2b
I1129 23:54:11.761737 189118 net.cpp:129] Top shape: 10 256 15 15 (576000)
I1129 23:54:11.761740 189118 net.cpp:137] Memory required for data: 2709504040
I1129 23:54:11.761745 189118 layer_factory.hpp:77] Creating layer bn4a_branch2b
I1129 23:54:11.761750 189118 net.cpp:84] Creating Layer bn4a_branch2b
I1129 23:54:11.761754 189118 net.cpp:406] bn4a_branch2b <- res4a_branch2b
I1129 23:54:11.761760 189118 net.cpp:367] bn4a_branch2b -> res4a_branch2b (in-place)
I1129 23:54:11.761898 189118 net.cpp:122] Setting up bn4a_branch2b
I1129 23:54:11.761904 189118 net.cpp:129] Top shape: 10 256 15 15 (576000)
I1129 23:54:11.761906 189118 net.cpp:137] Memory required for data: 2711808040
I1129 23:54:11.761917 189118 layer_factory.hpp:77] Creating layer scale4a_branch2b
I1129 23:54:11.761924 189118 net.cpp:84] Creating Layer scale4a_branch2b
I1129 23:54:11.761926 189118 net.cpp:406] scale4a_branch2b <- res4a_branch2b
I1129 23:54:11.761931 189118 net.cpp:367] scale4a_branch2b -> res4a_branch2b (in-place)
I1129 23:54:11.761965 189118 layer_factory.hpp:77] Creating layer scale4a_branch2b
I1129 23:54:11.762044 189118 net.cpp:122] Setting up scale4a_branch2b
I1129 23:54:11.762050 189118 net.cpp:129] Top shape: 10 256 15 15 (576000)
I1129 23:54:11.762054 189118 net.cpp:137] Memory required for data: 2714112040
I1129 23:54:11.762058 189118 layer_factory.hpp:77] Creating layer res4a_branch2b_relu
I1129 23:54:11.762064 189118 net.cpp:84] Creating Layer res4a_branch2b_relu
I1129 23:54:11.762068 189118 net.cpp:406] res4a_branch2b_relu <- res4a_branch2b
I1129 23:54:11.762073 189118 net.cpp:367] res4a_branch2b_relu -> res4a_branch2b (in-place)
I1129 23:54:11.762079 189118 net.cpp:122] Setting up res4a_branch2b_relu
I1129 23:54:11.762082 189118 net.cpp:129] Top shape: 10 256 15 15 (576000)
I1129 23:54:11.762084 189118 net.cpp:137] Memory required for data: 2716416040
I1129 23:54:11.762089 189118 layer_factory.hpp:77] Creating layer res4a_branch2c
I1129 23:54:11.762094 189118 net.cpp:84] Creating Layer res4a_branch2c
I1129 23:54:11.762097 189118 net.cpp:406] res4a_branch2c <- res4a_branch2b
I1129 23:54:11.762105 189118 net.cpp:380] res4a_branch2c -> res4a_branch2c
I1129 23:54:11.764783 189118 net.cpp:122] Setting up res4a_branch2c
I1129 23:54:11.764794 189118 net.cpp:129] Top shape: 10 1024 15 15 (2304000)
I1129 23:54:11.764797 189118 net.cpp:137] Memory required for data: 2725632040
I1129 23:54:11.764801 189118 layer_factory.hpp:77] Creating layer bn4a_branch2c
I1129 23:54:11.764806 189118 net.cpp:84] Creating Layer bn4a_branch2c
I1129 23:54:11.764811 189118 net.cpp:406] bn4a_branch2c <- res4a_branch2c
I1129 23:54:11.764814 189118 net.cpp:367] bn4a_branch2c -> res4a_branch2c (in-place)
I1129 23:54:11.764956 189118 net.cpp:122] Setting up bn4a_branch2c
I1129 23:54:11.764962 189118 net.cpp:129] Top shape: 10 1024 15 15 (2304000)
I1129 23:54:11.764966 189118 net.cpp:137] Memory required for data: 2734848040
I1129 23:54:11.764976 189118 layer_factory.hpp:77] Creating layer scale4a_branch2c
I1129 23:54:11.764984 189118 net.cpp:84] Creating Layer scale4a_branch2c
I1129 23:54:11.764988 189118 net.cpp:406] scale4a_branch2c <- res4a_branch2c
I1129 23:54:11.764992 189118 net.cpp:367] scale4a_branch2c -> res4a_branch2c (in-place)
I1129 23:54:11.765022 189118 layer_factory.hpp:77] Creating layer scale4a_branch2c
I1129 23:54:11.765106 189118 net.cpp:122] Setting up scale4a_branch2c
I1129 23:54:11.765113 189118 net.cpp:129] Top shape: 10 1024 15 15 (2304000)
I1129 23:54:11.765115 189118 net.cpp:137] Memory required for data: 2744064040
I1129 23:54:11.765120 189118 layer_factory.hpp:77] Creating layer res4a
I1129 23:54:11.765125 189118 net.cpp:84] Creating Layer res4a
I1129 23:54:11.765128 189118 net.cpp:406] res4a <- res4a_branch1
I1129 23:54:11.765132 189118 net.cpp:406] res4a <- res4a_branch2c
I1129 23:54:11.765137 189118 net.cpp:380] res4a -> res4a
I1129 23:54:11.765156 189118 net.cpp:122] Setting up res4a
I1129 23:54:11.765161 189118 net.cpp:129] Top shape: 10 1024 15 15 (2304000)
I1129 23:54:11.765168 189118 net.cpp:137] Memory required for data: 2753280040
I1129 23:54:11.765177 189118 layer_factory.hpp:77] Creating layer res4a_relu
I1129 23:54:11.765180 189118 net.cpp:84] Creating Layer res4a_relu
I1129 23:54:11.765184 189118 net.cpp:406] res4a_relu <- res4a
I1129 23:54:11.765188 189118 net.cpp:367] res4a_relu -> res4a (in-place)
I1129 23:54:11.765192 189118 net.cpp:122] Setting up res4a_relu
I1129 23:54:11.765197 189118 net.cpp:129] Top shape: 10 1024 15 15 (2304000)
I1129 23:54:11.765199 189118 net.cpp:137] Memory required for data: 2762496040
I1129 23:54:11.765202 189118 layer_factory.hpp:77] Creating layer res4a_res4a_relu_0_split
I1129 23:54:11.765210 189118 net.cpp:84] Creating Layer res4a_res4a_relu_0_split
I1129 23:54:11.765214 189118 net.cpp:406] res4a_res4a_relu_0_split <- res4a
I1129 23:54:11.765218 189118 net.cpp:380] res4a_res4a_relu_0_split -> res4a_res4a_relu_0_split_0
I1129 23:54:11.765223 189118 net.cpp:380] res4a_res4a_relu_0_split -> res4a_res4a_relu_0_split_1
I1129 23:54:11.765250 189118 net.cpp:122] Setting up res4a_res4a_relu_0_split
I1129 23:54:11.765255 189118 net.cpp:129] Top shape: 10 1024 15 15 (2304000)
I1129 23:54:11.765259 189118 net.cpp:129] Top shape: 10 1024 15 15 (2304000)
I1129 23:54:11.765262 189118 net.cpp:137] Memory required for data: 2780928040
I1129 23:54:11.765270 189118 layer_factory.hpp:77] Creating layer res4b1_branch2a
I1129 23:54:11.765276 189118 net.cpp:84] Creating Layer res4b1_branch2a
I1129 23:54:11.765280 189118 net.cpp:406] res4b1_branch2a <- res4a_res4a_relu_0_split_0
I1129 23:54:11.765286 189118 net.cpp:380] res4b1_branch2a -> res4b1_branch2a
I1129 23:54:11.767894 189118 net.cpp:122] Setting up res4b1_branch2a
I1129 23:54:11.767904 189118 net.cpp:129] Top shape: 10 256 15 15 (576000)
I1129 23:54:11.767907 189118 net.cpp:137] Memory required for data: 2783232040
I1129 23:54:11.767912 189118 layer_factory.hpp:77] Creating layer bn4b1_branch2a
I1129 23:54:11.767918 189118 net.cpp:84] Creating Layer bn4b1_branch2a
I1129 23:54:11.767922 189118 net.cpp:406] bn4b1_branch2a <- res4b1_branch2a
I1129 23:54:11.767927 189118 net.cpp:367] bn4b1_branch2a -> res4b1_branch2a (in-place)
I1129 23:54:11.768064 189118 net.cpp:122] Setting up bn4b1_branch2a
I1129 23:54:11.768070 189118 net.cpp:129] Top shape: 10 256 15 15 (576000)
I1129 23:54:11.768072 189118 net.cpp:137] Memory required for data: 2785536040
I1129 23:54:11.768079 189118 layer_factory.hpp:77] Creating layer scale4b1_branch2a
I1129 23:54:11.768085 189118 net.cpp:84] Creating Layer scale4b1_branch2a
I1129 23:54:11.768088 189118 net.cpp:406] scale4b1_branch2a <- res4b1_branch2a
I1129 23:54:11.768092 189118 net.cpp:367] scale4b1_branch2a -> res4b1_branch2a (in-place)
I1129 23:54:11.768123 189118 layer_factory.hpp:77] Creating layer scale4b1_branch2a
I1129 23:54:11.768204 189118 net.cpp:122] Setting up scale4b1_branch2a
I1129 23:54:11.768210 189118 net.cpp:129] Top shape: 10 256 15 15 (576000)
I1129 23:54:11.768213 189118 net.cpp:137] Memory required for data: 2787840040
I1129 23:54:11.768218 189118 layer_factory.hpp:77] Creating layer res4b1_branch2a_relu
I1129 23:54:11.768223 189118 net.cpp:84] Creating Layer res4b1_branch2a_relu
I1129 23:54:11.768225 189118 net.cpp:406] res4b1_branch2a_relu <- res4b1_branch2a
I1129 23:54:11.768230 189118 net.cpp:367] res4b1_branch2a_relu -> res4b1_branch2a (in-place)
I1129 23:54:11.768236 189118 net.cpp:122] Setting up res4b1_branch2a_relu
I1129 23:54:11.768240 189118 net.cpp:129] Top shape: 10 256 15 15 (576000)
I1129 23:54:11.768242 189118 net.cpp:137] Memory required for data: 2790144040
I1129 23:54:11.768250 189118 layer_factory.hpp:77] Creating layer res4b1_branch2b
I1129 23:54:11.768256 189118 net.cpp:84] Creating Layer res4b1_branch2b
I1129 23:54:11.768261 189118 net.cpp:406] res4b1_branch2b <- res4b1_branch2a
I1129 23:54:11.768266 189118 net.cpp:380] res4b1_branch2b -> res4b1_branch2b
I1129 23:54:11.773784 189118 net.cpp:122] Setting up res4b1_branch2b
I1129 23:54:11.773795 189118 net.cpp:129] Top shape: 10 256 15 15 (576000)
I1129 23:54:11.773798 189118 net.cpp:137] Memory required for data: 2792448040
I1129 23:54:11.773807 189118 layer_factory.hpp:77] Creating layer bn4b1_branch2b
I1129 23:54:11.773818 189118 net.cpp:84] Creating Layer bn4b1_branch2b
I1129 23:54:11.773823 189118 net.cpp:406] bn4b1_branch2b <- res4b1_branch2b
I1129 23:54:11.773828 189118 net.cpp:367] bn4b1_branch2b -> res4b1_branch2b (in-place)
I1129 23:54:11.773965 189118 net.cpp:122] Setting up bn4b1_branch2b
I1129 23:54:11.773970 189118 net.cpp:129] Top shape: 10 256 15 15 (576000)
I1129 23:54:11.773974 189118 net.cpp:137] Memory required for data: 2794752040
I1129 23:54:11.773979 189118 layer_factory.hpp:77] Creating layer scale4b1_branch2b
I1129 23:54:11.773984 189118 net.cpp:84] Creating Layer scale4b1_branch2b
I1129 23:54:11.773988 189118 net.cpp:406] scale4b1_branch2b <- res4b1_branch2b
I1129 23:54:11.773993 189118 net.cpp:367] scale4b1_branch2b -> res4b1_branch2b (in-place)
I1129 23:54:11.774022 189118 layer_factory.hpp:77] Creating layer scale4b1_branch2b
I1129 23:54:11.774106 189118 net.cpp:122] Setting up scale4b1_branch2b
I1129 23:54:11.774111 189118 net.cpp:129] Top shape: 10 256 15 15 (576000)
I1129 23:54:11.774114 189118 net.cpp:137] Memory required for data: 2797056040
I1129 23:54:11.774119 189118 layer_factory.hpp:77] Creating layer res4b1_branch2b_relu
I1129 23:54:11.774129 189118 net.cpp:84] Creating Layer res4b1_branch2b_relu
I1129 23:54:11.774133 189118 net.cpp:406] res4b1_branch2b_relu <- res4b1_branch2b
I1129 23:54:11.774137 189118 net.cpp:367] res4b1_branch2b_relu -> res4b1_branch2b (in-place)
I1129 23:54:11.774142 189118 net.cpp:122] Setting up res4b1_branch2b_relu
I1129 23:54:11.774147 189118 net.cpp:129] Top shape: 10 256 15 15 (576000)
I1129 23:54:11.774148 189118 net.cpp:137] Memory required for data: 2799360040
I1129 23:54:11.774152 189118 layer_factory.hpp:77] Creating layer res4b1_branch2c
I1129 23:54:11.774159 189118 net.cpp:84] Creating Layer res4b1_branch2c
I1129 23:54:11.774163 189118 net.cpp:406] res4b1_branch2c <- res4b1_branch2b
I1129 23:54:11.774168 189118 net.cpp:380] res4b1_branch2c -> res4b1_branch2c
I1129 23:54:11.776808 189118 net.cpp:122] Setting up res4b1_branch2c
I1129 23:54:11.776818 189118 net.cpp:129] Top shape: 10 1024 15 15 (2304000)
I1129 23:54:11.776821 189118 net.cpp:137] Memory required for data: 2808576040
I1129 23:54:11.776825 189118 layer_factory.hpp:77] Creating layer bn4b1_branch2c
I1129 23:54:11.776831 189118 net.cpp:84] Creating Layer bn4b1_branch2c
I1129 23:54:11.776834 189118 net.cpp:406] bn4b1_branch2c <- res4b1_branch2c
I1129 23:54:11.776839 189118 net.cpp:367] bn4b1_branch2c -> res4b1_branch2c (in-place)
I1129 23:54:11.776986 189118 net.cpp:122] Setting up bn4b1_branch2c
I1129 23:54:11.776993 189118 net.cpp:129] Top shape: 10 1024 15 15 (2304000)
I1129 23:54:11.776995 189118 net.cpp:137] Memory required for data: 2817792040
I1129 23:54:11.777001 189118 layer_factory.hpp:77] Creating layer scale4b1_branch2c
I1129 23:54:11.777005 189118 net.cpp:84] Creating Layer scale4b1_branch2c
I1129 23:54:11.777009 189118 net.cpp:406] scale4b1_branch2c <- res4b1_branch2c
I1129 23:54:11.777014 189118 net.cpp:367] scale4b1_branch2c -> res4b1_branch2c (in-place)
I1129 23:54:11.777045 189118 layer_factory.hpp:77] Creating layer scale4b1_branch2c
I1129 23:54:11.777130 189118 net.cpp:122] Setting up scale4b1_branch2c
I1129 23:54:11.777137 189118 net.cpp:129] Top shape: 10 1024 15 15 (2304000)
I1129 23:54:11.777139 189118 net.cpp:137] Memory required for data: 2827008040
I1129 23:54:11.777165 189118 layer_factory.hpp:77] Creating layer res4b1
I1129 23:54:11.777176 189118 net.cpp:84] Creating Layer res4b1
I1129 23:54:11.777181 189118 net.cpp:406] res4b1 <- res4a_res4a_relu_0_split_1
I1129 23:54:11.777185 189118 net.cpp:406] res4b1 <- res4b1_branch2c
I1129 23:54:11.777189 189118 net.cpp:380] res4b1 -> res4b1
I1129 23:54:11.777209 189118 net.cpp:122] Setting up res4b1
I1129 23:54:11.777215 189118 net.cpp:129] Top shape: 10 1024 15 15 (2304000)
I1129 23:54:11.777217 189118 net.cpp:137] Memory required for data: 2836224040
I1129 23:54:11.777220 189118 layer_factory.hpp:77] Creating layer res4b1_relu
I1129 23:54:11.777230 189118 net.cpp:84] Creating Layer res4b1_relu
I1129 23:54:11.777241 189118 net.cpp:406] res4b1_relu <- res4b1
I1129 23:54:11.777251 189118 net.cpp:367] res4b1_relu -> res4b1 (in-place)
I1129 23:54:11.777256 189118 net.cpp:122] Setting up res4b1_relu
I1129 23:54:11.777259 189118 net.cpp:129] Top shape: 10 1024 15 15 (2304000)
I1129 23:54:11.777262 189118 net.cpp:137] Memory required for data: 2845440040
I1129 23:54:11.777266 189118 layer_factory.hpp:77] Creating layer res4b1_res4b1_relu_0_split
I1129 23:54:11.777269 189118 net.cpp:84] Creating Layer res4b1_res4b1_relu_0_split
I1129 23:54:11.777272 189118 net.cpp:406] res4b1_res4b1_relu_0_split <- res4b1
I1129 23:54:11.777277 189118 net.cpp:380] res4b1_res4b1_relu_0_split -> res4b1_res4b1_relu_0_split_0
I1129 23:54:11.777283 189118 net.cpp:380] res4b1_res4b1_relu_0_split -> res4b1_res4b1_relu_0_split_1
I1129 23:54:11.777328 189118 net.cpp:122] Setting up res4b1_res4b1_relu_0_split
I1129 23:54:11.777333 189118 net.cpp:129] Top shape: 10 1024 15 15 (2304000)
I1129 23:54:11.777336 189118 net.cpp:129] Top shape: 10 1024 15 15 (2304000)
I1129 23:54:11.777339 189118 net.cpp:137] Memory required for data: 2863872040
I1129 23:54:11.777343 189118 layer_factory.hpp:77] Creating layer res4b2_branch2a
I1129 23:54:11.777350 189118 net.cpp:84] Creating Layer res4b2_branch2a
I1129 23:54:11.777354 189118 net.cpp:406] res4b2_branch2a <- res4b1_res4b1_relu_0_split_0
I1129 23:54:11.777364 189118 net.cpp:380] res4b2_branch2a -> res4b2_branch2a
I1129 23:54:11.780030 189118 net.cpp:122] Setting up res4b2_branch2a
I1129 23:54:11.780041 189118 net.cpp:129] Top shape: 10 256 15 15 (576000)
I1129 23:54:11.780045 189118 net.cpp:137] Memory required for data: 2866176040
I1129 23:54:11.780050 189118 layer_factory.hpp:77] Creating layer bn4b2_branch2a
I1129 23:54:11.780059 189118 net.cpp:84] Creating Layer bn4b2_branch2a
I1129 23:54:11.780063 189118 net.cpp:406] bn4b2_branch2a <- res4b2_branch2a
I1129 23:54:11.780068 189118 net.cpp:367] bn4b2_branch2a -> res4b2_branch2a (in-place)
I1129 23:54:11.780206 189118 net.cpp:122] Setting up bn4b2_branch2a
I1129 23:54:11.780213 189118 net.cpp:129] Top shape: 10 256 15 15 (576000)
I1129 23:54:11.780216 189118 net.cpp:137] Memory required for data: 2868480040
I1129 23:54:11.780223 189118 layer_factory.hpp:77] Creating layer scale4b2_branch2a
I1129 23:54:11.780227 189118 net.cpp:84] Creating Layer scale4b2_branch2a
I1129 23:54:11.780231 189118 net.cpp:406] scale4b2_branch2a <- res4b2_branch2a
I1129 23:54:11.780236 189118 net.cpp:367] scale4b2_branch2a -> res4b2_branch2a (in-place)
I1129 23:54:11.780267 189118 layer_factory.hpp:77] Creating layer scale4b2_branch2a
I1129 23:54:11.780349 189118 net.cpp:122] Setting up scale4b2_branch2a
I1129 23:54:11.780354 189118 net.cpp:129] Top shape: 10 256 15 15 (576000)
I1129 23:54:11.780356 189118 net.cpp:137] Memory required for data: 2870784040
I1129 23:54:11.780362 189118 layer_factory.hpp:77] Creating layer res4b2_branch2a_relu
I1129 23:54:11.780367 189118 net.cpp:84] Creating Layer res4b2_branch2a_relu
I1129 23:54:11.780370 189118 net.cpp:406] res4b2_branch2a_relu <- res4b2_branch2a
I1129 23:54:11.780380 189118 net.cpp:367] res4b2_branch2a_relu -> res4b2_branch2a (in-place)
I1129 23:54:11.780385 189118 net.cpp:122] Setting up res4b2_branch2a_relu
I1129 23:54:11.780388 189118 net.cpp:129] Top shape: 10 256 15 15 (576000)
I1129 23:54:11.780391 189118 net.cpp:137] Memory required for data: 2873088040
I1129 23:54:11.780395 189118 layer_factory.hpp:77] Creating layer res4b2_branch2b
I1129 23:54:11.780401 189118 net.cpp:84] Creating Layer res4b2_branch2b
I1129 23:54:11.780405 189118 net.cpp:406] res4b2_branch2b <- res4b2_branch2a
I1129 23:54:11.780409 189118 net.cpp:380] res4b2_branch2b -> res4b2_branch2b
I1129 23:54:11.785949 189118 net.cpp:122] Setting up res4b2_branch2b
I1129 23:54:11.785961 189118 net.cpp:129] Top shape: 10 256 15 15 (576000)
I1129 23:54:11.785964 189118 net.cpp:137] Memory required for data: 2875392040
I1129 23:54:11.785969 189118 layer_factory.hpp:77] Creating layer bn4b2_branch2b
I1129 23:54:11.785984 189118 net.cpp:84] Creating Layer bn4b2_branch2b
I1129 23:54:11.785992 189118 net.cpp:406] bn4b2_branch2b <- res4b2_branch2b
I1129 23:54:11.785997 189118 net.cpp:367] bn4b2_branch2b -> res4b2_branch2b (in-place)
I1129 23:54:11.786139 189118 net.cpp:122] Setting up bn4b2_branch2b
I1129 23:54:11.786145 189118 net.cpp:129] Top shape: 10 256 15 15 (576000)
I1129 23:54:11.786149 189118 net.cpp:137] Memory required for data: 2877696040
I1129 23:54:11.786154 189118 layer_factory.hpp:77] Creating layer scale4b2_branch2b
I1129 23:54:11.786160 189118 net.cpp:84] Creating Layer scale4b2_branch2b
I1129 23:54:11.786164 189118 net.cpp:406] scale4b2_branch2b <- res4b2_branch2b
I1129 23:54:11.786170 189118 net.cpp:367] scale4b2_branch2b -> res4b2_branch2b (in-place)
I1129 23:54:11.786200 189118 layer_factory.hpp:77] Creating layer scale4b2_branch2b
I1129 23:54:11.786281 189118 net.cpp:122] Setting up scale4b2_branch2b
I1129 23:54:11.786288 189118 net.cpp:129] Top shape: 10 256 15 15 (576000)
I1129 23:54:11.786290 189118 net.cpp:137] Memory required for data: 2880000040
I1129 23:54:11.786295 189118 layer_factory.hpp:77] Creating layer res4b2_branch2b_relu
I1129 23:54:11.786299 189118 net.cpp:84] Creating Layer res4b2_branch2b_relu
I1129 23:54:11.786303 189118 net.cpp:406] res4b2_branch2b_relu <- res4b2_branch2b
I1129 23:54:11.786306 189118 net.cpp:367] res4b2_branch2b_relu -> res4b2_branch2b (in-place)
I1129 23:54:11.786311 189118 net.cpp:122] Setting up res4b2_branch2b_relu
I1129 23:54:11.786315 189118 net.cpp:129] Top shape: 10 256 15 15 (576000)
I1129 23:54:11.786317 189118 net.cpp:137] Memory required for data: 2882304040
I1129 23:54:11.786320 189118 layer_factory.hpp:77] Creating layer res4b2_branch2c
I1129 23:54:11.786329 189118 net.cpp:84] Creating Layer res4b2_branch2c
I1129 23:54:11.786331 189118 net.cpp:406] res4b2_branch2c <- res4b2_branch2b
I1129 23:54:11.786337 189118 net.cpp:380] res4b2_branch2c -> res4b2_branch2c
I1129 23:54:11.788969 189118 net.cpp:122] Setting up res4b2_branch2c
I1129 23:54:11.788980 189118 net.cpp:129] Top shape: 10 1024 15 15 (2304000)
I1129 23:54:11.788982 189118 net.cpp:137] Memory required for data: 2891520040
I1129 23:54:11.788986 189118 layer_factory.hpp:77] Creating layer bn4b2_branch2c
I1129 23:54:11.788997 189118 net.cpp:84] Creating Layer bn4b2_branch2c
I1129 23:54:11.789001 189118 net.cpp:406] bn4b2_branch2c <- res4b2_branch2c
I1129 23:54:11.789007 189118 net.cpp:367] bn4b2_branch2c -> res4b2_branch2c (in-place)
I1129 23:54:11.789155 189118 net.cpp:122] Setting up bn4b2_branch2c
I1129 23:54:11.789161 189118 net.cpp:129] Top shape: 10 1024 15 15 (2304000)
I1129 23:54:11.789165 189118 net.cpp:137] Memory required for data: 2900736040
I1129 23:54:11.789170 189118 layer_factory.hpp:77] Creating layer scale4b2_branch2c
I1129 23:54:11.789175 189118 net.cpp:84] Creating Layer scale4b2_branch2c
I1129 23:54:11.789180 189118 net.cpp:406] scale4b2_branch2c <- res4b2_branch2c
I1129 23:54:11.789182 189118 net.cpp:367] scale4b2_branch2c -> res4b2_branch2c (in-place)
I1129 23:54:11.789213 189118 layer_factory.hpp:77] Creating layer scale4b2_branch2c
I1129 23:54:11.789299 189118 net.cpp:122] Setting up scale4b2_branch2c
I1129 23:54:11.789305 189118 net.cpp:129] Top shape: 10 1024 15 15 (2304000)
I1129 23:54:11.789309 189118 net.cpp:137] Memory required for data: 2909952040
I1129 23:54:11.789314 189118 layer_factory.hpp:77] Creating layer res4b2
I1129 23:54:11.789319 189118 net.cpp:84] Creating Layer res4b2
I1129 23:54:11.789324 189118 net.cpp:406] res4b2 <- res4b1_res4b1_relu_0_split_1
…
I1129 23:54:12.973080 189118 net.cpp:367] scale4b33_branch2a -> res4b33_branch2a (in-place)
I1129 23:54:12.973115 189118 layer_factory.hpp:77] Creating layer scale4b33_branch2a
I1129 23:54:12.973209 189118 net.cpp:122] Setting up scale4b33_branch2a
I1129 23:54:12.973215 189118 net.cpp:129] Top shape: 4 256 15 15 (230400)
I1129 23:54:12.973218 189118 net.cpp:137] Memory required for data: 2176819264
I1129 23:54:12.973223 189118 layer_factory.hpp:77] Creating layer res4b33_branch2a_relu
I1129 23:54:12.973227 189118 net.cpp:84] Creating Layer res4b33_branch2a_relu
I1129 23:54:12.973232 189118 net.cpp:406] res4b33_branch2a_relu <- res4b33_branch2a
I1129 23:54:12.973235 189118 net.cpp:367] res4b33_branch2a_relu -> res4b33_branch2a (in-place)
I1129 23:54:12.973240 189118 net.cpp:122] Setting up res4b33_branch2a_relu
I1129 23:54:12.973243 189118 net.cpp:129] Top shape: 4 256 15 15 (230400)
I1129 23:54:12.973246 189118 net.cpp:137] Memory required for data: 2177740864
I1129 23:54:12.973249 189118 layer_factory.hpp:77] Creating layer res4b33_branch2b
I1129 23:54:12.973258 189118 net.cpp:84] Creating Layer res4b33_branch2b
I1129 23:54:12.973261 189118 net.cpp:406] res4b33_branch2b <- res4b33_branch2a
I1129 23:54:12.973268 189118 net.cpp:380] res4b33_branch2b -> res4b33_branch2b
I1129 23:54:12.978884 189118 net.cpp:122] Setting up res4b33_branch2b
I1129 23:54:12.978895 189118 net.cpp:129] Top shape: 4 256 15 15 (230400)
I1129 23:54:12.978899 189118 net.cpp:137] Memory required for data: 2178662464
I1129 23:54:12.978902 189118 layer_factory.hpp:77] Creating layer bn4b33_branch2b
I1129 23:54:12.978909 189118 net.cpp:84] Creating Layer bn4b33_branch2b
I1129 23:54:12.978914 189118 net.cpp:406] bn4b33_branch2b <- res4b33_branch2b
I1129 23:54:12.978919 189118 net.cpp:367] bn4b33_branch2b -> res4b33_branch2b (in-place)
I1129 23:54:12.979079 189118 net.cpp:122] Setting up bn4b33_branch2b
I1129 23:54:12.979084 189118 net.cpp:129] Top shape: 4 256 15 15 (230400)
I1129 23:54:12.979087 189118 net.cpp:137] Memory required for data: 2179584064
I1129 23:54:12.979094 189118 layer_factory.hpp:77] Creating layer scale4b33_branch2b
I1129 23:54:12.979099 189118 net.cpp:84] Creating Layer scale4b33_branch2b
I1129 23:54:12.979101 189118 net.cpp:406] scale4b33_branch2b <- res4b33_branch2b
I1129 23:54:12.979107 189118 net.cpp:367] scale4b33_branch2b -> res4b33_branch2b (in-place)
I1129 23:54:12.979140 189118 layer_factory.hpp:77] Creating layer scale4b33_branch2b
I1129 23:54:12.979235 189118 net.cpp:122] Setting up scale4b33_branch2b
I1129 23:54:12.979240 189118 net.cpp:129] Top shape: 4 256 15 15 (230400)
I1129 23:54:12.979243 189118 net.cpp:137] Memory required for data: 2180505664
I1129 23:54:12.979252 189118 layer_factory.hpp:77] Creating layer res4b33_branch2b_relu
I1129 23:54:12.979266 189118 net.cpp:84] Creating Layer res4b33_branch2b_relu
I1129 23:54:12.979269 189118 net.cpp:406] res4b33_branch2b_relu <- res4b33_branch2b
I1129 23:54:12.979274 189118 net.cpp:367] res4b33_branch2b_relu -> res4b33_branch2b (in-place)
I1129 23:54:12.979279 189118 net.cpp:122] Setting up res4b33_branch2b_relu
I1129 23:54:12.979284 189118 net.cpp:129] Top shape: 4 256 15 15 (230400)
I1129 23:54:12.979285 189118 net.cpp:137] Memory required for data: 2181427264
I1129 23:54:12.979288 189118 layer_factory.hpp:77] Creating layer res4b33_branch2c
I1129 23:54:12.979296 189118 net.cpp:84] Creating Layer res4b33_branch2c
I1129 23:54:12.979300 189118 net.cpp:406] res4b33_branch2c <- res4b33_branch2b
I1129 23:54:12.979306 189118 net.cpp:380] res4b33_branch2c -> res4b33_branch2c
I1129 23:54:12.982017 189118 net.cpp:122] Setting up res4b33_branch2c
I1129 23:54:12.982028 189118 net.cpp:129] Top shape: 4 1024 15 15 (921600)
I1129 23:54:12.982030 189118 net.cpp:137] Memory required for data: 2185113664
I1129 23:54:12.982034 189118 layer_factory.hpp:77] Creating layer bn4b33_branch2c
I1129 23:54:12.982040 189118 net.cpp:84] Creating Layer bn4b33_branch2c
I1129 23:54:12.982043 189118 net.cpp:406] bn4b33_branch2c <- res4b33_branch2c
I1129 23:54:12.982050 189118 net.cpp:367] bn4b33_branch2c -> res4b33_branch2c (in-place)
I1129 23:54:12.982226 189118 net.cpp:122] Setting up bn4b33_branch2c
I1129 23:54:12.982233 189118 net.cpp:129] Top shape: 4 1024 15 15 (921600)
I1129 23:54:12.982234 189118 net.cpp:137] Memory required for data: 2188800064
I1129 23:54:12.982241 189118 layer_factory.hpp:77] Creating layer scale4b33_branch2c
I1129 23:54:12.982249 189118 net.cpp:84] Creating Layer scale4b33_branch2c
I1129 23:54:12.982252 189118 net.cpp:406] scale4b33_branch2c <- res4b33_branch2c
I1129 23:54:12.982256 189118 net.cpp:367] scale4b33_branch2c -> res4b33_branch2c (in-place)
I1129 23:54:12.982295 189118 layer_factory.hpp:77] Creating layer scale4b33_branch2c
I1129 23:54:12.982400 189118 net.cpp:122] Setting up scale4b33_branch2c
I1129 23:54:12.982406 189118 net.cpp:129] Top shape: 4 1024 15 15 (921600)
I1129 23:54:12.982409 189118 net.cpp:137] Memory required for data: 2192486464
I1129 23:54:12.982414 189118 layer_factory.hpp:77] Creating layer res4b33
I1129 23:54:12.982420 189118 net.cpp:84] Creating Layer res4b33
I1129 23:54:12.982425 189118 net.cpp:406] res4b33 <- res4b32_res4b32_relu_0_split_1
I1129 23:54:12.982429 189118 net.cpp:406] res4b33 <- res4b33_branch2c
I1129 23:54:12.982434 189118 net.cpp:380] res4b33 -> res4b33
I1129 23:54:12.982455 189118 net.cpp:122] Setting up res4b33
I1129 23:54:12.982460 189118 net.cpp:129] Top shape: 4 1024 15 15 (921600)
I1129 23:54:12.982462 189118 net.cpp:137] Memory required for data: 2196172864
I1129 23:54:12.982465 189118 layer_factory.hpp:77] Creating layer res4b33_relu
I1129 23:54:12.982471 189118 net.cpp:84] Creating Layer res4b33_relu
I1129 23:54:12.982475 189118 net.cpp:406] res4b33_relu <- res4b33
I1129 23:54:12.982478 189118 net.cpp:367] res4b33_relu -> res4b33 (in-place)
I1129 23:54:12.982483 189118 net.cpp:122] Setting up res4b33_relu
I1129 23:54:12.982487 189118 net.cpp:129] Top shape: 4 1024 15 15 (921600)
I1129 23:54:12.982489 189118 net.cpp:137] Memory required for data: 2199859264
I1129 23:54:12.982492 189118 layer_factory.hpp:77] Creating layer res4b33_res4b33_relu_0_split
I1129 23:54:12.982499 189118 net.cpp:84] Creating Layer res4b33_res4b33_relu_0_split
I1129 23:54:12.982502 189118 net.cpp:406] res4b33_res4b33_relu_0_split <- res4b33
I1129 23:54:12.982506 189118 net.cpp:380] res4b33_res4b33_relu_0_split -> res4b33_res4b33_relu_0_split_0
I1129 23:54:12.982512 189118 net.cpp:380] res4b33_res4b33_relu_0_split -> res4b33_res4b33_relu_0_split_1
I1129 23:54:12.982545 189118 net.cpp:122] Setting up res4b33_res4b33_relu_0_split
I1129 23:54:12.982551 189118 net.cpp:129] Top shape: 4 1024 15 15 (921600)
I1129 23:54:12.982554 189118 net.cpp:129] Top shape: 4 1024 15 15 (921600)
I1129 23:54:12.982560 189118 net.cpp:137] Memory required for data: 2207232064
I1129 23:54:12.982569 189118 layer_factory.hpp:77] Creating layer res4b34_branch2a
I1129 23:54:12.982578 189118 net.cpp:84] Creating Layer res4b34_branch2a
I1129 23:54:12.982580 189118 net.cpp:406] res4b34_branch2a <- res4b33_res4b33_relu_0_split_0
I1129 23:54:12.982585 189118 net.cpp:380] res4b34_branch2a -> res4b34_branch2a
I1129 23:54:12.985252 189118 net.cpp:122] Setting up res4b34_branch2a
I1129 23:54:12.985262 189118 net.cpp:129] Top shape: 4 256 15 15 (230400)
I1129 23:54:12.985265 189118 net.cpp:137] Memory required for data: 2208153664
I1129 23:54:12.985270 189118 layer_factory.hpp:77] Creating layer bn4b34_branch2a
I1129 23:54:12.985275 189118 net.cpp:84] Creating Layer bn4b34_branch2a
I1129 23:54:12.985280 189118 net.cpp:406] bn4b34_branch2a <- res4b34_branch2a
I1129 23:54:12.985285 189118 net.cpp:367] bn4b34_branch2a -> res4b34_branch2a (in-place)
I1129 23:54:12.985447 189118 net.cpp:122] Setting up bn4b34_branch2a
I1129 23:54:12.985453 189118 net.cpp:129] Top shape: 4 256 15 15 (230400)
I1129 23:54:12.985456 189118 net.cpp:137] Memory required for data: 2209075264
I1129 23:54:12.985462 189118 layer_factory.hpp:77] Creating layer scale4b34_branch2a
I1129 23:54:12.985467 189118 net.cpp:84] Creating Layer scale4b34_branch2a
I1129 23:54:12.985471 189118 net.cpp:406] scale4b34_branch2a <- res4b34_branch2a
I1129 23:54:12.985476 189118 net.cpp:367] scale4b34_branch2a -> res4b34_branch2a (in-place)
I1129 23:54:12.985510 189118 layer_factory.hpp:77] Creating layer scale4b34_branch2a
I1129 23:54:12.985607 189118 net.cpp:122] Setting up scale4b34_branch2a
I1129 23:54:12.985615 189118 net.cpp:129] Top shape: 4 256 15 15 (230400)
I1129 23:54:12.985617 189118 net.cpp:137] Memory required for data: 2209996864
I1129 23:54:12.985622 189118 layer_factory.hpp:77] Creating layer res4b34_branch2a_relu
I1129 23:54:12.985627 189118 net.cpp:84] Creating Layer res4b34_branch2a_relu
I1129 23:54:12.985632 189118 net.cpp:406] res4b34_branch2a_relu <- res4b34_branch2a
I1129 23:54:12.985636 189118 net.cpp:367] res4b34_branch2a_relu -> res4b34_branch2a (in-place)
I1129 23:54:12.985641 189118 net.cpp:122] Setting up res4b34_branch2a_relu
I1129 23:54:12.985646 189118 net.cpp:129] Top shape: 4 256 15 15 (230400)
I1129 23:54:12.985648 189118 net.cpp:137] Memory required for data: 2210918464
I1129 23:54:12.985651 189118 layer_factory.hpp:77] Creating layer res4b34_branch2b
I1129 23:54:12.985659 189118 net.cpp:84] Creating Layer res4b34_branch2b
I1129 23:54:12.985662 189118 net.cpp:406] res4b34_branch2b <- res4b34_branch2a
I1129 23:54:12.985668 189118 net.cpp:380] res4b34_branch2b -> res4b34_branch2b
I1129 23:54:12.991379 189118 net.cpp:122] Setting up res4b34_branch2b
I1129 23:54:12.991389 189118 net.cpp:129] Top shape: 4 256 15 15 (230400)
I1129 23:54:12.991392 189118 net.cpp:137] Memory required for data: 2211840064
I1129 23:54:12.991397 189118 layer_factory.hpp:77] Creating layer bn4b34_branch2b
I1129 23:54:12.991402 189118 net.cpp:84] Creating Layer bn4b34_branch2b
I1129 23:54:12.991406 189118 net.cpp:406] bn4b34_branch2b <- res4b34_branch2b
I1129 23:54:12.991412 189118 net.cpp:367] bn4b34_branch2b -> res4b34_branch2b (in-place)
I1129 23:54:12.991578 189118 net.cpp:122] Setting up bn4b34_branch2b
I1129 23:54:12.991585 189118 net.cpp:129] Top shape: 4 256 15 15 (230400)
I1129 23:54:12.991586 189118 net.cpp:137] Memory required for data: 2212761664
I1129 23:54:12.991593 189118 layer_factory.hpp:77] Creating layer scale4b34_branch2b
I1129 23:54:12.991598 189118 net.cpp:84] Creating Layer scale4b34_branch2b
I1129 23:54:12.991601 189118 net.cpp:406] scale4b34_branch2b <- res4b34_branch2b
I1129 23:54:12.991606 189118 net.cpp:367] scale4b34_branch2b -> res4b34_branch2b (in-place)
I1129 23:54:12.991641 189118 layer_factory.hpp:77] Creating layer scale4b34_branch2b
I1129 23:54:12.991734 189118 net.cpp:122] Setting up scale4b34_branch2b
I1129 23:54:12.991741 189118 net.cpp:129] Top shape: 4 256 15 15 (230400)
I1129 23:54:12.991744 189118 net.cpp:137] Memory required for data: 2213683264
I1129 23:54:12.991752 189118 layer_factory.hpp:77] Creating layer res4b34_branch2b_relu
I1129 23:54:12.991765 189118 net.cpp:84] Creating Layer res4b34_branch2b_relu
I1129 23:54:12.991767 189118 net.cpp:406] res4b34_branch2b_relu <- res4b34_branch2b
I1129 23:54:12.991773 189118 net.cpp:367] res4b34_branch2b_relu -> res4b34_branch2b (in-place)
I1129 23:54:12.991778 189118 net.cpp:122] Setting up res4b34_branch2b_relu
I1129 23:54:12.991782 189118 net.cpp:129] Top shape: 4 256 15 15 (230400)
I1129 23:54:12.991786 189118 net.cpp:137] Memory required for data: 2214604864
I1129 23:54:12.991788 189118 layer_factory.hpp:77] Creating layer res4b34_branch2c
I1129 23:54:12.991794 189118 net.cpp:84] Creating Layer res4b34_branch2c
I1129 23:54:12.991797 189118 net.cpp:406] res4b34_branch2c <- res4b34_branch2b
I1129 23:54:12.991803 189118 net.cpp:380] res4b34_branch2c -> res4b34_branch2c
I1129 23:54:12.994513 189118 net.cpp:122] Setting up res4b34_branch2c
I1129 23:54:12.994523 189118 net.cpp:129] Top shape: 4 1024 15 15 (921600)
I1129 23:54:12.994525 189118 net.cpp:137] Memory required for data: 2218291264
I1129 23:54:12.994529 189118 layer_factory.hpp:77] Creating layer bn4b34_branch2c
I1129 23:54:12.994535 189118 net.cpp:84] Creating Layer bn4b34_branch2c
I1129 23:54:12.994539 189118 net.cpp:406] bn4b34_branch2c <- res4b34_branch2c
I1129 23:54:12.994544 189118 net.cpp:367] bn4b34_branch2c -> res4b34_branch2c (in-place)
I1129 23:54:12.994719 189118 net.cpp:122] Setting up bn4b34_branch2c
I1129 23:54:12.994724 189118 net.cpp:129] Top shape: 4 1024 15 15 (921600)
I1129 23:54:12.994726 189118 net.cpp:137] Memory required for data: 2221977664
I1129 23:54:12.994734 189118 layer_factory.hpp:77] Creating layer scale4b34_branch2c
I1129 23:54:12.994741 189118 net.cpp:84] Creating Layer scale4b34_branch2c
I1129 23:54:12.994745 189118 net.cpp:406] scale4b34_branch2c <- res4b34_branch2c
I1129 23:54:12.994750 189118 net.cpp:367] scale4b34_branch2c -> res4b34_branch2c (in-place)
I1129 23:54:12.994788 189118 layer_factory.hpp:77] Creating layer scale4b34_branch2c
I1129 23:54:12.994897 189118 net.cpp:122] Setting up scale4b34_branch2c
I1129 23:54:12.994904 189118 net.cpp:129] Top shape: 4 1024 15 15 (921600)
I1129 23:54:12.994906 189118 net.cpp:137] Memory required for data: 2225664064
I1129 23:54:12.994911 189118 layer_factory.hpp:77] Creating layer res4b34
I1129 23:54:12.994918 189118 net.cpp:84] Creating Layer res4b34
I1129 23:54:12.994922 189118 net.cpp:406] res4b34 <- res4b33_res4b33_relu_0_split_1
I1129 23:54:12.994925 189118 net.cpp:406] res4b34 <- res4b34_branch2c
I1129 23:54:12.994930 189118 net.cpp:380] res4b34 -> res4b34
I1129 23:54:12.994953 189118 net.cpp:122] Setting up res4b34
I1129 23:54:12.994959 189118 net.cpp:129] Top shape: 4 1024 15 15 (921600)
I1129 23:54:12.994961 189118 net.cpp:137] Memory required for data: 2229350464
I1129 23:54:12.994966 189118 layer_factory.hpp:77] Creating layer res4b34_relu
I1129 23:54:12.994969 189118 net.cpp:84] Creating Layer res4b34_relu
I1129 23:54:12.994972 189118 net.cpp:406] res4b34_relu <- res4b34
I1129 23:54:12.994978 189118 net.cpp:367] res4b34_relu -> res4b34 (in-place)
I1129 23:54:12.994983 189118 net.cpp:122] Setting up res4b34_relu
I1129 23:54:12.994987 189118 net.cpp:129] Top shape: 4 1024 15 15 (921600)
I1129 23:54:12.994990 189118 net.cpp:137] Memory required for data: 2233036864
I1129 23:54:12.994993 189118 layer_factory.hpp:77] Creating layer res4b34_res4b34_relu_0_split
I1129 23:54:12.994997 189118 net.cpp:84] Creating Layer res4b34_res4b34_relu_0_split
I1129 23:54:12.995000 189118 net.cpp:406] res4b34_res4b34_relu_0_split <- res4b34
I1129 23:54:12.995004 189118 net.cpp:380] res4b34_res4b34_relu_0_split -> res4b34_res4b34_relu_0_split_0
I1129 23:54:12.995010 189118 net.cpp:380] res4b34_res4b34_relu_0_split -> res4b34_res4b34_relu_0_split_1
I1129 23:54:12.995041 189118 net.cpp:122] Setting up res4b34_res4b34_relu_0_split
I1129 23:54:12.995046 189118 net.cpp:129] Top shape: 4 1024 15 15 (921600)
I1129 23:54:12.995049 189118 net.cpp:129] Top shape: 4 1024 15 15 (921600)
I1129 23:54:12.995055 189118 net.cpp:137] Memory required for data: 2240409664
I1129 23:54:12.995064 189118 layer_factory.hpp:77] Creating layer res4b35_branch2a
I1129 23:54:12.995070 189118 net.cpp:84] Creating Layer res4b35_branch2a
I1129 23:54:12.995074 189118 net.cpp:406] res4b35_branch2a <- res4b34_res4b34_relu_0_split_0
I1129 23:54:12.995079 189118 net.cpp:380] res4b35_branch2a -> res4b35_branch2a
I1129 23:54:12.997745 189118 net.cpp:122] Setting up res4b35_branch2a
I1129 23:54:12.997756 189118 net.cpp:129] Top shape: 4 256 15 15 (230400)
I1129 23:54:12.997757 189118 net.cpp:137] Memory required for data: 2241331264
I1129 23:54:12.997762 189118 layer_factory.hpp:77] Creating layer bn4b35_branch2a
I1129 23:54:12.997768 189118 net.cpp:84] Creating Layer bn4b35_branch2a
I1129 23:54:12.997772 189118 net.cpp:406] bn4b35_branch2a <- res4b35_branch2a
I1129 23:54:12.997776 189118 net.cpp:367] bn4b35_branch2a -> res4b35_branch2a (in-place)
I1129 23:54:12.997939 189118 net.cpp:122] Setting up bn4b35_branch2a
I1129 23:54:12.997947 189118 net.cpp:129] Top shape: 4 256 15 15 (230400)
I1129 23:54:12.997951 189118 net.cpp:137] Memory required for data: 2242252864
I1129 23:54:12.997956 189118 layer_factory.hpp:77] Creating layer scale4b35_branch2a
I1129 23:54:12.997961 189118 net.cpp:84] Creating Layer scale4b35_branch2a
I1129 23:54:12.997965 189118 net.cpp:406] scale4b35_branch2a <- res4b35_branch2a
I1129 23:54:12.997969 189118 net.cpp:367] scale4b35_branch2a -> res4b35_branch2a (in-place)
I1129 23:54:12.998005 189118 layer_factory.hpp:77] Creating layer scale4b35_branch2a
I1129 23:54:12.998103 189118 net.cpp:122] Setting up scale4b35_branch2a
I1129 23:54:12.998109 189118 net.cpp:129] Top shape: 4 256 15 15 (230400)
I1129 23:54:12.998112 189118 net.cpp:137] Memory required for data: 2243174464
I1129 23:54:12.998117 189118 layer_factory.hpp:77] Creating layer res4b35_branch2a_relu
I1129 23:54:12.998123 189118 net.cpp:84] Creating Layer res4b35_branch2a_relu
I1129 23:54:12.998127 189118 net.cpp:406] res4b35_branch2a_relu <- res4b35_branch2a
I1129 23:54:12.998131 189118 net.cpp:367] res4b35_branch2a_relu -> res4b35_branch2a (in-place)
I1129 23:54:12.998136 189118 net.cpp:122] Setting up res4b35_branch2a_relu
I1129 23:54:12.998139 189118 net.cpp:129] Top shape: 4 256 15 15 (230400)
I1129 23:54:12.998142 189118 net.cpp:137] Memory required for data: 2244096064
I1129 23:54:12.998145 189118 layer_factory.hpp:77] Creating layer res4b35_branch2b
I1129 23:54:12.998153 189118 net.cpp:84] Creating Layer res4b35_branch2b
I1129 23:54:12.998157 189118 net.cpp:406] res4b35_branch2b <- res4b35_branch2a
I1129 23:54:12.998163 189118 net.cpp:380] res4b35_branch2b -> res4b35_branch2b
I1129 23:54:13.003903 189118 net.cpp:122] Setting up res4b35_branch2b
I1129 23:54:13.003914 189118 net.cpp:129] Top shape: 4 256 15 15 (230400)
I1129 23:54:13.003917 189118 net.cpp:137] Memory required for data: 2245017664
I1129 23:54:13.003922 189118 layer_factory.hpp:77] Creating layer bn4b35_branch2b
I1129 23:54:13.003928 189118 net.cpp:84] Creating Layer bn4b35_branch2b
I1129 23:54:13.003931 189118 net.cpp:406] bn4b35_branch2b <- res4b35_branch2b
I1129 23:54:13.003937 189118 net.cpp:367] bn4b35_branch2b -> res4b35_branch2b (in-place)
I1129 23:54:13.004611 189118 net.cpp:122] Setting up bn4b35_branch2b
I1129 23:54:13.004619 189118 net.cpp:129] Top shape: 4 256 15 15 (230400)
I1129 23:54:13.004622 189118 net.cpp:137] Memory required for data: 2245939264
I1129 23:54:13.004628 189118 layer_factory.hpp:77] Creating layer scale4b35_branch2b
I1129 23:54:13.004634 189118 net.cpp:84] Creating Layer scale4b35_branch2b
I1129 23:54:13.004638 189118 net.cpp:406] scale4b35_branch2b <- res4b35_branch2b
I1129 23:54:13.004642 189118 net.cpp:367] scale4b35_branch2b -> res4b35_branch2b (in-place)
I1129 23:54:13.004678 189118 layer_factory.hpp:77] Creating layer scale4b35_branch2b
I1129 23:54:13.004762 189118 net.cpp:122] Setting up scale4b35_branch2b
I1129 23:54:13.004768 189118 net.cpp:129] Top shape: 4 256 15 15 (230400)
I1129 23:54:13.004771 189118 net.cpp:137] Memory required for data: 2246860864
I1129 23:54:13.004781 189118 layer_factory.hpp:77] Creating layer res4b35_branch2b_relu
I1129 23:54:13.004791 189118 net.cpp:84] Creating Layer res4b35_branch2b_relu
I1129 23:54:13.004796 189118 net.cpp:406] res4b35_branch2b_relu <- res4b35_branch2b
I1129 23:54:13.004801 189118 net.cpp:367] res4b35_branch2b_relu -> res4b35_branch2b (in-place)
I1129 23:54:13.004806 189118 net.cpp:122] Setting up res4b35_branch2b_relu
I1129 23:54:13.004811 189118 net.cpp:129] Top shape: 4 256 15 15 (230400)
I1129 23:54:13.004813 189118 net.cpp:137] Memory required for data: 2247782464
I1129 23:54:13.004817 189118 layer_factory.hpp:77] Creating layer res4b35_branch2c
I1129 23:54:13.004822 189118 net.cpp:84] Creating Layer res4b35_branch2c
I1129 23:54:13.004825 189118 net.cpp:406] res4b35_branch2c <- res4b35_branch2b
I1129 23:54:13.004832 189118 net.cpp:380] res4b35_branch2c -> res4b35_branch2c
I1129 23:54:13.007537 189118 net.cpp:122] Setting up res4b35_branch2c
I1129 23:54:13.007549 189118 net.cpp:129] Top shape: 4 1024 15 15 (921600)
I1129 23:54:13.007551 189118 net.cpp:137] Memory required for data: 2251468864
I1129 23:54:13.007556 189118 layer_factory.hpp:77] Creating layer bn4b35_branch2c
I1129 23:54:13.007561 189118 net.cpp:84] Creating Layer bn4b35_branch2c
I1129 23:54:13.007565 189118 net.cpp:406] bn4b35_branch2c <- res4b35_branch2c
I1129 23:54:13.007571 189118 net.cpp:367] bn4b35_branch2c -> res4b35_branch2c (in-place)
I1129 23:54:13.007740 189118 net.cpp:122] Setting up bn4b35_branch2c
I1129 23:54:13.007745 189118 net.cpp:129] Top shape: 4 1024 15 15 (921600)
I1129 23:54:13.007748 189118 net.cpp:137] Memory required for data: 2255155264
I1129 23:54:13.007755 189118 layer_factory.hpp:77] Creating layer scale4b35_branch2c
I1129 23:54:13.007760 189118 net.cpp:84] Creating Layer scale4b35_branch2c
I1129 23:54:13.007763 189118 net.cpp:406] scale4b35_branch2c <- res4b35_branch2c
I1129 23:54:13.007767 189118 net.cpp:367] scale4b35_branch2c -> res4b35_branch2c (in-place)
I1129 23:54:13.007805 189118 layer_factory.hpp:77] Creating layer scale4b35_branch2c
I1129 23:54:13.007905 189118 net.cpp:122] Setting up scale4b35_branch2c
I1129 23:54:13.007911 189118 net.cpp:129] Top shape: 4 1024 15 15 (921600)
I1129 23:54:13.007915 189118 net.cpp:137] Memory required for data: 2258841664
I1129 23:54:13.007920 189118 layer_factory.hpp:77] Creating layer res4b35
I1129 23:54:13.007925 189118 net.cpp:84] Creating Layer res4b35
I1129 23:54:13.007928 189118 net.cpp:406] res4b35 <- res4b34_res4b34_relu_0_split_1
I1129 23:54:13.007932 189118 net.cpp:406] res4b35 <- res4b35_branch2c
I1129 23:54:13.007938 189118 net.cpp:380] res4b35 -> res4b35
I1129 23:54:13.007958 189118 net.cpp:122] Setting up res4b35
I1129 23:54:13.007963 189118 net.cpp:129] Top shape: 4 1024 15 15 (921600)
I1129 23:54:13.007966 189118 net.cpp:137] Memory required for data: 2262528064
I1129 23:54:13.007969 189118 layer_factory.hpp:77] Creating layer res4b35_relu
I1129 23:54:13.007975 189118 net.cpp:84] Creating Layer res4b35_relu
I1129 23:54:13.007978 189118 net.cpp:406] res4b35_relu <- res4b35
I1129 23:54:13.007982 189118 net.cpp:367] res4b35_relu -> res4b35 (in-place)
I1129 23:54:13.007987 189118 net.cpp:122] Setting up res4b35_relu
I1129 23:54:13.007992 189118 net.cpp:129] Top shape: 4 1024 15 15 (921600)
I1129 23:54:13.007994 189118 net.cpp:137] Memory required for data: 2266214464
I1129 23:54:13.007997 189118 layer_factory.hpp:77] Creating layer res4b35_res4b35_relu_0_split
I1129 23:54:13.008003 189118 net.cpp:84] Creating Layer res4b35_res4b35_relu_0_split
I1129 23:54:13.008007 189118 net.cpp:406] res4b35_res4b35_relu_0_split <- res4b35
I1129 23:54:13.008010 189118 net.cpp:380] res4b35_res4b35_relu_0_split -> res4b35_res4b35_relu_0_split_0
I1129 23:54:13.008016 189118 net.cpp:380] res4b35_res4b35_relu_0_split -> res4b35_res4b35_relu_0_split_1
I1129 23:54:13.008047 189118 net.cpp:122] Setting up res4b35_res4b35_relu_0_split
I1129 23:54:13.008054 189118 net.cpp:129] Top shape: 4 1024 15 15 (921600)
I1129 23:54:13.008056 189118 net.cpp:129] Top shape: 4 1024 15 15 (921600)
I1129 23:54:13.008062 189118 net.cpp:137] Memory required for data: 2273587264
I1129 23:54:13.008071 189118 layer_factory.hpp:77] Creating layer res5a_branch1
I1129 23:54:13.008080 189118 net.cpp:84] Creating Layer res5a_branch1
I1129 23:54:13.008083 189118 net.cpp:406] res5a_branch1 <- res4b35_res4b35_relu_0_split_0
I1129 23:54:13.008088 189118 net.cpp:380] res5a_branch1 -> res5a_branch1
I1129 23:54:13.027300 189118 net.cpp:122] Setting up res5a_branch1
I1129 23:54:13.027312 189118 net.cpp:129] Top shape: 4 2048 8 8 (524288)
I1129 23:54:13.027315 189118 net.cpp:137] Memory required for data: 2275684416
I1129 23:54:13.027320 189118 layer_factory.hpp:77] Creating layer bn5a_branch1
I1129 23:54:13.027330 189118 net.cpp:84] Creating Layer bn5a_branch1
I1129 23:54:13.027334 189118 net.cpp:406] bn5a_branch1 <- res5a_branch1
I1129 23:54:13.027340 189118 net.cpp:367] bn5a_branch1 -> res5a_branch1 (in-place)
I1129 23:54:13.027565 189118 net.cpp:122] Setting up bn5a_branch1
I1129 23:54:13.027571 189118 net.cpp:129] Top shape: 4 2048 8 8 (524288)
I1129 23:54:13.027575 189118 net.cpp:137] Memory required for data: 2277781568
I1129 23:54:13.027580 189118 layer_factory.hpp:77] Creating layer scale5a_branch1
I1129 23:54:13.027585 189118 net.cpp:84] Creating Layer scale5a_branch1
I1129 23:54:13.027588 189118 net.cpp:406] scale5a_branch1 <- res5a_branch1
I1129 23:54:13.027592 189118 net.cpp:367] scale5a_branch1 -> res5a_branch1 (in-place)
I1129 23:54:13.027631 189118 layer_factory.hpp:77] Creating layer scale5a_branch1
I1129 23:54:13.027734 189118 net.cpp:122] Setting up scale5a_branch1
I1129 23:54:13.027740 189118 net.cpp:129] Top shape: 4 2048 8 8 (524288)
I1129 23:54:13.027743 189118 net.cpp:137] Memory required for data: 2279878720
I1129 23:54:13.027748 189118 layer_factory.hpp:77] Creating layer res5a_branch2a
I1129 23:54:13.027755 189118 net.cpp:84] Creating Layer res5a_branch2a
I1129 23:54:13.027760 189118 net.cpp:406] res5a_branch2a <- res4b35_res4b35_relu_0_split_1
I1129 23:54:13.027765 189118 net.cpp:380] res5a_branch2a -> res5a_branch2a
I1129 23:54:13.032778 189118 net.cpp:122] Setting up res5a_branch2a
I1129 23:54:13.032789 189118 net.cpp:129] Top shape: 4 512 8 8 (131072)
I1129 23:54:13.032793 189118 net.cpp:137] Memory required for data: 2280403008
I1129 23:54:13.032797 189118 layer_factory.hpp:77] Creating layer bn5a_branch2a
I1129 23:54:13.032804 189118 net.cpp:84] Creating Layer bn5a_branch2a
I1129 23:54:13.032809 189118 net.cpp:406] bn5a_branch2a <- res5a_branch2a
I1129 23:54:13.032814 189118 net.cpp:367] bn5a_branch2a -> res5a_branch2a (in-place)
I1129 23:54:13.032982 189118 net.cpp:122] Setting up bn5a_branch2a
I1129 23:54:13.032989 189118 net.cpp:129] Top shape: 4 512 8 8 (131072)
I1129 23:54:13.032991 189118 net.cpp:137] Memory required for data: 2280927296
I1129 23:54:13.032997 189118 layer_factory.hpp:77] Creating layer scale5a_branch2a
I1129 23:54:13.033004 189118 net.cpp:84] Creating Layer scale5a_branch2a
I1129 23:54:13.033006 189118 net.cpp:406] scale5a_branch2a <- res5a_branch2a
I1129 23:54:13.033013 189118 net.cpp:367] scale5a_branch2a -> res5a_branch2a (in-place)
I1129 23:54:13.033051 189118 layer_factory.hpp:77] Creating layer scale5a_branch2a
I1129 23:54:13.033149 189118 net.cpp:122] Setting up scale5a_branch2a
I1129 23:54:13.033156 189118 net.cpp:129] Top shape: 4 512 8 8 (131072)
I1129 23:54:13.033159 189118 net.cpp:137] Memory required for data: 2281451584
I1129 23:54:13.033164 189118 layer_factory.hpp:77] Creating layer res5a_branch2a_relu
I1129 23:54:13.033169 189118 net.cpp:84] Creating Layer res5a_branch2a_relu
I1129 23:54:13.033171 189118 net.cpp:406] res5a_branch2a_relu <- res5a_branch2a
I1129 23:54:13.033175 189118 net.cpp:367] res5a_branch2a_relu -> res5a_branch2a (in-place)
I1129 23:54:13.033180 189118 net.cpp:122] Setting up res5a_branch2a_relu
I1129 23:54:13.033185 189118 net.cpp:129] Top shape: 4 512 8 8 (131072)
I1129 23:54:13.033187 189118 net.cpp:137] Memory required for data: 2281975872
I1129 23:54:13.033190 189118 layer_factory.hpp:77] Creating layer res5a_branch2b
I1129 23:54:13.033198 189118 net.cpp:84] Creating Layer res5a_branch2b
I1129 23:54:13.033205 189118 net.cpp:406] res5a_branch2b <- res5a_branch2a
I1129 23:54:13.033216 189118 net.cpp:380] res5a_branch2b -> res5a_branch2b
I1129 23:54:13.054577 189118 net.cpp:122] Setting up res5a_branch2b
I1129 23:54:13.054591 189118 net.cpp:129] Top shape: 4 512 8 8 (131072)
I1129 23:54:13.054594 189118 net.cpp:137] Memory required for data: 2282500160
I1129 23:54:13.054600 189118 layer_factory.hpp:77] Creating layer bn5a_branch2b
I1129 23:54:13.054605 189118 net.cpp:84] Creating Layer bn5a_branch2b
I1129 23:54:13.054610 189118 net.cpp:406] bn5a_branch2b <- res5a_branch2b
I1129 23:54:13.054615 189118 net.cpp:367] bn5a_branch2b -> res5a_branch2b (in-place)
I1129 23:54:13.054788 189118 net.cpp:122] Setting up bn5a_branch2b
I1129 23:54:13.054795 189118 net.cpp:129] Top shape: 4 512 8 8 (131072)
I1129 23:54:13.054798 189118 net.cpp:137] Memory required for data: 2283024448
I1129 23:54:13.054805 189118 layer_factory.hpp:77] Creating layer scale5a_branch2b
I1129 23:54:13.054810 189118 net.cpp:84] Creating Layer scale5a_branch2b
I1129 23:54:13.054813 189118 net.cpp:406] scale5a_branch2b <- res5a_branch2b
I1129 23:54:13.054817 189118 net.cpp:367] scale5a_branch2b -> res5a_branch2b (in-place)
I1129 23:54:13.054855 189118 layer_factory.hpp:77] Creating layer scale5a_branch2b
I1129 23:54:13.054956 189118 net.cpp:122] Setting up scale5a_branch2b
I1129 23:54:13.054962 189118 net.cpp:129] Top shape: 4 512 8 8 (131072)
I1129 23:54:13.054966 189118 net.cpp:137] Memory required for data: 2283548736
I1129 23:54:13.054971 189118 layer_factory.hpp:77] Creating layer res5a_branch2b_relu
I1129 23:54:13.054975 189118 net.cpp:84] Creating Layer res5a_branch2b_relu
I1129 23:54:13.054978 189118 net.cpp:406] res5a_branch2b_relu <- res5a_branch2b
I1129 23:54:13.054985 189118 net.cpp:367] res5a_branch2b_relu -> res5a_branch2b (in-place)
I1129 23:54:13.054989 189118 net.cpp:122] Setting up res5a_branch2b_relu
I1129 23:54:13.054993 189118 net.cpp:129] Top shape: 4 512 8 8 (131072)
I1129 23:54:13.054996 189118 net.cpp:137] Memory required for data: 2284073024
I1129 23:54:13.054999 189118 layer_factory.hpp:77] Creating layer res5a_branch2c
I1129 23:54:13.055006 189118 net.cpp:84] Creating Layer res5a_branch2c
I1129 23:54:13.055008 189118 net.cpp:406] res5a_branch2c <- res5a_branch2b
I1129 23:54:13.055013 189118 net.cpp:380] res5a_branch2c -> res5a_branch2c
I1129 23:54:13.064699 189118 net.cpp:122] Setting up res5a_branch2c
I1129 23:54:13.064710 189118 net.cpp:129] Top shape: 4 2048 8 8 (524288)
I1129 23:54:13.064713 189118 net.cpp:137] Memory required for data: 2286170176
I1129 23:54:13.064718 189118 layer_factory.hpp:77] Creating layer bn5a_branch2c
I1129 23:54:13.064723 189118 net.cpp:84] Creating Layer bn5a_branch2c
I1129 23:54:13.064728 189118 net.cpp:406] bn5a_branch2c <- res5a_branch2c
I1129 23:54:13.064731 189118 net.cpp:367] bn5a_branch2c -> res5a_branch2c (in-place)
I1129 23:54:13.064908 189118 net.cpp:122] Setting up bn5a_branch2c
I1129 23:54:13.064916 189118 net.cpp:129] Top shape: 4 2048 8 8 (524288)
I1129 23:54:13.064919 189118 net.cpp:137] Memory required for data: 2288267328
I1129 23:54:13.064925 189118 layer_factory.hpp:77] Creating layer scale5a_branch2c
I1129 23:54:13.064930 189118 net.cpp:84] Creating Layer scale5a_branch2c
I1129 23:54:13.064934 189118 net.cpp:406] scale5a_branch2c <- res5a_branch2c
I1129 23:54:13.064939 189118 net.cpp:367] scale5a_branch2c -> res5a_branch2c (in-place)
I1129 23:54:13.064978 189118 layer_factory.hpp:77] Creating layer scale5a_branch2c
I1129 23:54:13.065083 189118 net.cpp:122] Setting up scale5a_branch2c
I1129 23:54:13.065089 189118 net.cpp:129] Top shape: 4 2048 8 8 (524288)
I1129 23:54:13.065093 189118 net.cpp:137] Memory required for data: 2290364480
I1129 23:54:13.065098 189118 layer_factory.hpp:77] Creating layer res5a
I1129 23:54:13.065105 189118 net.cpp:84] Creating Layer res5a
I1129 23:54:13.065110 189118 net.cpp:406] res5a <- res5a_branch1
I1129 23:54:13.065114 189118 net.cpp:406] res5a <- res5a_branch2c
I1129 23:54:13.065119 189118 net.cpp:380] res5a -> res5a
I1129 23:54:13.065143 189118 net.cpp:122] Setting up res5a
I1129 23:54:13.065155 189118 net.cpp:129] Top shape: 4 2048 8 8 (524288)
I1129 23:54:13.065158 189118 net.cpp:137] Memory required for data: 2292461632
I1129 23:54:13.065161 189118 layer_factory.hpp:77] Creating layer res5a_relu
I1129 23:54:13.065165 189118 net.cpp:84] Creating Layer res5a_relu
I1129 23:54:13.065170 189118 net.cpp:406] res5a_relu <- res5a
I1129 23:54:13.065174 189118 net.cpp:367] res5a_relu -> res5a (in-place)
I1129 23:54:13.065179 189118 net.cpp:122] Setting up res5a_relu
I1129 23:54:13.065183 189118 net.cpp:129] Top shape: 4 2048 8 8 (524288)
I1129 23:54:13.065186 189118 net.cpp:137] Memory required for data: 2294558784
I1129 23:54:13.065189 189118 layer_factory.hpp:77] Creating layer res5a_res5a_relu_0_split
I1129 23:54:13.065193 189118 net.cpp:84] Creating Layer res5a_res5a_relu_0_split
I1129 23:54:13.065196 189118 net.cpp:406] res5a_res5a_relu_0_split <- res5a
I1129 23:54:13.065201 189118 net.cpp:380] res5a_res5a_relu_0_split -> res5a_res5a_relu_0_split_0
I1129 23:54:13.065207 189118 net.cpp:380] res5a_res5a_relu_0_split -> res5a_res5a_relu_0_split_1
I1129 23:54:13.065237 189118 net.cpp:122] Setting up res5a_res5a_relu_0_split
I1129 23:54:13.065241 189118 net.cpp:129] Top shape: 4 2048 8 8 (524288)
I1129 23:54:13.065245 189118 net.cpp:129] Top shape: 4 2048 8 8 (524288)
I1129 23:54:13.065248 189118 net.cpp:137] Memory required for data: 2298753088
I1129 23:54:13.065250 189118 layer_factory.hpp:77] Creating layer res5b_branch2a
I1129 23:54:13.065256 189118 net.cpp:84] Creating Layer res5b_branch2a
I1129 23:54:13.065260 189118 net.cpp:406] res5b_branch2a <- res5a_res5a_relu_0_split_0
I1129 23:54:13.065266 189118 net.cpp:380] res5b_branch2a -> res5b_branch2a
I1129 23:54:13.074985 189118 net.cpp:122] Setting up res5b_branch2a
I1129 23:54:13.074996 189118 net.cpp:129] Top shape: 4 512 8 8 (131072)
I1129 23:54:13.075001 189118 net.cpp:137] Memory required for data: 2299277376
I1129 23:54:13.075004 189118 layer_factory.hpp:77] Creating layer bn5b_branch2a
I1129 23:54:13.075009 189118 net.cpp:84] Creating Layer bn5b_branch2a
I1129 23:54:13.075013 189118 net.cpp:406] bn5b_branch2a <- res5b_branch2a
I1129 23:54:13.075018 189118 net.cpp:367] bn5b_branch2a -> res5b_branch2a (in-place)
I1129 23:54:13.075186 189118 net.cpp:122] Setting up bn5b_branch2a
I1129 23:54:13.075192 189118 net.cpp:129] Top shape: 4 512 8 8 (131072)
I1129 23:54:13.075196 189118 net.cpp:137] Memory required for data: 2299801664
I1129 23:54:13.075201 189118 layer_factory.hpp:77] Creating layer scale5b_branch2a
I1129 23:54:13.075208 189118 net.cpp:84] Creating Layer scale5b_branch2a
I1129 23:54:13.075212 189118 net.cpp:406] scale5b_branch2a <- res5b_branch2a
I1129 23:54:13.075217 189118 net.cpp:367] scale5b_branch2a -> res5b_branch2a (in-place)
I1129 23:54:13.075254 189118 layer_factory.hpp:77] Creating layer scale5b_branch2a
I1129 23:54:13.075361 189118 net.cpp:122] Setting up scale5b_branch2a
I1129 23:54:13.075368 189118 net.cpp:129] Top shape: 4 512 8 8 (131072)
I1129 23:54:13.075371 189118 net.cpp:137] Memory required for data: 2300325952
I1129 23:54:13.075376 189118 layer_factory.hpp:77] Creating layer res5b_branch2a_relu
I1129 23:54:13.075381 189118 net.cpp:84] Creating Layer res5b_branch2a_relu
I1129 23:54:13.075384 189118 net.cpp:406] res5b_branch2a_relu <- res5b_branch2a
I1129 23:54:13.075389 189118 net.cpp:367] res5b_branch2a_relu -> res5b_branch2a (in-place)
I1129 23:54:13.075394 189118 net.cpp:122] Setting up res5b_branch2a_relu
I1129 23:54:13.075398 189118 net.cpp:129] Top shape: 4 512 8 8 (131072)
I1129 23:54:13.075402 189118 net.cpp:137] Memory required for data: 2300850240
I1129 23:54:13.075404 189118 layer_factory.hpp:77] Creating layer res5b_branch2b
I1129 23:54:13.075412 189118 net.cpp:84] Creating Layer res5b_branch2b
I1129 23:54:13.075415 189118 net.cpp:406] res5b_branch2b <- res5b_branch2a
I1129 23:54:13.075419 189118 net.cpp:380] res5b_branch2b -> res5b_branch2b
I1129 23:54:13.097609 189118 net.cpp:122] Setting up res5b_branch2b
I1129 23:54:13.097627 189118 net.cpp:129] Top shape: 4 512 8 8 (131072)
I1129 23:54:13.097637 189118 net.cpp:137] Memory required for data: 2301374528
I1129 23:54:13.097642 189118 layer_factory.hpp:77] Creating layer bn5b_branch2b
I1129 23:54:13.097651 189118 net.cpp:84] Creating Layer bn5b_branch2b
I1129 23:54:13.097654 189118 net.cpp:406] bn5b_branch2b <- res5b_branch2b
I1129 23:54:13.097659 189118 net.cpp:367] bn5b_branch2b -> res5b_branch2b (in-place)
I1129 23:54:13.097832 189118 net.cpp:122] Setting up bn5b_branch2b
I1129 23:54:13.097838 189118 net.cpp:129] Top shape: 4 512 8 8 (131072)
I1129 23:54:13.097841 189118 net.cpp:137] Memory required for data: 2301898816
I1129 23:54:13.097847 189118 layer_factory.hpp:77] Creating layer scale5b_branch2b
I1129 23:54:13.097852 189118 net.cpp:84] Creating Layer scale5b_branch2b
I1129 23:54:13.097856 189118 net.cpp:406] scale5b_branch2b <- res5b_branch2b
I1129 23:54:13.097862 189118 net.cpp:367] scale5b_branch2b -> res5b_branch2b (in-place)
I1129 23:54:13.097898 189118 layer_factory.hpp:77] Creating layer scale5b_branch2b
I1129 23:54:13.097997 189118 net.cpp:122] Setting up scale5b_branch2b
I1129 23:54:13.098006 189118 net.cpp:129] Top shape: 4 512 8 8 (131072)
I1129 23:54:13.098009 189118 net.cpp:137] Memory required for data: 2302423104
I1129 23:54:13.098014 189118 layer_factory.hpp:77] Creating layer res5b_branch2b_relu
I1129 23:54:13.098018 189118 net.cpp:84] Creating Layer res5b_branch2b_relu
I1129 23:54:13.098021 189118 net.cpp:406] res5b_branch2b_relu <- res5b_branch2b
I1129 23:54:13.098026 189118 net.cpp:367] res5b_branch2b_relu -> res5b_branch2b (in-place)
I1129 23:54:13.098031 189118 net.cpp:122] Setting up res5b_branch2b_relu
I1129 23:54:13.098034 189118 net.cpp:129] Top shape: 4 512 8 8 (131072)
I1129 23:54:13.098037 189118 net.cpp:137] Memory required for data: 2302947392
I1129 23:54:13.098040 189118 layer_factory.hpp:77] Creating layer res5b_branch2c
I1129 23:54:13.098047 189118 net.cpp:84] Creating Layer res5b_branch2c
I1129 23:54:13.098050 189118 net.cpp:406] res5b_branch2c <- res5b_branch2b
I1129 23:54:13.098057 189118 net.cpp:380] res5b_branch2c -> res5b_branch2c
I1129 23:54:13.107987 189118 net.cpp:122] Setting up res5b_branch2c
I1129 23:54:13.108000 189118 net.cpp:129] Top shape: 4 2048 8 8 (524288)
I1129 23:54:13.108001 189118 net.cpp:137] Memory required for data: 2305044544
I1129 23:54:13.108006 189118 layer_factory.hpp:77] Creating layer bn5b_branch2c
I1129 23:54:13.108011 189118 net.cpp:84] Creating Layer bn5b_branch2c
I1129 23:54:13.108016 189118 net.cpp:406] bn5b_branch2c <- res5b_branch2c
I1129 23:54:13.108021 189118 net.cpp:367] bn5b_branch2c -> res5b_branch2c (in-place)
I1129 23:54:13.108196 189118 net.cpp:122] Setting up bn5b_branch2c
I1129 23:54:13.108203 189118 net.cpp:129] Top shape: 4 2048 8 8 (524288)
I1129 23:54:13.108206 189118 net.cpp:137] Memory required for data: 2307141696
I1129 23:54:13.108211 189118 layer_factory.hpp:77] Creating layer scale5b_branch2c
I1129 23:54:13.108217 189118 net.cpp:84] Creating Layer scale5b_branch2c
I1129 23:54:13.108220 189118 net.cpp:406] scale5b_branch2c <- res5b_branch2c
I1129 23:54:13.108224 189118 net.cpp:367] scale5b_branch2c -> res5b_branch2c (in-place)
I1129 23:54:13.108263 189118 layer_factory.hpp:77] Creating layer scale5b_branch2c
I1129 23:54:13.108368 189118 net.cpp:122] Setting up scale5b_branch2c
I1129 23:54:13.108376 189118 net.cpp:129] Top shape: 4 2048 8 8 (524288)
I1129 23:54:13.108378 189118 net.cpp:137] Memory required for data: 2309238848
I1129 23:54:13.108383 189118 layer_factory.hpp:77] Creating layer res5b
I1129 23:54:13.108388 189118 net.cpp:84] Creating Layer res5b
I1129 23:54:13.108392 189118 net.cpp:406] res5b <- res5a_res5a_relu_0_split_1
I1129 23:54:13.108397 189118 net.cpp:406] res5b <- res5b_branch2c
I1129 23:54:13.108402 189118 net.cpp:380] res5b -> res5b
I1129 23:54:13.108422 189118 net.cpp:122] Setting up res5b
I1129 23:54:13.108428 189118 net.cpp:129] Top shape: 4 2048 8 8 (524288)
I1129 23:54:13.108429 189118 net.cpp:137] Memory required for data: 2311336000
I1129 23:54:13.108433 189118 layer_factory.hpp:77] Creating layer res5b_relu
I1129 23:54:13.108443 189118 net.cpp:84] Creating Layer res5b_relu
I1129 23:54:13.108451 189118 net.cpp:406] res5b_relu <- res5b
I1129 23:54:13.108455 189118 net.cpp:367] res5b_relu -> res5b (in-place)
I1129 23:54:13.108460 189118 net.cpp:122] Setting up res5b_relu
I1129 23:54:13.108464 189118 net.cpp:129] Top shape: 4 2048 8 8 (524288)
I1129 23:54:13.108467 189118 net.cpp:137] Memory required for data: 2313433152
I1129 23:54:13.108469 189118 layer_factory.hpp:77] Creating layer res5b_res5b_relu_0_split
I1129 23:54:13.108476 189118 net.cpp:84] Creating Layer res5b_res5b_relu_0_split
I1129 23:54:13.108479 189118 net.cpp:406] res5b_res5b_relu_0_split <- res5b
I1129 23:54:13.108484 189118 net.cpp:380] res5b_res5b_relu_0_split -> res5b_res5b_relu_0_split_0
I1129 23:54:13.108489 189118 net.cpp:380] res5b_res5b_relu_0_split -> res5b_res5b_relu_0_split_1
I1129 23:54:13.108520 189118 net.cpp:122] Setting up res5b_res5b_relu_0_split
I1129 23:54:13.108525 189118 net.cpp:129] Top shape: 4 2048 8 8 (524288)
I1129 23:54:13.108530 189118 net.cpp:129] Top shape: 4 2048 8 8 (524288)
I1129 23:54:13.108531 189118 net.cpp:137] Memory required for data: 2317627456
I1129 23:54:13.108534 189118 layer_factory.hpp:77] Creating layer res5c_branch2a
I1129 23:54:13.108542 189118 net.cpp:84] Creating Layer res5c_branch2a
I1129 23:54:13.108546 189118 net.cpp:406] res5c_branch2a <- res5b_res5b_relu_0_split_0
I1129 23:54:13.108551 189118 net.cpp:380] res5c_branch2a -> res5c_branch2a
I1129 23:54:13.118427 189118 net.cpp:122] Setting up res5c_branch2a
I1129 23:54:13.118439 189118 net.cpp:129] Top shape: 4 512 8 8 (131072)
I1129 23:54:13.118443 189118 net.cpp:137] Memory required for data: 2318151744
I1129 23:54:13.118448 189118 layer_factory.hpp:77] Creating layer bn5c_branch2a
I1129 23:54:13.118453 189118 net.cpp:84] Creating Layer bn5c_branch2a
I1129 23:54:13.118456 189118 net.cpp:406] bn5c_branch2a <- res5c_branch2a
I1129 23:54:13.118463 189118 net.cpp:367] bn5c_branch2a -> res5c_branch2a (in-place)
I1129 23:54:13.118634 189118 net.cpp:122] Setting up bn5c_branch2a
I1129 23:54:13.118641 189118 net.cpp:129] Top shape: 4 512 8 8 (131072)
I1129 23:54:13.118643 189118 net.cpp:137] Memory required for data: 2318676032
I1129 23:54:13.118650 189118 layer_factory.hpp:77] Creating layer scale5c_branch2a
I1129 23:54:13.118655 189118 net.cpp:84] Creating Layer scale5c_branch2a
I1129 23:54:13.118659 189118 net.cpp:406] scale5c_branch2a <- res5c_branch2a
I1129 23:54:13.118662 189118 net.cpp:367] scale5c_branch2a -> res5c_branch2a (in-place)
I1129 23:54:13.118700 189118 layer_factory.hpp:77] Creating layer scale5c_branch2a
I1129 23:54:13.118804 189118 net.cpp:122] Setting up scale5c_branch2a
I1129 23:54:13.118811 189118 net.cpp:129] Top shape: 4 512 8 8 (131072)
I1129 23:54:13.118813 189118 net.cpp:137] Memory required for data: 2319200320
I1129 23:54:13.118819 189118 layer_factory.hpp:77] Creating layer res5c_branch2a_relu
I1129 23:54:13.118825 189118 net.cpp:84] Creating Layer res5c_branch2a_relu
I1129 23:54:13.118829 189118 net.cpp:406] res5c_branch2a_relu <- res5c_branch2a
I1129 23:54:13.118834 189118 net.cpp:367] res5c_branch2a_relu -> res5c_branch2a (in-place)
I1129 23:54:13.118839 189118 net.cpp:122] Setting up res5c_branch2a_relu
I1129 23:54:13.118842 189118 net.cpp:129] Top shape: 4 512 8 8 (131072)
I1129 23:54:13.118845 189118 net.cpp:137] Memory required for data: 2319724608
I1129 23:54:13.118849 189118 layer_factory.hpp:77] Creating layer res5c_branch2b
I1129 23:54:13.118854 189118 net.cpp:84] Creating Layer res5c_branch2b
I1129 23:54:13.118857 189118 net.cpp:406] res5c_branch2b <- res5c_branch2a
I1129 23:54:13.118863 189118 net.cpp:380] res5c_branch2b -> res5c_branch2b
I1129 23:54:13.140827 189118 net.cpp:122] Setting up res5c_branch2b
I1129 23:54:13.140841 189118 net.cpp:129] Top shape: 4 512 8 8 (131072)
I1129 23:54:13.140844 189118 net.cpp:137] Memory required for data: 2320248896
I1129 23:54:13.140848 189118 layer_factory.hpp:77] Creating layer bn5c_branch2b
I1129 23:54:13.140854 189118 net.cpp:84] Creating Layer bn5c_branch2b
I1129 23:54:13.140862 189118 net.cpp:406] bn5c_branch2b <- res5c_branch2b
I1129 23:54:13.140873 189118 net.cpp:367] bn5c_branch2b -> res5c_branch2b (in-place)
I1129 23:54:13.141046 189118 net.cpp:122] Setting up bn5c_branch2b
I1129 23:54:13.141052 189118 net.cpp:129] Top shape: 4 512 8 8 (131072)
I1129 23:54:13.141055 189118 net.cpp:137] Memory required for data: 2320773184
I1129 23:54:13.141062 189118 layer_factory.hpp:77] Creating layer scale5c_branch2b
I1129 23:54:13.141069 189118 net.cpp:84] Creating Layer scale5c_branch2b
I1129 23:54:13.141073 189118 net.cpp:406] scale5c_branch2b <- res5c_branch2b
I1129 23:54:13.141078 189118 net.cpp:367] scale5c_branch2b -> res5c_branch2b (in-place)
I1129 23:54:13.141116 189118 layer_factory.hpp:77] Creating layer scale5c_branch2b
I1129 23:54:13.141222 189118 net.cpp:122] Setting up scale5c_branch2b
I1129 23:54:13.141229 189118 net.cpp:129] Top shape: 4 512 8 8 (131072)
I1129 23:54:13.141232 189118 net.cpp:137] Memory required for data: 2321297472
I1129 23:54:13.141237 189118 layer_factory.hpp:77] Creating layer res5c_branch2b_relu
I1129 23:54:13.141242 189118 net.cpp:84] Creating Layer res5c_branch2b_relu
I1129 23:54:13.141245 189118 net.cpp:406] res5c_branch2b_relu <- res5c_branch2b
I1129 23:54:13.141252 189118 net.cpp:367] res5c_branch2b_relu -> res5c_branch2b (in-place)
I1129 23:54:13.141255 189118 net.cpp:122] Setting up res5c_branch2b_relu
I1129 23:54:13.141259 189118 net.cpp:129] Top shape: 4 512 8 8 (131072)
I1129 23:54:13.141263 189118 net.cpp:137] Memory required for data: 2321821760
I1129 23:54:13.141265 189118 layer_factory.hpp:77] Creating layer res5c_branch2c
I1129 23:54:13.141273 189118 net.cpp:84] Creating Layer res5c_branch2c
I1129 23:54:13.141276 189118 net.cpp:406] res5c_branch2c <- res5c_branch2b
I1129 23:54:13.141280 189118 net.cpp:380] res5c_branch2c -> res5c_branch2c
I1129 23:54:13.151070 189118 net.cpp:122] Setting up res5c_branch2c
I1129 23:54:13.151082 189118 net.cpp:129] Top shape: 4 2048 8 8 (524288)
I1129 23:54:13.151085 189118 net.cpp:137] Memory required for data: 2323918912
I1129 23:54:13.151089 189118 layer_factory.hpp:77] Creating layer bn5c_branch2c
I1129 23:54:13.151096 189118 net.cpp:84] Creating Layer bn5c_branch2c
I1129 23:54:13.151100 189118 net.cpp:406] bn5c_branch2c <- res5c_branch2c
I1129 23:54:13.151104 189118 net.cpp:367] bn5c_branch2c -> res5c_branch2c (in-place)
I1129 23:54:13.151278 189118 net.cpp:122] Setting up bn5c_branch2c
I1129 23:54:13.151285 189118 net.cpp:129] Top shape: 4 2048 8 8 (524288)
I1129 23:54:13.151288 189118 net.cpp:137] Memory required for data: 2326016064
I1129 23:54:13.151293 189118 layer_factory.hpp:77] Creating layer scale5c_branch2c
I1129 23:54:13.151298 189118 net.cpp:84] Creating Layer scale5c_branch2c
I1129 23:54:13.151302 189118 net.cpp:406] scale5c_branch2c <- res5c_branch2c
I1129 23:54:13.151307 189118 net.cpp:367] scale5c_branch2c -> res5c_branch2c (in-place)
I1129 23:54:13.151350 189118 layer_factory.hpp:77] Creating layer scale5c_branch2c
I1129 23:54:13.151455 189118 net.cpp:122] Setting up scale5c_branch2c
I1129 23:54:13.151463 189118 net.cpp:129] Top shape: 4 2048 8 8 (524288)
I1129 23:54:13.151464 189118 net.cpp:137] Memory required for data: 2328113216
I1129 23:54:13.151469 189118 layer_factory.hpp:77] Creating layer res5c
I1129 23:54:13.151477 189118 net.cpp:84] Creating Layer res5c
I1129 23:54:13.151481 189118 net.cpp:406] res5c <- res5b_res5b_relu_0_split_1
I1129 23:54:13.151485 189118 net.cpp:406] res5c <- res5c_branch2c
I1129 23:54:13.151489 189118 net.cpp:380] res5c -> res5c
I1129 23:54:13.151510 189118 net.cpp:122] Setting up res5c
I1129 23:54:13.151516 189118 net.cpp:129] Top shape: 4 2048 8 8 (524288)
I1129 23:54:13.151520 189118 net.cpp:137] Memory required for data: 2330210368
I1129 23:54:13.151522 189118 layer_factory.hpp:77] Creating layer res5c_relu
I1129 23:54:13.151526 189118 net.cpp:84] Creating Layer res5c_relu
I1129 23:54:13.151530 189118 net.cpp:406] res5c_relu <- res5c
I1129 23:54:13.151535 189118 net.cpp:367] res5c_relu -> res5c (in-place)
I1129 23:54:13.151545 189118 net.cpp:122] Setting up res5c_relu
I1129 23:54:13.151553 189118 net.cpp:129] Top shape: 4 2048 8 8 (524288)
I1129 23:54:13.151557 189118 net.cpp:137] Memory required for data: 2332307520
I1129 23:54:13.151561 189118 layer_factory.hpp:77] Creating layer pool5
I1129 23:54:13.151566 189118 net.cpp:84] Creating Layer pool5
I1129 23:54:13.151568 189118 net.cpp:406] pool5 <- res5c
I1129 23:54:13.151573 189118 net.cpp:380] pool5 -> pool5
I1129 23:54:13.151595 189118 net.cpp:122] Setting up pool5
I1129 23:54:13.151600 189118 net.cpp:129] Top shape: 4 2048 2 2 (32768)
I1129 23:54:13.151603 189118 net.cpp:137] Memory required for data: 2332438592
I1129 23:54:13.151607 189118 layer_factory.hpp:77] Creating layer fcfine
I1129 23:54:13.151613 189118 net.cpp:84] Creating Layer fcfine
I1129 23:54:13.151617 189118 net.cpp:406] fcfine <- pool5
I1129 23:54:13.151620 189118 net.cpp:380] fcfine -> fcfine
I1129 23:54:13.155580 189118 net.cpp:122] Setting up fcfine
I1129 23:54:13.155589 189118 net.cpp:129] Top shape: 4 80 (320)
I1129 23:54:13.155592 189118 net.cpp:137] Memory required for data: 2332439872
I1129 23:54:13.155597 189118 layer_factory.hpp:77] Creating layer fcfine_fcfine_0_split
I1129 23:54:13.155604 189118 net.cpp:84] Creating Layer fcfine_fcfine_0_split
I1129 23:54:13.155607 189118 net.cpp:406] fcfine_fcfine_0_split <- fcfine
I1129 23:54:13.155616 189118 net.cpp:380] fcfine_fcfine_0_split -> fcfine_fcfine_0_split_0
I1129 23:54:13.155622 189118 net.cpp:380] fcfine_fcfine_0_split -> fcfine_fcfine_0_split_1
I1129 23:54:13.155627 189118 net.cpp:380] fcfine_fcfine_0_split -> fcfine_fcfine_0_split_2
I1129 23:54:13.155670 189118 net.cpp:122] Setting up fcfine_fcfine_0_split
I1129 23:54:13.155675 189118 net.cpp:129] Top shape: 4 80 (320)
I1129 23:54:13.155678 189118 net.cpp:129] Top shape: 4 80 (320)
I1129 23:54:13.155681 189118 net.cpp:129] Top shape: 4 80 (320)
I1129 23:54:13.155683 189118 net.cpp:137] Memory required for data: 2332443712
I1129 23:54:13.155686 189118 layer_factory.hpp:77] Creating layer loss
I1129 23:54:13.155691 189118 net.cpp:84] Creating Layer loss
I1129 23:54:13.155694 189118 net.cpp:406] loss <- fcfine_fcfine_0_split_0
I1129 23:54:13.155699 189118 net.cpp:406] loss <- label_data_1_split_0
I1129 23:54:13.155702 189118 net.cpp:380] loss -> loss
…
