…
I1128 23:07:53.804571 173035 net.cpp:294] The NetState phase (0) differed from the phase (1) specified by a rule in layer acc/top-5
I1128 23:07:53.805204 173035 net.cpp:51] Initializing net from parameters: 
name: "ResNet-50"
state {
  phase: TRAIN
  level: 0
  stage: ""
}
layer {
  name: "data"
  type: "Python"
  top: "data"
  top: "label"
  include {
    phase: TRAIN
  }
  python_param {
    module: "data_layer_res-zscore"
    layer: "PythonDataLayer"
    param_str: "{\"path\":\"/home/yuchaohui/ych/caffe_ych/data/chaai/train/img_train_lmdb/\",\"batch_size\":18,\"input_size\":256,\"target_size\":240,\"mode\":\"train\"}"
    share_in_parallel: true
  }
}
layer {
  name: "conv1"
  type: "Convolution"
  bottom: "data"
  top: "conv1"
  convolution_param {
    num_output: 64
    bias_term: true
    pad: 3
    kernel_size: 7
    stride: 2
    weight_filler {
      type: "msra"
    }
  }
}
layer {
  name: "bn_conv1"
  type: "BatchNorm"
  bottom: "conv1"
  top: "conv1"
  batch_norm_param {
    use_global_stats: false
  }
}
layer {
  name: "scale_conv1"
  type: "Scale"
  bottom: "conv1"
  top: "conv1"
  scale_param {
    bias_term: true
  }
}
layer {
  name: "conv1_relu"
  type: "ReLU"
  bottom: "conv1"
  top: "conv1"
}
layer {
  name: "pool1"
  type: "Pooling"
  bottom: "conv1"
  top: "pool1"
  pooling_param {
    pool: MAX
    kernel_size: 3
    stride: 2
  }
}
layer {
  name: "res2a_branch1"
  type: "Convolution"
  bottom: "pool1"
  top: "res2a_branch1"
  convolution_param {
    num_output: 256
    bias_term: false
    pad: 0
    kernel_size: 1
    stride: 1
    weight_filler {
      type: "msra"
    }
  }
}
layer {
  name: "bn2a_branch1"
  type: "BatchNorm"
  bottom: "res2a_branch1"
  top: "res2a_branch1"
  batch_norm_param {
    use_global_stats: false
  }
}
layer {
  name: "scale2a_branch1"
  type: "Scale"
  bottom: "res2a_branch1"
  top: "res2a_branch1"
  scale_param {
    bias_term: true
  }
}
layer {
  name: "res2a_branch2a"
  type: "Convolution"
  bottom: "pool1"
  top: "res2a_branch2a"
  convolution_param {
    num_output: 64
    bias_term: false
    pad: 0
    kernel_size: 1
    stride: 1
    weight_filler {
      type: "msra"
    }
  }
}
layer {
  name: "bn2a_branch2a"
  type: "BatchNorm"
  bottom: "res2a_branch2a"
  top: "res2a_branch2a"
  batch_norm_param {
    use_global_stats: false
  }
}
layer {
  name: "scale2a_branch2a"
  type: "Scale"
  bottom: "res2a_branch2a"
  top: "res2a_branch2a"
  scale_param {
    bias_term: true
  }
}
layer {
  name: "res2a_branch2a_relu"
  type: "ReLU"
  bottom: "res2a_branch2a"
  top: "res2a_branch2a"
}
layer {
  name: "res2a_branch2b"
  type: "Convolution"
  bottom: "res2a_branch2a"
  top: "res2a_branch2b"
  convolution_param {
    num_output: 64
    bias_term: false
    pad: 1
    kernel_size: 3
    stride: 1
    weight_filler {
      type: "msra"
    }
  }
}
layer {
  name: "bn2a_branch2b"
  type: "BatchNorm"
  bottom: "res2a_branch2b"
  top: "res2a_branch2b"
  batch_norm_param {
    use_global_stats: false
  }
}
layer {
  name: "scale2a_branch2b"
  type: "Scale"
  bottom: "res2a_branch2b"
  top: "res2a_branch2b"
  scale_param {
    bias_term: true
  }
}
layer {
  name: "res2a_branch2b_relu"
  type: "ReLU"
  bottom: "res2a_branch2b"
  top: "res2a_branch2b"
}
layer {
  name: "res2a_branch2c"
  type: "Convolution"
  bottom: "res2a_branch2b"
  top: "res2a_branch2c"
  convolution_param {
    num_output: 256
    bias_term: false
    pad: 0
    kernel_size: 1
    stride: 1
    weight_filler {
      type: "msra"
    }
  }
}
layer {
  name: "bn2a_branch2c"
  type: "BatchNorm"
  bottom: "res2a_branch2c"
  top: "res2a_branch2c"
  batch_norm_param {
    use_global_stats: false
  }
}
layer {
  name: "scale2a_branch2c"
  type: "Scale"
  bottom: "res2a_branch2c"
  top: "res2a_branch2c"
  scale_param {
    bias_term: true
  }
}
layer {
  name: "res2a"
  type: "Eltwise"
  bottom: "res2a_branch1"
  bottom: "res2a_branch2c"
  top: "res2a"
  eltwise_param {
    operation: SUM
  }
}
layer {
  name: "res2a_relu"
  type: "ReLU"
  bottom: "res2a"
  top: "res2a"
}
layer {
  name: "res2b_branch2a"
  type: "Convolution"
  bottom: "res2a"
  top: "res2b_branch2a"
  convolution_param {
    num_output: 64
    bias_term: false
    pad: 0
    kernel_size: 1
    stride: 1
    weight_filler {
      type: "msra"
    }
  }
}
layer {
  name: "bn2b_branch2a"
  type: "BatchNorm"
  bottom: "res2b_branch2a"
  top: "res2b_branch2a"
  batch_norm_param {
    use_global_stats: false
  }
}
layer {
  name: "scale2b_branch2a"
  type: "Scale"
  bottom: "res2b_branch2a"
  top: "res2b_branch2a"
  scale_param {
    bias_term: true
  }
}
layer {
  name: "res2b_branch2a_relu"
  type: "ReLU"
  bottom: "res2b_branch2a"
  top: "res2b_branch2a"
}
layer {
  name: "res2b_branch2b"
  type: "Convolution"
  bottom: "res2b_branch2a"
  top: "res2b_branch2b"
  convolution_param {
    num_output: 64
    bias_term: false
    pad: 1
    kernel_size: 3
    stride: 1
    weight_filler {
      type: "msra"
    }
  }
}
layer {
  name: "bn2b_branch2b"
  type: "BatchNorm"
  bottom: "res2b_branch2b"
  top: "res2b_branch2b"
  batch_norm_param {
    use_global_stats: false
  }
}
layer {
  name: "scale2b_branch2b"
  type: "Scale"
  bottom: "res2b_branch2b"
  top: "res2b_branch2b"
  scale_param {
    bias_term: true
  }
}
layer {
  name: "res2b_branch2b_relu"
  type: "ReLU"
  bottom: "res2b_branch2b"
  top: "res2b_branch2b"
}
layer {
  name: "res2b_branch2c"
  type: "Convolution"
  bottom: "res2b_branch2b"
  top: "res2b_branch2c"
  convolution_param {
    num_output: 256
    bias_term: false
    pad: 0
    kernel_size: 1
    stride: 1
    weight_filler {
      type: "msra"
    }
  }
}
layer {
  name: "bn2b_branch2c"
  type: "BatchNorm"
  bottom: "res2b_branch2c"
  top: "res2b_branch2c"
  batch_norm_param {
    use_global_stats: false
  }
}
layer {
  name: "scale2b_branch2c"
  type: "Scale"
  bottom: "res2b_branch2c"
  top: "res2b_branch2c"
  scale_param {
    bias_term: true
  }
}
layer {
  name: "res2b"
  type: "Eltwise"
  bottom: "res2a"
  bottom: "res2b_branch2c"
  top: "res2b"
  eltwise_param {
    operation: SUM
  }
}
layer {
  name: "res2b_relu"
  type: "ReLU"
  bottom: "res2b"
  top: "res2b"
}
layer {
  name: "res2c_branch2a"
  type: "Convolution"
  bottom: "res2b"
  top: "res2c_branch2a"
  convolution_param {
    num_output: 64
    bias_term: false
    pad: 0
    kernel_size: 1
    stride: 1
    weight_filler {
      type: "msra"
    }
  }
}
layer {
  name: "bn2c_branch2a"
  type: "BatchNorm"
  bottom: "res2c_branch2a"
  top: "res2c_branch2a"
  batch_norm_param {
    use_global_stats: false
  }
}
layer {
  name: "scale2c_branch2a"
  type: "Scale"
  bottom: "res2c_branch2a"
  top: "res2c_branch2a"
  scale_param {
    bias_term: true
  }
}
layer {
  name: "res2c_branch2a_relu"
  type: "ReLU"
  bottom: "res2c_branch2a"
  top: "res2c_branch2a"
}
layer {
  name: "res2c_branch2b"
  type: "Convolution"
  bottom: "res2c_branch2a"
  top: "res2c_branch2b"
  convolution_param {
    num_output: 64
    bias_term: false
    pad: 1
    kernel_size: 3
    stride: 1
    weight_filler {
      type: "msra"
    }
  }
}
layer {
  name: "bn2c_branch2b"
  type: "BatchNorm"
  bottom: "res2c_branch2b"
  top: "res2c_branch2b"
  batch_norm_param {
    use_global_stats: false
  }
}
layer {
  name: "scale2c_branch2b"
  type: "Scale"
  bottom: "res2c_branch2b"
  top: "res2c_branch2b"
  scale_param {
    bias_term: true
  }
}
layer {
  name: "res2c_branch2b_relu"
  type: "ReLU"
  bottom: "res2c_branch2b"
  top: "res2c_branch2b"
}
layer {
  name: "res2c_branch2c"
  type: "Convolution"
  bottom: "res2c_branch2b"
  top: "res2c_branch2c"
  convolution_param {
    num_output: 256
    bias_term: false
    pad: 0
    kernel_size: 1
    stride: 1
    weight_filler {
      type: "msra"
    }
  }
}
layer {
  name: "bn2c_branch2c"
  type: "BatchNorm"
  bottom: "res2c_branch2c"
  top: "res2c_branch2c"
  batch_norm_param {
    use_global_stats: false
  }
}
layer {
  name: "scale2c_branch2c"
  type: "Scale"
  bottom: "res2c_branch2c"
  top: "res2c_branch2c"
  scale_param {
    bias_term: true
  }
}
layer {
  name: "res2c"
  type: "Eltwise"
  bottom: "res2b"
  bottom: "res2c_branch2c"
  top: "res2c"
  eltwise_param {
    operation: SUM
  }
}
layer {
  name: "res2c_relu"
  type: "ReLU"
  bottom: "res2c"
  top: "res2c"
}
layer {
  name: "res3a_branch1"
  type: "Convolution"
  bottom: "res2c"
  top: "res3a_branch1"
  convolution_param {
    num_output: 512
    bias_term: false
    pad: 0
    kernel_size: 1
    stride: 2
    weight_filler {
      type: "msra"
    }
  }
}
layer {
  name: "bn3a_branch1"
  type: "BatchNorm"
  bottom: "res3a_branch1"
  top: "res3a_branch1"
  batch_norm_param {
    use_global_stats: false
  }
}
layer {
  name: "scale3a_branch1"
  type: "Scale"
  bottom: "res3a_branch1"
  top: "res3a_branch1"
  scale_param {
    bias_term: true
  }
}
layer {
  name: "res3a_branch2a"
  type: "Convolution"
  bottom: "res2c"
  top: "res3a_branch2a"
  convolution_param {
    num_output: 128
    bias_term: false
    pad: 0
    kernel_size: 1
    stride: 2
    weight_filler {
      type: "msra"
    }
  }
}
layer {
  name: "bn3a_branch2a"
  type: "BatchNorm"
  bottom: "res3a_branch2a"
  top: "res3a_branch2a"
  batch_norm_param {
    use_global_stats: false
  }
}
layer {
  name: "scale3a_branch2a"
  type: "Scale"
  bottom: "res3a_branch2a"
  top: "res3a_branch2a"
  scale_param {
    bias_term: true
  }
}
layer {
  name: "res3a_branch2a_relu"
  type: "ReLU"
  bottom: "res3a_branch2a"
  top: "res3a_branch2a"
}
layer {
  name: "res3a_branch2b"
  type: "Convolution"
  bottom: "res3a_branch2a"
  top: "res3a_branch2b"
  convolution_param {
    num_output: 128
    bias_term: false
    pad: 1
    kernel_size: 3
    stride: 1
    weight_filler {
      type: "msra"
    }
  }
}
layer {
  name: "bn3a_branch2b"
  type: "BatchNorm"
  bottom: "res3a_branch2b"
  top: "res3a_branch2b"
  batch_norm_param {
    use_global_stats: false
  }
}
layer {
  name: "scale3a_branch2b"
  type: "Scale"
  bottom: "res3a_branch2b"
  top: "res3a_branch2b"
  scale_param {
    bias_term: true
  }
}
layer {
  name: "res3a_branch2b_relu"
  type: "ReLU"
  bottom: "res3a_branch2b"
  top: "res3a_branch2b"
}
layer {
  name: "res3a_branch2c"
  type: "Convolution"
  bottom: "res3a_branch2b"
  top: "res3a_branch2c"
  convolution_param {
    num_output: 512
    bias_term: false
    pad: 0
    kernel_size: 1
    stride: 1
    weight_filler {
      type: "msra"
    }
  }
}
layer {
  name: "bn3a_branch2c"
  type: "BatchNorm"
  bottom: "res3a_branch2c"
  top: "res3a_branch2c"
  batch_norm_param {
    use_global_stats: false
  }
}
layer {
  name: "scale3a_branch2c"
  type: "Scale"
  bottom: "res3a_branch2c"
  top: "res3a_branch2c"
  scale_param {
    bias_term: true
  }
}
layer {
  name: "res3a"
  type: "Eltwise"
  bottom: "res3a_branch1"
  bottom: "res3a_branch2c"
  top: "res3a"
  eltwise_param {
    operation: SUM
  }
}
layer {
  name: "res3a_relu"
  type: "ReLU"
  bottom: "res3a"
  top: "res3a"
}
layer {
  name: "res3b_branch2a"
  type: "Convolution"
  bottom: "res3a"
  top: "res3b_branch2a"
  convolution_param {
    num_output: 128
    bias_term: false
    pad: 0
    kernel_size: 1
    stride: 1
    weight_filler {
      type: "msra"
    }
  }
}
layer {
  name: "bn3b_branch2a"
  type: "BatchNorm"
  bottom: "res3b_branch2a"
  top: "res3b_branch2a"
  batch_norm_param {
    use_global_stats: false
  }
}
layer {
  name: "scale3b_branch2a"
  type: "Scale"
  bottom: "res3b_branch2a"
  top: "res3b_branch2a"
  scale_param {
    bias_term: true
  }
}
layer {
  name: "res3b_branch2a_relu"
  type: "ReLU"
  bottom: "res3b_branch2a"
  top: "res3b_branch2a"
}
layer {
  name: "res3b_branch2b"
  type: "Convolution"
  bottom: "res3b_branch2a"
  top: "res3b_branch2b"
  convolution_param {
    num_output: 128
    bias_term: false
    pad: 1
    kernel_size: 3
    stride: 1
    weight_filler {
      type: "msra"
    }
  }
}
layer {
  name: "bn3b_branch2b"
  type: "BatchNorm"
  bottom: "res3b_branch2b"
  top: "res3b_branch2b"
  batch_norm_param {
    use_global_stats: false
  }
}
layer {
  name: "scale3b_branch2b"
  type: "Scale"
  bottom: "res3b_branch2b"
  top: "res3b_branch2b"
  scale_param {
    bias_term: true
  }
}
layer {
  name: "res3b_branch2b_relu"
  type: "ReLU"
  bottom: "res3b_branch2b"
  top: "res3b_branch2b"
}
layer {
  name: "res3b_branch2c"
  type: "Convolution"
  bottom: "res3b_branch2b"
  top: "res3b_branch2c"
  convolution_param {
    num_output: 512
    bias_term: false
    pad: 0
    kernel_size: 1
    stride: 1
    weight_filler {
      type: "msra"
    }
  }
}
layer {
  name: "bn3b_branch2c"
  type: "BatchNorm"
  bottom: "res3b_branch2c"
  top: "res3b_branch2c"
  batch_norm_param {
    use_global_stats: false
  }
}
layer {
  name: "scale3b_branch2c"
  type: "Scale"
  bottom: "res3b_branch2c"
  top: "res3b_branch2c"
  scale_param {
    bias_term: true
  }
}
layer {
  name: "res3b"
  type: "Eltwise"
  bottom: "res3a"
  bottom: "res3b_branch2c"
  top: "res3b"
  eltwise_param {
    operation: SUM
  }
}
layer {
  name: "res3b_relu"
  type: "ReLU"
  bottom: "res3b"
  top: "res3b"
}
layer {
  name: "res3c_branch2a"
  type: "Convolution"
  bottom: "res3b"
  top: "res3c_branch2a"
  convolution_param {
    num_output: 128
    bias_term: false
    pad: 0
    kernel_size: 1
    stride: 1
    weight_filler {
      type: "msra"
    }
  }
}
layer {
  name: "bn3c_branch2a"
  type: "BatchNorm"
  bottom: "res3c_branch2a"
  top: "res3c_branch2a"
  batch_norm_param {
    use_global_stats: false
  }
}
layer {
  name: "scale3c_branch2a"
  type: "Scale"
  bottom: "res3c_branch2a"
  top: "res3c_branch2a"
  scale_param {
    bias_term: true
  }
}
layer {
  name: "res3c_branch2a_relu"
  type: "ReLU"
  bottom: "res3c_branch2a"
  top: "res3c_branch2a"
}
layer {
  name: "res3c_branch2b"
  type: "Convolution"
  bottom: "res3c_branch2a"
  top: "res3c_branch2b"
  convolution_param {
    num_output: 128
    bias_term: false
    pad: 1
    kernel_size: 3
    stride: 1
    weight_filler {
      type: "msra"
    }
  }
}
layer {
  name: "bn3c_branch2b"
  type: "BatchNorm"
  bottom: "res3c_branch2b"
  top: "res3c_branch2b"
  batch_norm_param {
    use_global_stats: false
  }
}
layer {
  name: "scale3c_branch2b"
  type: "Scale"
  bottom: "res3c_branch2b"
  top: "res3c_branch2b"
  scale_param {
    bias_term: true
  }
}
layer {
  name: "res3c_branch2b_relu"
  type: "ReLU"
  bottom: "res3c_branch2b"
  top: "res3c_branch2b"
}
layer {
  name: "res3c_branch2c"
  type: "Convolution"
  bottom: "res3c_branch2b"
  top: "res3c_branch2c"
  convolution_param {
    num_output: 512
    bias_term: false
    pad: 0
    kernel_size: 1
    stride: 1
    weight_filler {
      type: "msra"
    }
  }
}
layer {
  name: "bn3c_branch2c"
  type: "BatchNorm"
  bottom: "res3c_branch2c"
  top: "res3c_branch2c"
  batch_norm_param {
    use_global_stats: false
  }
}
layer {
  name: "scale3c_branch2c"
  type: "Scale"
  bottom: "res3c_branch2c"
  top: "res3c_branch2c"
  scale_param {
    bias_term: true
  }
}
layer {
  name: "res3c"
  type: "Eltwise"
  bottom: "res3b"
  bottom: "res3c_branch2c"
  top: "res3c"
  eltwise_param {
    operation: SUM
  }
}
layer {
  name: "res3c_relu"
  type: "ReLU"
  bottom: "res3c"
  top: "res3c"
}
layer {
  name: "res3d_branch2a"
  type: "Convolution"
  bottom: "res3c"
  top: "res3d_branch2a"
  convolution_param {
    num_output: 128
    bias_term: false
    pad: 0
    kernel_size: 1
    stride: 1
    weight_filler {
      type: "msra"
    }
  }
}
layer {
  name: "bn3d_branch2a"
  type: "BatchNorm"
  bottom: "res3d_branch2a"
  top: "res3d_branch2a"
  batch_norm_param {
    use_global_stats: false
  }
}
layer {
  name: "scale3d_branch2a"
  type: "Scale"
  bottom: "res3d_branch2a"
  top: "res3d_branch2a"
  scale_param {
    bias_term: true
  }
}
layer {
  name: "res3d_branch2a_relu"
  type: "ReLU"
  bottom: "res3d_branch2a"
  top: "res3d_branch2a"
}
layer {
  name: "res3d_branch2b"
  type: "Convolution"
  bottom: "res3d_branch2a"
  top: "res3d_branch2b"
  convolution_param {
    num_output: 128
    bias_term: false
    pad: 1
    kernel_size: 3
    stride: 1
    weight_filler {
      type: "msra"
    }
  }
}
layer {
  name: "bn3d_branch2b"
  type: "BatchNorm"
  bottom: "res3d_branch2b"
  top: "res3d_branch2b"
  batch_norm_param {
    use_global_stats: false
  }
}
layer {
  name: "scale3d_branch2b"
  type: "Scale"
  bottom: "res3d_branch2b"
  top: "res3d_branch2b"
  scale_param {
    bias_term: true
  }
}
layer {
  name: "res3d_branch2b_relu"
  type: "ReLU"
  bottom: "res3d_branch2b"
  top: "res3d_branch2b"
}
layer {
  name: "res3d_branch2c"
  type: "Convolution"
  bottom: "res3d_branch2b"
  top: "res3d_branch2c"
  convolution_param {
    num_output: 512
    bias_term: false
    pad: 0
    kernel_size: 1
    stride: 1
    weight_filler {
      type: "msra"
    }
  }
}
layer {
  name: "bn3d_branch2c"
  type: "BatchNorm"
  bottom: "res3d_branch2c"
  top: "res3d_branch2c"
  batch_norm_param {
    use_global_stats: false
  }
}
layer {
  name: "scale3d_branch2c"
  type: "Scale"
  bottom: "res3d_branch2c"
  top: "res3d_branch2c"
  scale_param {
    bias_term: true
  }
}
layer {
  name: "res3d"
  type: "Eltwise"
  bottom: "res3c"
  bottom: "res3d_branch2c"
  top: "res3d"
  eltwise_param {
    operation: SUM
  }
}
layer {
  name: "res3d_relu"
  type: "ReLU"
  bottom: "res3d"
  top: "res3d"
}
layer {
  name: "res4a_branch1"
  type: "Convolution"
  bottom: "res3d"
  top: "res4a_branch1"
  convolution_param {
    num_output: 1024
    bias_term: false
    pad: 0
    kernel_size: 1
    stride: 2
    weight_filler {
      type: "msra"
    }
  }
}
layer {
  name: "bn4a_branch1"
  type: "BatchNorm"
  bottom: "res4a_branch1"
  top: "res4a_branch1"
  batch_norm_param {
    use_global_stats: false
  }
}
layer {
  name: "scale4a_branch1"
  type: "Scale"
  bottom: "res4a_branch1"
  top: "res4a_branch1"
  scale_param {
    bias_term: true
  }
}
layer {
  name: "res4a_branch2a"
  type: "Convolution"
  bottom: "res3d"
  top: "res4a_branch2a"
  convolution_param {
    num_output: 256
    bias_term: false
    pad: 0
    kernel_size: 1
    stride: 2
    weight_filler {
      type: "msra"
    }
  }
}
layer {
  name: "bn4a_branch2a"
  type: "BatchNorm"
  bottom: "res4a_branch2a"
  top: "res4a_branch2a"
  batch_norm_param {
    use_global_stats: false
  }
}
layer {
  name: "scale4a_branch2a"
  type: "Scale"
  bottom: "res4a_branch2a"
  top: "res4a_branch2a"
  scale_param {
    bias_term: true
  }
}
layer {
  name: "res4a_branch2a_relu"
  type: "ReLU"
  bottom: "res4a_branch2a"
  top: "res4a_branch2a"
}
layer {
  name: "res4a_branch2b"
  type: "Convolution"
  bottom: "res4a_branch2a"
  top: "res4a_branch2b"
  convolution_param {
    num_output: 256
    bias_term: false
    pad: 1
    kernel_size: 3
    stride: 1
    weight_filler {
      type: "msra"
    }
  }
}
layer {
  name: "bn4a_branch2b"
  type: "BatchNorm"
  bottom: "res4a_branch2b"
  top: "res4a_branch2b"
  batch_norm_param {
    use_global_stats: false
  }
}
layer {
  name: "scale4a_branch2b"
  type: "Scale"
  bottom: "res4a_branch2b"
  top: "res4a_branch2b"
  scale_param {
    bias_term: true
  }
}
layer {
  name: "res4a_branch2b_relu"
  type: "ReLU"
  bottom: "res4a_branch2b"
  top: "res4a_branch2b"
}
layer {
  name: "res4a_branch2c"
  type: "Convolution"
  bottom: "res4a_branch2b"
  top: "res4a_branch2c"
  convolution_param {
    num_output: 1024
    bias_term: false
    pad: 0
    kernel_size: 1
    stride: 1
    weight_filler {
      type: "msra"
    }
  }
}
layer {
  name: "bn4a_branch2c"
  type: "BatchNorm"
  bottom: "res4a_branch2c"
  top: "res4a_branch2c"
  batch_norm_param {
    use_global_stats: false
  }
}
layer {
  name: "scale4a_branch2c"
  type: "Scale"
  bottom: "res4a_branch2c"
  top: "res4a_branch2c"
  scale_param {
    bias_term: true
  }
}
layer {
  name: "res4a"
  type: "Eltwise"
  bottom: "res4a_branch1"
  bottom: "res4a_branch2c"
  top: "res4a"
  eltwise_param {
    operation: SUM
  }
}
layer {
  name: "res4a_relu"
  type: "ReLU"
  bottom: "res4a"
  top: "res4a"
}
layer {
  name: "res4b_branch2a"
  type: "Convolution"
  bottom: "res4a"
  top: "res4b_branch2a"
  convolution_param {
    num_output: 256
    bias_term: false
    pad: 0
    kernel_size: 1
    stride: 1
    weight_filler {
      type: "msra"
    }
  }
}
layer {
  name: "bn4b_branch2a"
  type: "BatchNorm"
  bottom: "res4b_branch2a"
  top: "res4b_branch2a"
  batch_norm_param {
    use_global_stats: false
  }
}
layer {
  name: "scale4b_branch2a"
  type: "Scale"
  bottom: "res4b_branch2a"
  top: "res4b_branch2a"
  scale_param {
    bias_term: true
  }
}
layer {
  name: "res4b_branch2a_relu"
  type: "ReLU"
  bottom: "res4b_branch2a"
  top: "res4b_branch2a"
}
layer {
  name: "res4b_branch2b"
  type: "Convolution"
  bottom: "res4b_branch2a"
  top: "res4b_branch2b"
  convolution_param {
    num_output: 256
    bias_term: false
    pad: 1
    kernel_size: 3
    stride: 1
    weight_filler {
      type: "msra"
    }
  }
}
layer {
  name: "bn4b_branch2b"
  type: "BatchNorm"
  bottom: "res4b_branch2b"
  top: "res4b_branch2b"
  batch_norm_param {
    use_global_stats: false
  }
}
layer {
  name: "scale4b_branch2b"
  type: "Scale"
  bottom: "res4b_branch2b"
  top: "res4b_branch2b"
  scale_param {
    bias_term: true
  }
}
layer {
  name: "res4b_branch2b_relu"
  type: "ReLU"
  bottom: "res4b_branch2b"
  top: "res4b_branch2b"
}
layer {
  name: "res4b_branch2c"
  type: "Convolution"
  bottom: "res4b_branch2b"
  top: "res4b_branch2c"
  convolution_param {
    num_output: 1024
    bias_term: false
    pad: 0
    kernel_size: 1
    stride: 1
    weight_filler {
      type: "msra"
    }
  }
}
layer {
  name: "bn4b_branch2c"
  type: "BatchNorm"
  bottom: "res4b_branch2c"
  top: "res4b_branch2c"
  batch_norm_param {
    use_global_stats: false
  }
}
layer {
  name: "scale4b_branch2c"
  type: "Scale"
  bottom: "res4b_branch2c"
  top: "res4b_branch2c"
  scale_param {
    bias_term: true
  }
}
layer {
  name: "res4b"
  type: "Eltwise"
  bottom: "res4a"
  bottom: "res4b_branch2c"
  top: "res4b"
  eltwise_param {
    operation: SUM
  }
}
layer {
  name: "res4b_relu"
  type: "ReLU"
  bottom: "res4b"
  top: "res4b"
}
layer {
  name: "res4c_branch2a"
  type: "Convolution"
  bottom: "res4b"
  top: "res4c_branch2a"
  convolution_param {
    num_output: 256
    bias_term: false
    pad: 0
    kernel_size: 1
    stride: 1
    weight_filler {
      type: "msra"
    }
  }
}
layer {
  name: "bn4c_branch2a"
  type: "BatchNorm"
  bottom: "res4c_branch2a"
  top: "res4c_branch2a"
  batch_norm_param {
    use_global_stats: false
  }
}
layer {
  name: "scale4c_branch2a"
  type: "Scale"
  bottom: "res4c_branch2a"
  top: "res4c_branch2a"
  scale_param {
    bias_term: true
  }
}
layer {
  name: "res4c_branch2a_relu"
  type: "ReLU"
  bottom: "res4c_branch2a"
  top: "res4c_branch2a"
}
layer {
  name: "res4c_branch2b"
  type: "Convolution"
  bottom: "res4c_branch2a"
  top: "res4c_branch2b"
  convolution_param {
    num_output: 256
    bias_term: false
    pad: 1
    kernel_size: 3
    stride: 1
    weight_filler {
      type: "msra"
    }
  }
}
layer {
  name: "bn4c_branch2b"
  type: "BatchNorm"
  bottom: "res4c_branch2b"
  top: "res4c_branch2b"
  batch_norm_param {
    use_global_stats: false
  }
}
layer {
  name: "scale4c_branch2b"
  type: "Scale"
  bottom: "res4c_branch2b"
  top: "res4c_branch2b"
  scale_param {
    bias_term: true
  }
}
layer {
  name: "res4c_branch2b_relu"
  type: "ReLU"
  bottom: "res4c_branch2b"
  top: "res4c_branch2b"
}
layer {
  name: "res4c_branch2c"
  type: "Convolution"
  bottom: "res4c_branch2b"
  top: "res4c_branch2c"
  convolution_param {
    num_output: 1024
    bias_term: false
    pad: 0
    kernel_size: 1
    stride: 1
    weight_filler {
      type: "msra"
    }
  }
}
layer {
  name: "bn4c_branch2c"
  type: "BatchNorm"
  bottom: "res4c_branch2c"
  top: "res4c_branch2c"
  batch_norm_param {
    use_global_stats: false
  }
}
layer {
  name: "scale4c_branch2c"
  type: "Scale"
  bottom: "res4c_branch2c"
  top: "res4c_branch2c"
  scale_param {
    bias_term: true
  }
}
layer {
  name: "res4c"
  type: "Eltwise"
  bottom: "res4b"
  bottom: "res4c_branch2c"
  top: "res4c"
  eltwise_param {
    operation: SUM
  }
}
layer {
  name: "res4c_relu"
  type: "ReLU"
  bottom: "res4c"
  top: "res4c"
}
layer {
  name: "res4d_branch2a"
  type: "Convolution"
  bottom: "res4c"
  top: "res4d_branch2a"
  convolution_param {
    num_output: 256
    bias_term: false
    pad: 0
    kernel_size: 1
    stride: 1
    weight_filler {
      type: "msra"
    }
  }
}
layer {
  name: "bn4d_branch2a"
  type: "BatchNorm"
  bottom: "res4d_branch2a"
  top: "res4d_branch2a"
  batch_norm_param {
    use_global_stats: false
  }
}
layer {
  name: "scale4d_branch2a"
  type: "Scale"
  bottom: "res4d_branch2a"
  top: "res4d_branch2a"
  scale_param {
    bias_term: true
  }
}
layer {
  name: "res4d_branch2a_relu"
  type: "ReLU"
  bottom: "res4d_branch2a"
  top: "res4d_branch2a"
}
layer {
  name: "res4d_branch2b"
  type: "Convolution"
  bottom: "res4d_branch2a"
  top: "res4d_branch2b"
  convolution_param {
    num_output: 256
    bias_term: false
    pad: 1
    kernel_size: 3
    stride: 1
    weight_filler {
      type: "msra"
    }
  }
}
layer {
  name: "bn4d_branch2b"
  type: "BatchNorm"
  bottom: "res4d_branch2b"
  top: "res4d_branch2b"
  batch_norm_param {
    use_global_stats: false
  }
}
layer {
  name: "scale4d_branch2b"
  type: "Scale"
  bottom: "res4d_branch2b"
  top: "res4d_branch2b"
  scale_param {
    bias_term: true
  }
}
layer {
  name: "res4d_branch2b_relu"
  type: "ReLU"
  bottom: "res4d_branch2b"
  top: "res4d_branch2b"
}
layer {
  name: "res4d_branch2c"
  type: "Convolution"
  bottom: "res4d_branch2b"
  top: "res4d_branch2c"
  convolution_param {
    num_output: 1024
    bias_term: false
    pad: 0
    kernel_size: 1
    stride: 1
    weight_filler {
      type: "msra"
    }
  }
}
layer {
  name: "bn4d_branch2c"
  type: "BatchNorm"
  bottom: "res4d_branch2c"
  top: "res4d_branch2c"
  batch_norm_param {
    use_global_stats: false
  }
}
layer {
  name: "scale4d_branch2c"
  type: "Scale"
  bottom: "res4d_branch2c"
  top: "res4d_branch2c"
  scale_param {
    bias_term: true
  }
}
layer {
  name: "res4d"
  type: "Eltwise"
  bottom: "res4c"
  bottom: "res4d_branch2c"
  top: "res4d"
  eltwise_param {
    operation: SUM
  }
}
layer {
  name: "res4d_relu"
  type: "ReLU"
  bottom: "res4d"
  top: "res4d"
}
layer {
  name: "res4e_branch2a"
  type: "Convolution"
  bottom: "res4d"
  top: "res4e_branch2a"
  convolution_param {
    num_output: 256
    bias_term: false
    pad: 0
    kernel_size: 1
    stride: 1
    weight_filler {
      type: "msra"
    }
  }
}
layer {
  name: "bn4e_branch2a"
  type: "BatchNorm"
  bottom: "res4e_branch2a"
  top: "res4e_branch2a"
  batch_norm_param {
    use_global_stats: false
  }
}
layer {
  name: "scale4e_branch2a"
  type: "Scale"
  bottom: "res4e_branch2a"
  top: "res4e_branch2a"
  scale_param {
    bias_term: true
  }
}
layer {
  name: "res4e_branch2a_relu"
  type: "ReLU"
  bottom: "res4e_branch2a"
  top: "res4e_branch2a"
}
layer {
  name: "res4e_branch2b"
  type: "Convolution"
  bottom: "res4e_branch2a"
  top: "res4e_branch2b"
  convolution_param {
    num_output: 256
    bias_term: false
    pad: 1
    kernel_size: 3
    stride: 1
    weight_filler {
      type: "msra"
    }
  }
}
layer {
  name: "bn4e_branch2b"
  type: "BatchNorm"
  bottom: "res4e_branch2b"
  top: "res4e_branch2b"
  batch_norm_param {
    use_global_stats: false
  }
}
layer {
  name: "scale4e_branch2b"
  type: "Scale"
  bottom: "res4e_branch2b"
  top: "res4e_branch2b"
  scale_param {
    bias_term: true
  }
}
layer {
  name: "res4e_branch2b_relu"
  type: "ReLU"
  bottom: "res4e_branch2b"
  top: "res4e_branch2b"
}
layer {
  name: "res4e_branch2c"
  type: "Convolution"
  bottom: "res4e_branch2b"
  top: "res4e_branch2c"
  convolution_param {
    num_output: 1024
    bias_term: false
    pad: 0
    kernel_size: 1
    stride: 1
    weight_filler {
      type: "msra"
    }
  }
}
layer {
  name: "bn4e_branch2c"
  type: "BatchNorm"
  bottom: "res4e_branch2c"
  top: "res4e_branch2c"
  batch_norm_param {
    use_global_stats: false
  }
}
layer {
  name: "scale4e_branch2c"
  type: "Scale"
  bottom: "res4e_branch2c"
  top: "res4e_branch2c"
  scale_param {
    bias_term: true
  }
}
layer {
  name: "res4e"
  type: "Eltwise"
  bottom: "res4d"
  bottom: "res4e_branch2c"
  top: "res4e"
  eltwise_param {
    operation: SUM
  }
}
layer {
  name: "res4e_relu"
  type: "ReLU"
  bottom: "res4e"
  top: "res4e"
}
layer {
  name: "res4f_branch2a"
  type: "Convolution"
  bottom: "res4e"
  top: "res4f_branch2a"
  convolution_param {
    num_output: 256
    bias_term: false
    pad: 0
    kernel_size: 1
    stride: 1
    weight_filler {
      type: "msra"
    }
  }
}
layer {
  name: "bn4f_branch2a"
  type: "BatchNorm"
  bottom: "res4f_branch2a"
  top: "res4f_branch2a"
  batch_norm_param {
    use_global_stats: false
  }
}
layer {
  name: "scale4f_branch2a"
  type: "Scale"
  bottom: "res4f_branch2a"
  top: "res4f_branch2a"
  scale_param {
    bias_term: true
  }
}
layer {
  name: "res4f_branch2a_relu"
  type: "ReLU"
  bottom: "res4f_branch2a"
  top: "res4f_branch2a"
}
layer {
  name: "res4f_branch2b"
  type: "Convolution"
  bottom: "res4f_branch2a"
  top: "res4f_branch2b"
  convolution_param {
    num_output: 256
    bias_term: false
    pad: 1
    kernel_size: 3
    stride: 1
    weight_filler {
      type: "msra"
    }
  }
}
layer {
  name: "bn4f_branch2b"
  type: "BatchNorm"
  bottom: "res4f_branch2b"
  top: "res4f_branch2b"
  batch_norm_param {
    use_global_stats: false
  }
}
layer {
  name: "scale4f_branch2b"
  type: "Scale"
  bottom: "res4f_branch2b"
  top: "res4f_branch2b"
  scale_param {
    bias_term: true
  }
}
layer {
  name: "res4f_branch2b_relu"
  type: "ReLU"
  bottom: "res4f_branch2b"
  top: "res4f_branch2b"
}
layer {
  name: "res4f_branch2c"
  type: "Convolution"
  bottom: "res4f_branch2b"
  top: "res4f_branch2c"
  convolution_param {
    num_output: 1024
    bias_term: false
    pad: 0
    kernel_size: 1
    stride: 1
    weight_filler {
      type: 
I1128 23:07:53.805805 173035 layer_factory.hpp:77] Creating layer data
I1128 23:07:54.466164 173035 net.cpp:84] Creating Layer data
I1128 23:07:54.466210 173035 net.cpp:380] data -> data
I1128 23:07:54.466235 173035 net.cpp:380] data -> label
I1128 23:07:55.105962 173035 net.cpp:122] Setting up data
I1128 23:07:55.106005 173035 net.cpp:129] Top shape: 18 3 240 240 (3110400)
I1128 23:07:55.106010 173035 net.cpp:129] Top shape: 18 1 (18)
I1128 23:07:55.106014 173035 net.cpp:137] Memory required for data: 12441672
I1128 23:07:55.106026 173035 layer_factory.hpp:77] Creating layer conv1
I1128 23:07:55.106055 173035 net.cpp:84] Creating Layer conv1
I1128 23:07:55.106061 173035 net.cpp:406] conv1 <- data
I1128 23:07:55.106078 173035 net.cpp:380] conv1 -> conv1
I1128 23:07:55.107182 173035 net.cpp:122] Setting up conv1
I1128 23:07:55.107197 173035 net.cpp:129] Top shape: 18 64 120 120 (16588800)
I1128 23:07:55.107200 173035 net.cpp:137] Memory required for data: 78796872
I1128 23:07:55.107221 173035 layer_factory.hpp:77] Creating layer bn_conv1
I1128 23:07:55.107230 173035 net.cpp:84] Creating Layer bn_conv1
I1128 23:07:55.107234 173035 net.cpp:406] bn_conv1 <- conv1
I1128 23:07:55.107240 173035 net.cpp:367] bn_conv1 -> conv1 (in-place)
I1128 23:07:55.107400 173035 net.cpp:122] Setting up bn_conv1
I1128 23:07:55.107409 173035 net.cpp:129] Top shape: 18 64 120 120 (16588800)
I1128 23:07:55.107411 173035 net.cpp:137] Memory required for data: 145152072
I1128 23:07:55.107422 173035 layer_factory.hpp:77] Creating layer scale_conv1
I1128 23:07:55.107439 173035 net.cpp:84] Creating Layer scale_conv1
I1128 23:07:55.107444 173035 net.cpp:406] scale_conv1 <- conv1
I1128 23:07:55.107460 173035 net.cpp:367] scale_conv1 -> conv1 (in-place)
I1128 23:07:55.107496 173035 layer_factory.hpp:77] Creating layer scale_conv1
I1128 23:07:55.107602 173035 net.cpp:122] Setting up scale_conv1
I1128 23:07:55.107609 173035 net.cpp:129] Top shape: 18 64 120 120 (16588800)
I1128 23:07:55.107612 173035 net.cpp:137] Memory required for data: 211507272
I1128 23:07:55.107617 173035 layer_factory.hpp:77] Creating layer conv1_relu
I1128 23:07:55.107625 173035 net.cpp:84] Creating Layer conv1_relu
I1128 23:07:55.107627 173035 net.cpp:406] conv1_relu <- conv1
I1128 23:07:55.107632 173035 net.cpp:367] conv1_relu -> conv1 (in-place)
I1128 23:07:55.107636 173035 net.cpp:122] Setting up conv1_relu
I1128 23:07:55.107640 173035 net.cpp:129] Top shape: 18 64 120 120 (16588800)
I1128 23:07:55.107658 173035 net.cpp:137] Memory required for data: 277862472
I1128 23:07:55.107661 173035 layer_factory.hpp:77] Creating layer pool1
I1128 23:07:55.107671 173035 net.cpp:84] Creating Layer pool1
I1128 23:07:55.107672 173035 net.cpp:406] pool1 <- conv1
I1128 23:07:55.107676 173035 net.cpp:380] pool1 -> pool1
I1128 23:07:55.107713 173035 net.cpp:122] Setting up pool1
I1128 23:07:55.107719 173035 net.cpp:129] Top shape: 18 64 60 60 (4147200)
I1128 23:07:55.107722 173035 net.cpp:137] Memory required for data: 294451272
I1128 23:07:55.107725 173035 layer_factory.hpp:77] Creating layer pool1_pool1_0_split
I1128 23:07:55.107731 173035 net.cpp:84] Creating Layer pool1_pool1_0_split
I1128 23:07:55.107733 173035 net.cpp:406] pool1_pool1_0_split <- pool1
I1128 23:07:55.107739 173035 net.cpp:380] pool1_pool1_0_split -> pool1_pool1_0_split_0
I1128 23:07:55.107745 173035 net.cpp:380] pool1_pool1_0_split -> pool1_pool1_0_split_1
I1128 23:07:55.107771 173035 net.cpp:122] Setting up pool1_pool1_0_split
I1128 23:07:55.107776 173035 net.cpp:129] Top shape: 18 64 60 60 (4147200)
I1128 23:07:55.107780 173035 net.cpp:129] Top shape: 18 64 60 60 (4147200)
I1128 23:07:55.107782 173035 net.cpp:137] Memory required for data: 327628872
I1128 23:07:55.107786 173035 layer_factory.hpp:77] Creating layer res2a_branch1
I1128 23:07:55.107794 173035 net.cpp:84] Creating Layer res2a_branch1
I1128 23:07:55.107796 173035 net.cpp:406] res2a_branch1 <- pool1_pool1_0_split_0
I1128 23:07:55.107801 173035 net.cpp:380] res2a_branch1 -> res2a_branch1
I1128 23:07:55.108042 173035 net.cpp:122] Setting up res2a_branch1
I1128 23:07:55.108047 173035 net.cpp:129] Top shape: 18 256 60 60 (16588800)
I1128 23:07:55.108049 173035 net.cpp:137] Memory required for data: 393984072
I1128 23:07:55.108053 173035 layer_factory.hpp:77] Creating layer bn2a_branch1
I1128 23:07:55.108059 173035 net.cpp:84] Creating Layer bn2a_branch1
I1128 23:07:55.108062 173035 net.cpp:406] bn2a_branch1 <- res2a_branch1
I1128 23:07:55.108067 173035 net.cpp:367] bn2a_branch1 -> res2a_branch1 (in-place)
I1128 23:07:55.108695 173035 net.cpp:122] Setting up bn2a_branch1
I1128 23:07:55.108706 173035 net.cpp:129] Top shape: 18 256 60 60 (16588800)
I1128 23:07:55.108710 173035 net.cpp:137] Memory required for data: 460339272
I1128 23:07:55.108717 173035 layer_factory.hpp:77] Creating layer scale2a_branch1
I1128 23:07:55.108724 173035 net.cpp:84] Creating Layer scale2a_branch1
I1128 23:07:55.108728 173035 net.cpp:406] scale2a_branch1 <- res2a_branch1
I1128 23:07:55.108733 173035 net.cpp:367] scale2a_branch1 -> res2a_branch1 (in-place)
I1128 23:07:55.108762 173035 layer_factory.hpp:77] Creating layer scale2a_branch1
I1128 23:07:55.108840 173035 net.cpp:122] Setting up scale2a_branch1
I1128 23:07:55.108849 173035 net.cpp:129] Top shape: 18 256 60 60 (16588800)
I1128 23:07:55.108850 173035 net.cpp:137] Memory required for data: 526694472
I1128 23:07:55.108856 173035 layer_factory.hpp:77] Creating layer res2a_branch2a
I1128 23:07:55.108862 173035 net.cpp:84] Creating Layer res2a_branch2a
I1128 23:07:55.108865 173035 net.cpp:406] res2a_branch2a <- pool1_pool1_0_split_1
I1128 23:07:55.108875 173035 net.cpp:380] res2a_branch2a -> res2a_branch2a
I1128 23:07:55.109030 173035 net.cpp:122] Setting up res2a_branch2a
I1128 23:07:55.109040 173035 net.cpp:129] Top shape: 18 64 60 60 (4147200)
I1128 23:07:55.109043 173035 net.cpp:137] Memory required for data: 543283272
I1128 23:07:55.109047 173035 layer_factory.hpp:77] Creating layer bn2a_branch2a
I1128 23:07:55.109053 173035 net.cpp:84] Creating Layer bn2a_branch2a
I1128 23:07:55.109056 173035 net.cpp:406] bn2a_branch2a <- res2a_branch2a
I1128 23:07:55.109061 173035 net.cpp:367] bn2a_branch2a -> res2a_branch2a (in-place)
I1128 23:07:55.109179 173035 net.cpp:122] Setting up bn2a_branch2a
I1128 23:07:55.109184 173035 net.cpp:129] Top shape: 18 64 60 60 (4147200)
I1128 23:07:55.109186 173035 net.cpp:137] Memory required for data: 559872072
I1128 23:07:55.109197 173035 layer_factory.hpp:77] Creating layer scale2a_branch2a
I1128 23:07:55.109203 173035 net.cpp:84] Creating Layer scale2a_branch2a
I1128 23:07:55.109205 173035 net.cpp:406] scale2a_branch2a <- res2a_branch2a
I1128 23:07:55.109210 173035 net.cpp:367] scale2a_branch2a -> res2a_branch2a (in-place)
I1128 23:07:55.109239 173035 layer_factory.hpp:77] Creating layer scale2a_branch2a
I1128 23:07:55.109319 173035 net.cpp:122] Setting up scale2a_branch2a
I1128 23:07:55.109324 173035 net.cpp:129] Top shape: 18 64 60 60 (4147200)
I1128 23:07:55.109328 173035 net.cpp:137] Memory required for data: 576460872
I1128 23:07:55.109333 173035 layer_factory.hpp:77] Creating layer res2a_branch2a_relu
I1128 23:07:55.109338 173035 net.cpp:84] Creating Layer res2a_branch2a_relu
I1128 23:07:55.109341 173035 net.cpp:406] res2a_branch2a_relu <- res2a_branch2a
I1128 23:07:55.109345 173035 net.cpp:367] res2a_branch2a_relu -> res2a_branch2a (in-place)
I1128 23:07:55.109349 173035 net.cpp:122] Setting up res2a_branch2a_relu
I1128 23:07:55.109354 173035 net.cpp:129] Top shape: 18 64 60 60 (4147200)
I1128 23:07:55.109355 173035 net.cpp:137] Memory required for data: 593049672
I1128 23:07:55.109359 173035 layer_factory.hpp:77] Creating layer res2a_branch2b
I1128 23:07:55.109366 173035 net.cpp:84] Creating Layer res2a_branch2b
I1128 23:07:55.109369 173035 net.cpp:406] res2a_branch2b <- res2a_branch2a
I1128 23:07:55.109375 173035 net.cpp:380] res2a_branch2b -> res2a_branch2b
I1128 23:07:55.110276 173035 net.cpp:122] Setting up res2a_branch2b
I1128 23:07:55.110287 173035 net.cpp:129] Top shape: 18 64 60 60 (4147200)
I1128 23:07:55.110290 173035 net.cpp:137] Memory required for data: 609638472
I1128 23:07:55.110293 173035 layer_factory.hpp:77] Creating layer bn2a_branch2b
I1128 23:07:55.110298 173035 net.cpp:84] Creating Layer bn2a_branch2b
I1128 23:07:55.110302 173035 net.cpp:406] bn2a_branch2b <- res2a_branch2b
I1128 23:07:55.110307 173035 net.cpp:367] bn2a_branch2b -> res2a_branch2b (in-place)
I1128 23:07:55.110436 173035 net.cpp:122] Setting up bn2a_branch2b
I1128 23:07:55.110442 173035 net.cpp:129] Top shape: 18 64 60 60 (4147200)
I1128 23:07:55.110445 173035 net.cpp:137] Memory required for data: 626227272
I1128 23:07:55.110450 173035 layer_factory.hpp:77] Creating layer scale2a_branch2b
I1128 23:07:55.110458 173035 net.cpp:84] Creating Layer scale2a_branch2b
I1128 23:07:55.110462 173035 net.cpp:406] scale2a_branch2b <- res2a_branch2b
I1128 23:07:55.110466 173035 net.cpp:367] scale2a_branch2b -> res2a_branch2b (in-place)
I1128 23:07:55.110493 173035 layer_factory.hpp:77] Creating layer scale2a_branch2b
I1128 23:07:55.110576 173035 net.cpp:122] Setting up scale2a_branch2b
I1128 23:07:55.110581 173035 net.cpp:129] Top shape: 18 64 60 60 (4147200)
I1128 23:07:55.110584 173035 net.cpp:137] Memory required for data: 642816072
I1128 23:07:55.110590 173035 layer_factory.hpp:77] Creating layer res2a_branch2b_relu
I1128 23:07:55.110596 173035 net.cpp:84] Creating Layer res2a_branch2b_relu
I1128 23:07:55.110599 173035 net.cpp:406] res2a_branch2b_relu <- res2a_branch2b
I1128 23:07:55.110604 173035 net.cpp:367] res2a_branch2b_relu -> res2a_branch2b (in-place)
I1128 23:07:55.110611 173035 net.cpp:122] Setting up res2a_branch2b_relu
I1128 23:07:55.110615 173035 net.cpp:129] Top shape: 18 64 60 60 (4147200)
I1128 23:07:55.110620 173035 net.cpp:137] Memory required for data: 659404872
I1128 23:07:55.110628 173035 layer_factory.hpp:77] Creating layer res2a_branch2c
I1128 23:07:55.110635 173035 net.cpp:84] Creating Layer res2a_branch2c
I1128 23:07:55.110637 173035 net.cpp:406] res2a_branch2c <- res2a_branch2b
I1128 23:07:55.110643 173035 net.cpp:380] res2a_branch2c -> res2a_branch2c
I1128 23:07:55.110882 173035 net.cpp:122] Setting up res2a_branch2c
I1128 23:07:55.110889 173035 net.cpp:129] Top shape: 18 256 60 60 (16588800)
I1128 23:07:55.110891 173035 net.cpp:137] Memory required for data: 725760072
I1128 23:07:55.110895 173035 layer_factory.hpp:77] Creating layer bn2a_branch2c
I1128 23:07:55.110901 173035 net.cpp:84] Creating Layer bn2a_branch2c
I1128 23:07:55.110904 173035 net.cpp:406] bn2a_branch2c <- res2a_branch2c
I1128 23:07:55.110908 173035 net.cpp:367] bn2a_branch2c -> res2a_branch2c (in-place)
I1128 23:07:55.111027 173035 net.cpp:122] Setting up bn2a_branch2c
I1128 23:07:55.111032 173035 net.cpp:129] Top shape: 18 256 60 60 (16588800)
I1128 23:07:55.111034 173035 net.cpp:137] Memory required for data: 792115272
I1128 23:07:55.111040 173035 layer_factory.hpp:77] Creating layer scale2a_branch2c
I1128 23:07:55.111044 173035 net.cpp:84] Creating Layer scale2a_branch2c
I1128 23:07:55.111047 173035 net.cpp:406] scale2a_branch2c <- res2a_branch2c
I1128 23:07:55.111054 173035 net.cpp:367] scale2a_branch2c -> res2a_branch2c (in-place)
I1128 23:07:55.111078 173035 layer_factory.hpp:77] Creating layer scale2a_branch2c
I1128 23:07:55.111150 173035 net.cpp:122] Setting up scale2a_branch2c
I1128 23:07:55.111156 173035 net.cpp:129] Top shape: 18 256 60 60 (16588800)
I1128 23:07:55.111160 173035 net.cpp:137] Memory required for data: 858470472
I1128 23:07:55.111165 173035 layer_factory.hpp:77] Creating layer res2a
I1128 23:07:55.111171 173035 net.cpp:84] Creating Layer res2a
I1128 23:07:55.111176 173035 net.cpp:406] res2a <- res2a_branch1
I1128 23:07:55.111178 173035 net.cpp:406] res2a <- res2a_branch2c
I1128 23:07:55.111182 173035 net.cpp:380] res2a -> res2a
I1128 23:07:55.111203 173035 net.cpp:122] Setting up res2a
I1128 23:07:55.111209 173035 net.cpp:129] Top shape: 18 256 60 60 (16588800)
I1128 23:07:55.111212 173035 net.cpp:137] Memory required for data: 924825672
I1128 23:07:55.111215 173035 layer_factory.hpp:77] Creating layer res2a_relu
I1128 23:07:55.111219 173035 net.cpp:84] Creating Layer res2a_relu
I1128 23:07:55.111222 173035 net.cpp:406] res2a_relu <- res2a
I1128 23:07:55.111228 173035 net.cpp:367] res2a_relu -> res2a (in-place)
I1128 23:07:55.111232 173035 net.cpp:122] Setting up res2a_relu
I1128 23:07:55.111235 173035 net.cpp:129] Top shape: 18 256 60 60 (16588800)
I1128 23:07:55.111238 173035 net.cpp:137] Memory required for data: 991180872
I1128 23:07:55.111241 173035 layer_factory.hpp:77] Creating layer res2a_res2a_relu_0_split
I1128 23:07:55.111246 173035 net.cpp:84] Creating Layer res2a_res2a_relu_0_split
I1128 23:07:55.111248 173035 net.cpp:406] res2a_res2a_relu_0_split <- res2a
I1128 23:07:55.111253 173035 net.cpp:380] res2a_res2a_relu_0_split -> res2a_res2a_relu_0_split_0
I1128 23:07:55.111259 173035 net.cpp:380] res2a_res2a_relu_0_split -> res2a_res2a_relu_0_split_1
I1128 23:07:55.111281 173035 net.cpp:122] Setting up res2a_res2a_relu_0_split
I1128 23:07:55.111286 173035 net.cpp:129] Top shape: 18 256 60 60 (16588800)
I1128 23:07:55.111290 173035 net.cpp:129] Top shape: 18 256 60 60 (16588800)
I1128 23:07:55.111292 173035 net.cpp:137] Memory required for data: 1123891272
I1128 23:07:55.111295 173035 layer_factory.hpp:77] Creating layer res2b_branch2a
I1128 23:07:55.111302 173035 net.cpp:84] Creating Layer res2b_branch2a
I1128 23:07:55.111306 173035 net.cpp:406] res2b_branch2a <- res2a_res2a_relu_0_split_0
I1128 23:07:55.111312 173035 net.cpp:380] res2b_branch2a -> res2b_branch2a
I1128 23:07:55.111585 173035 net.cpp:122] Setting up res2b_branch2a
I1128 23:07:55.111593 173035 net.cpp:129] Top shape: 18 64 60 60 (4147200)
I1128 23:07:55.111596 173035 net.cpp:137] Memory required for data: 1140480072
I1128 23:07:55.111605 173035 layer_factory.hpp:77] Creating layer bn2b_branch2a
I1128 23:07:55.111615 173035 net.cpp:84] Creating Layer bn2b_branch2a
I1128 23:07:55.111618 173035 net.cpp:406] bn2b_branch2a <- res2b_branch2a
I1128 23:07:55.111624 173035 net.cpp:367] bn2b_branch2a -> res2b_branch2a (in-place)
I1128 23:07:55.111769 173035 net.cpp:122] Setting up bn2b_branch2a
I1128 23:07:55.111775 173035 net.cpp:129] Top shape: 18 64 60 60 (4147200)
I1128 23:07:55.111778 173035 net.cpp:137] Memory required for data: 1157068872
I1128 23:07:55.111788 173035 layer_factory.hpp:77] Creating layer scale2b_branch2a
I1128 23:07:55.111793 173035 net.cpp:84] Creating Layer scale2b_branch2a
I1128 23:07:55.111796 173035 net.cpp:406] scale2b_branch2a <- res2b_branch2a
I1128 23:07:55.111802 173035 net.cpp:367] scale2b_branch2a -> res2b_branch2a (in-place)
I1128 23:07:55.111829 173035 layer_factory.hpp:77] Creating layer scale2b_branch2a
I1128 23:07:55.111909 173035 net.cpp:122] Setting up scale2b_branch2a
I1128 23:07:55.111914 173035 net.cpp:129] Top shape: 18 64 60 60 (4147200)
I1128 23:07:55.111917 173035 net.cpp:137] Memory required for data: 1173657672
I1128 23:07:55.111922 173035 layer_factory.hpp:77] Creating layer res2b_branch2a_relu
I1128 23:07:55.111927 173035 net.cpp:84] Creating Layer res2b_branch2a_relu
I1128 23:07:55.111929 173035 net.cpp:406] res2b_branch2a_relu <- res2b_branch2a
I1128 23:07:55.111934 173035 net.cpp:367] res2b_branch2a_relu -> res2b_branch2a (in-place)
I1128 23:07:55.111939 173035 net.cpp:122] Setting up res2b_branch2a_relu
I1128 23:07:55.111943 173035 net.cpp:129] Top shape: 18 64 60 60 (4147200)
I1128 23:07:55.111945 173035 net.cpp:137] Memory required for data: 1190246472
I1128 23:07:55.111948 173035 layer_factory.hpp:77] Creating layer res2b_branch2b
I1128 23:07:55.111953 173035 net.cpp:84] Creating Layer res2b_branch2b
I1128 23:07:55.111956 173035 net.cpp:406] res2b_branch2b <- res2b_branch2a
I1128 23:07:55.111961 173035 net.cpp:380] res2b_branch2b -> res2b_branch2b
I1128 23:07:55.112355 173035 net.cpp:122] Setting up res2b_branch2b
I1128 23:07:55.112362 173035 net.cpp:129] Top shape: 18 64 60 60 (4147200)
I1128 23:07:55.112365 173035 net.cpp:137] Memory required for data: 1206835272
I1128 23:07:55.112370 173035 layer_factory.hpp:77] Creating layer bn2b_branch2b
I1128 23:07:55.112376 173035 net.cpp:84] Creating Layer bn2b_branch2b
I1128 23:07:55.112380 173035 net.cpp:406] bn2b_branch2b <- res2b_branch2b
I1128 23:07:55.112383 173035 net.cpp:367] bn2b_branch2b -> res2b_branch2b (in-place)
I1128 23:07:55.112509 173035 net.cpp:122] Setting up bn2b_branch2b
I1128 23:07:55.112514 173035 net.cpp:129] Top shape: 18 64 60 60 (4147200)
I1128 23:07:55.112517 173035 net.cpp:137] Memory required for data: 1223424072
I1128 23:07:55.112524 173035 layer_factory.hpp:77] Creating layer scale2b_branch2b
I1128 23:07:55.112529 173035 net.cpp:84] Creating Layer scale2b_branch2b
I1128 23:07:55.112531 173035 net.cpp:406] scale2b_branch2b <- res2b_branch2b
I1128 23:07:55.112535 173035 net.cpp:367] scale2b_branch2b -> res2b_branch2b (in-place)
I1128 23:07:55.112561 173035 layer_factory.hpp:77] Creating layer scale2b_branch2b
I1128 23:07:55.112643 173035 net.cpp:122] Setting up scale2b_branch2b
I1128 23:07:55.112648 173035 net.cpp:129] Top shape: 18 64 60 60 (4147200)
I1128 23:07:55.112650 173035 net.cpp:137] Memory required for data: 1240012872
I1128 23:07:55.112655 173035 layer_factory.hpp:77] Creating layer res2b_branch2b_relu
I1128 23:07:55.112663 173035 net.cpp:84] Creating Layer res2b_branch2b_relu
I1128 23:07:55.112666 173035 net.cpp:406] res2b_branch2b_relu <- res2b_branch2b
I1128 23:07:55.112670 173035 net.cpp:367] res2b_branch2b_relu -> res2b_branch2b (in-place)
I1128 23:07:55.112674 173035 net.cpp:122] Setting up res2b_branch2b_relu
I1128 23:07:55.112677 173035 net.cpp:129] Top shape: 18 64 60 60 (4147200)
I1128 23:07:55.112680 173035 net.cpp:137] Memory required for data: 1256601672
I1128 23:07:55.112684 173035 layer_factory.hpp:77] Creating layer res2b_branch2c
I1128 23:07:55.112697 173035 net.cpp:84] Creating Layer res2b_branch2c
I1128 23:07:55.112700 173035 net.cpp:406] res2b_branch2c <- res2b_branch2b
I1128 23:07:55.112709 173035 net.cpp:380] res2b_branch2c -> res2b_branch2c
I1128 23:07:55.112951 173035 net.cpp:122] Setting up res2b_branch2c
I1128 23:07:55.112956 173035 net.cpp:129] Top shape: 18 256 60 60 (16588800)
I1128 23:07:55.112958 173035 net.cpp:137] Memory required for data: 1322956872
I1128 23:07:55.112963 173035 layer_factory.hpp:77] Creating layer bn2b_branch2c
I1128 23:07:55.112969 173035 net.cpp:84] Creating Layer bn2b_branch2c
I1128 23:07:55.112972 173035 net.cpp:406] bn2b_branch2c <- res2b_branch2c
I1128 23:07:55.112977 173035 net.cpp:367] bn2b_branch2c -> res2b_branch2c (in-place)
I1128 23:07:55.113095 173035 net.cpp:122] Setting up bn2b_branch2c
I1128 23:07:55.113101 173035 net.cpp:129] Top shape: 18 256 60 60 (16588800)
I1128 23:07:55.113102 173035 net.cpp:137] Memory required for data: 1389312072
I1128 23:07:55.113107 173035 layer_factory.hpp:77] Creating layer scale2b_branch2c
I1128 23:07:55.113114 173035 net.cpp:84] Creating Layer scale2b_branch2c
I1128 23:07:55.113117 173035 net.cpp:406] scale2b_branch2c <- res2b_branch2c
I1128 23:07:55.113121 173035 net.cpp:367] scale2b_branch2c -> res2b_branch2c (in-place)
I1128 23:07:55.113147 173035 layer_factory.hpp:77] Creating layer scale2b_branch2c
I1128 23:07:55.113222 173035 net.cpp:122] Setting up scale2b_branch2c
I1128 23:07:55.113229 173035 net.cpp:129] Top shape: 18 256 60 60 (16588800)
I1128 23:07:55.113230 173035 net.cpp:137] Memory required for data: 1455667272
I1128 23:07:55.113234 173035 layer_factory.hpp:77] Creating layer res2b
I1128 23:07:55.113240 173035 net.cpp:84] Creating Layer res2b
I1128 23:07:55.113242 173035 net.cpp:406] res2b <- res2a_res2a_relu_0_split_1
I1128 23:07:55.113245 173035 net.cpp:406] res2b <- res2b_branch2c
I1128 23:07:55.113251 173035 net.cpp:380] res2b -> res2b
I1128 23:07:55.113270 173035 net.cpp:122] Setting up res2b
I1128 23:07:55.113276 173035 net.cpp:129] Top shape: 18 256 60 60 (16588800)
I1128 23:07:55.113277 173035 net.cpp:137] Memory required for data: 1522022472
I1128 23:07:55.113281 173035 layer_factory.hpp:77] Creating layer res2b_relu
I1128 23:07:55.113284 173035 net.cpp:84] Creating Layer res2b_relu
I1128 23:07:55.113287 173035 net.cpp:406] res2b_relu <- res2b
I1128 23:07:55.113294 173035 net.cpp:367] res2b_relu -> res2b (in-place)
I1128 23:07:55.113298 173035 net.cpp:122] Setting up res2b_relu
I1128 23:07:55.113302 173035 net.cpp:129] Top shape: 18 256 60 60 (16588800)
I1128 23:07:55.113306 173035 net.cpp:137] Memory required for data: 1588377672
I1128 23:07:55.113309 173035 layer_factory.hpp:77] Creating layer res2b_res2b_relu_0_split
I1128 23:07:55.113313 173035 net.cpp:84] Creating Layer res2b_res2b_relu_0_split
I1128 23:07:55.113315 173035 net.cpp:406] res2b_res2b_relu_0_split <- res2b
I1128 23:07:55.113320 173035 net.cpp:380] res2b_res2b_relu_0_split -> res2b_res2b_relu_0_split_0
I1128 23:07:55.113324 173035 net.cpp:380] res2b_res2b_relu_0_split -> res2b_res2b_relu_0_split_1
I1128 23:07:55.113348 173035 net.cpp:122] Setting up res2b_res2b_relu_0_split
I1128 23:07:55.113353 173035 net.cpp:129] Top shape: 18 256 60 60 (16588800)
I1128 23:07:55.113358 173035 net.cpp:129] Top shape: 18 256 60 60 (16588800)
I1128 23:07:55.113359 173035 net.cpp:137] Memory required for data: 1721088072
I1128 23:07:55.113363 173035 layer_factory.hpp:77] Creating layer res2c_branch2a
I1128 23:07:55.113368 173035 net.cpp:84] Creating Layer res2c_branch2a
I1128 23:07:55.113370 173035 net.cpp:406] res2c_branch2a <- res2b_res2b_relu_0_split_0
I1128 23:07:55.113376 173035 net.cpp:380] res2c_branch2a -> res2c_branch2a
I1128 23:07:55.113617 173035 net.cpp:122] Setting up res2c_branch2a
I1128 23:07:55.113623 173035 net.cpp:129] Top shape: 18 64 60 60 (4147200)
I1128 23:07:55.113626 173035 net.cpp:137] Memory required for data: 1737676872
I1128 23:07:55.113629 173035 layer_factory.hpp:77] Creating layer bn2c_branch2a
I1128 23:07:55.113636 173035 net.cpp:84] Creating Layer bn2c_branch2a
I1128 23:07:55.113638 173035 net.cpp:406] bn2c_branch2a <- res2c_branch2a
I1128 23:07:55.113646 173035 net.cpp:367] bn2c_branch2a -> res2c_branch2a (in-place)
I1128 23:07:55.113780 173035 net.cpp:122] Setting up bn2c_branch2a
I1128 23:07:55.113785 173035 net.cpp:129] Top shape: 18 64 60 60 (4147200)
I1128 23:07:55.113787 173035 net.cpp:137] Memory required for data: 1754265672
I1128 23:07:55.113793 173035 layer_factory.hpp:77] Creating layer scale2c_branch2a
I1128 23:07:55.113800 173035 net.cpp:84] Creating Layer scale2c_branch2a
I1128 23:07:55.113802 173035 net.cpp:406] scale2c_branch2a <- res2c_branch2a
I1128 23:07:55.113806 173035 net.cpp:367] scale2c_branch2a -> res2c_branch2a (in-place)
I1128 23:07:55.113832 173035 layer_factory.hpp:77] Creating layer scale2c_branch2a
I1128 23:07:55.113912 173035 net.cpp:122] Setting up scale2c_branch2a
I1128 23:07:55.113917 173035 net.cpp:129] Top shape: 18 64 60 60 (4147200)
I1128 23:07:55.113919 173035 net.cpp:137] Memory required for data: 1770854472
I1128 23:07:55.113926 173035 layer_factory.hpp:77] Creating layer res2c_branch2a_relu
I1128 23:07:55.113931 173035 net.cpp:84] Creating Layer res2c_branch2a_relu
I1128 23:07:55.113934 173035 net.cpp:406] res2c_branch2a_relu <- res2c_branch2a
I1128 23:07:55.113939 173035 net.cpp:367] res2c_branch2a_relu -> res2c_branch2a (in-place)
I1128 23:07:55.113943 173035 net.cpp:122] Setting up res2c_branch2a_relu
I1128 23:07:55.113946 173035 net.cpp:129] Top shape: 18 64 60 60 (4147200)
I1128 23:07:55.113950 173035 net.cpp:137] Memory required for data: 1787443272
I1128 23:07:55.113951 173035 layer_factory.hpp:77] Creating layer res2c_branch2b
I1128 23:07:55.113960 173035 net.cpp:84] Creating Layer res2c_branch2b
I1128 23:07:55.113961 173035 net.cpp:406] res2c_branch2b <- res2c_branch2a
I1128 23:07:55.113966 173035 net.cpp:380] res2c_branch2b -> res2c_branch2b
I1128 23:07:55.114363 173035 net.cpp:122] Setting up res2c_branch2b
I1128 23:07:55.114369 173035 net.cpp:129] Top shape: 18 64 60 60 (4147200)
I1128 23:07:55.114372 173035 net.cpp:137] Memory required for data: 1804032072
I1128 23:07:55.114375 173035 layer_factory.hpp:77] Creating layer bn2c_branch2b
I1128 23:07:55.114380 173035 net.cpp:84] Creating Layer bn2c_branch2b
I1128 23:07:55.114383 173035 net.cpp:406] bn2c_branch2b <- res2c_branch2b
I1128 23:07:55.114388 173035 net.cpp:367] bn2c_branch2b -> res2c_branch2b (in-place)
I1128 23:07:55.114514 173035 net.cpp:122] Setting up bn2c_branch2b
I1128 23:07:55.114519 173035 net.cpp:129] Top shape: 18 64 60 60 (4147200)
I1128 23:07:55.114522 173035 net.cpp:137] Memory required for data: 1820620872
I1128 23:07:55.114527 173035 layer_factory.hpp:77] Creating layer scale2c_branch2b
I1128 23:07:55.114531 173035 net.cpp:84] Creating Layer scale2c_branch2b
I1128 23:07:55.114534 173035 net.cpp:406] scale2c_branch2b <- res2c_branch2b
I1128 23:07:55.114540 173035 net.cpp:367] scale2c_branch2b -> res2c_branch2b (in-place)
I1128 23:07:55.114565 173035 layer_factory.hpp:77] Creating layer scale2c_branch2b
I1128 23:07:55.114645 173035 net.cpp:122] Setting up scale2c_branch2b
I1128 23:07:55.114650 173035 net.cpp:129] Top shape: 18 64 60 60 (4147200)
I1128 23:07:55.114653 173035 net.cpp:137] Memory required for data: 1837209672
I1128 23:07:55.114658 173035 layer_factory.hpp:77] Creating layer res2c_branch2b_relu
I1128 23:07:55.114662 173035 net.cpp:84] Creating Layer res2c_branch2b_relu
I1128 23:07:55.114665 173035 net.cpp:406] res2c_branch2b_relu <- res2c_branch2b
I1128 23:07:55.114673 173035 net.cpp:367] res2c_branch2b_relu -> res2c_branch2b (in-place)
I1128 23:07:55.114677 173035 net.cpp:122] Setting up res2c_branch2b_relu
I1128 23:07:55.114681 173035 net.cpp:129] Top shape: 18 64 60 60 (4147200)
I1128 23:07:55.114683 173035 net.cpp:137] Memory required for data: 1853798472
I1128 23:07:55.114687 173035 layer_factory.hpp:77] Creating layer res2c_branch2c
I1128 23:07:55.114693 173035 net.cpp:84] Creating Layer res2c_branch2c
I1128 23:07:55.114696 173035 net.cpp:406] res2c_branch2c <- res2c_branch2b
I1128 23:07:55.114701 173035 net.cpp:380] res2c_branch2c -> res2c_branch2c
I1128 23:07:55.114948 173035 net.cpp:122] Setting up res2c_branch2c
I1128 23:07:55.114959 173035 net.cpp:129] Top shape: 18 256 60 60 (16588800)
I1128 23:07:55.114961 173035 net.cpp:137] Memory required for data: 1920153672
I1128 23:07:55.114965 173035 layer_factory.hpp:77] Creating layer bn2c_branch2c
I1128 23:07:55.114970 173035 net.cpp:84] Creating Layer bn2c_branch2c
I1128 23:07:55.114972 173035 net.cpp:406] bn2c_branch2c <- res2c_branch2c
I1128 23:07:55.114979 173035 net.cpp:367] bn2c_branch2c -> res2c_branch2c (in-place)
I1128 23:07:55.115099 173035 net.cpp:122] Setting up bn2c_branch2c
I1128 23:07:55.115105 173035 net.cpp:129] Top shape: 18 256 60 60 (16588800)
I1128 23:07:55.115108 173035 net.cpp:137] Memory required for data: 1986508872
I1128 23:07:55.115118 173035 layer_factory.hpp:77] Creating layer scale2c_branch2c
I1128 23:07:55.115123 173035 net.cpp:84] Creating Layer scale2c_branch2c
I1128 23:07:55.115126 173035 net.cpp:406] scale2c_branch2c <- res2c_branch2c
I1128 23:07:55.115133 173035 net.cpp:367] scale2c_branch2c -> res2c_branch2c (in-place)
I1128 23:07:55.115159 173035 layer_factory.hpp:77] Creating layer scale2c_branch2c
I1128 23:07:55.115231 173035 net.cpp:122] Setting up scale2c_branch2c
I1128 23:07:55.115237 173035 net.cpp:129] Top shape: 18 256 60 60 (16588800)
I1128 23:07:55.115239 173035 net.cpp:137] Memory required for data: 2052864072
I1128 23:07:55.115245 173035 layer_factory.hpp:77] Creating layer res2c
I1128 23:07:55.115252 173035 net.cpp:84] Creating Layer res2c
I1128 23:07:55.115255 173035 net.cpp:406] res2c <- res2b_res2b_relu_0_split_1
I1128 23:07:55.115259 173035 net.cpp:406] res2c <- res2c_branch2c
I1128 23:07:55.115263 173035 net.cpp:380] res2c -> res2c
I1128 23:07:55.115280 173035 net.cpp:122] Setting up res2c
I1128 23:07:55.115285 173035 net.cpp:129] Top shape: 18 256 60 60 (16588800)
I1128 23:07:55.115288 173035 net.cpp:137] Memory required for data: 2119219272
I1128 23:07:55.115291 173035 layer_factory.hpp:77] Creating layer res2c_relu
I1128 23:07:55.115295 173035 net.cpp:84] Creating Layer res2c_relu
I1128 23:07:55.115298 173035 net.cpp:406] res2c_relu <- res2c
I1128 23:07:55.115303 173035 net.cpp:367] res2c_relu -> res2c (in-place)
I1128 23:07:55.115305 173035 net.cpp:122] Setting up res2c_relu
I1128 23:07:55.115309 173035 net.cpp:129] Top shape: 18 256 60 60 (16588800)
I1128 23:07:55.115312 173035 net.cpp:137] Memory required for data: 2185574472
I1128 23:07:55.115314 173035 layer_factory.hpp:77] Creating layer res2c_res2c_relu_0_split
I1128 23:07:55.115319 173035 net.cpp:84] Creating Layer res2c_res2c_relu_0_split
I1128 23:07:55.115321 173035 net.cpp:406] res2c_res2c_relu_0_split <- res2c
I1128 23:07:55.115330 173035 net.cpp:380] res2c_res2c_relu_0_split -> res2c_res2c_relu_0_split_0
I1128 23:07:55.115352 173035 net.cpp:380] res2c_res2c_relu_0_split -> res2c_res2c_relu_0_split_1
I1128 23:07:55.115375 173035 net.cpp:122] Setting up res2c_res2c_relu_0_split
I1128 23:07:55.115381 173035 net.cpp:129] Top shape: 18 256 60 60 (16588800)
I1128 23:07:55.115384 173035 net.cpp:129] Top shape: 18 256 60 60 (16588800)
I1128 23:07:55.115387 173035 net.cpp:137] Memory required for data: 2318284872
I1128 23:07:55.115391 173035 layer_factory.hpp:77] Creating layer res3a_branch1
I1128 23:07:55.115398 173035 net.cpp:84] Creating Layer res3a_branch1
I1128 23:07:55.115402 173035 net.cpp:406] res3a_branch1 <- res2c_res2c_relu_0_split_0
I1128 23:07:55.115406 173035 net.cpp:380] res3a_branch1 -> res3a_branch1
I1128 23:07:55.117043 173035 net.cpp:122] Setting up res3a_branch1
I1128 23:07:55.117053 173035 net.cpp:129] Top shape: 18 512 30 30 (8294400)
I1128 23:07:55.117056 173035 net.cpp:137] Memory required for data: 2351462472
I1128 23:07:55.117061 173035 layer_factory.hpp:77] Creating layer bn3a_branch1
I1128 23:07:55.117069 173035 net.cpp:84] Creating Layer bn3a_branch1
I1128 23:07:55.117071 173035 net.cpp:406] bn3a_branch1 <- res3a_branch1
I1128 23:07:55.117076 173035 net.cpp:367] bn3a_branch1 -> res3a_branch1 (in-place)
I1128 23:07:55.117696 173035 net.cpp:122] Setting up bn3a_branch1
I1128 23:07:55.117708 173035 net.cpp:129] Top shape: 18 512 30 30 (8294400)
I1128 23:07:55.117717 173035 net.cpp:137] Memory required for data: 2384640072
I1128 23:07:55.117723 173035 layer_factory.hpp:77] Creating layer scale3a_branch1
I1128 23:07:55.117730 173035 net.cpp:84] Creating Layer scale3a_branch1
I1128 23:07:55.117733 173035 net.cpp:406] scale3a_branch1 <- res3a_branch1
I1128 23:07:55.117738 173035 net.cpp:367] scale3a_branch1 -> res3a_branch1 (in-place)
I1128 23:07:55.117769 173035 layer_factory.hpp:77] Creating layer scale3a_branch1
I1128 23:07:55.117842 173035 net.cpp:122] Setting up scale3a_branch1
I1128 23:07:55.117848 173035 net.cpp:129] Top shape: 18 512 30 30 (8294400)
I1128 23:07:55.117851 173035 net.cpp:137] Memory required for data: 2417817672
I1128 23:07:55.117856 173035 layer_factory.hpp:77] Creating layer res3a_branch2a
I1128 23:07:55.117866 173035 net.cpp:84] Creating Layer res3a_branch2a
I1128 23:07:55.117869 173035 net.cpp:406] res3a_branch2a <- res2c_res2c_relu_0_split_1
I1128 23:07:55.117875 173035 net.cpp:380] res3a_branch2a -> res3a_branch2a
I1128 23:07:55.118247 173035 net.cpp:122] Setting up res3a_branch2a
I1128 23:07:55.118252 173035 net.cpp:129] Top shape: 18 128 30 30 (2073600)
I1128 23:07:55.118255 173035 net.cpp:137] Memory required for data: 2426112072
I1128 23:07:55.118258 173035 layer_factory.hpp:77] Creating layer bn3a_branch2a
I1128 23:07:55.118265 173035 net.cpp:84] Creating Layer bn3a_branch2a
I1128 23:07:55.118268 173035 net.cpp:406] bn3a_branch2a <- res3a_branch2a
I1128 23:07:55.118271 173035 net.cpp:367] bn3a_branch2a -> res3a_branch2a (in-place)
I1128 23:07:55.118394 173035 net.cpp:122] Setting up bn3a_branch2a
I1128 23:07:55.118401 173035 net.cpp:129] Top shape: 18 128 30 30 (2073600)
I1128 23:07:55.118403 173035 net.cpp:137] Memory required for data: 2434406472
I1128 23:07:55.118409 173035 layer_factory.hpp:77] Creating layer scale3a_branch2a
I1128 23:07:55.118414 173035 net.cpp:84] Creating Layer scale3a_branch2a
I1128 23:07:55.118418 173035 net.cpp:406] scale3a_branch2a <- res3a_branch2a
I1128 23:07:55.118422 173035 net.cpp:367] scale3a_branch2a -> res3a_branch2a (in-place)
I1128 23:07:55.118448 173035 layer_factory.hpp:77] Creating layer scale3a_branch2a
I1128 23:07:55.118521 173035 net.cpp:122] Setting up scale3a_branch2a
I1128 23:07:55.118527 173035 net.cpp:129] Top shape: 18 128 30 30 (2073600)
I1128 23:07:55.118530 173035 net.cpp:137] Memory required for data: 2442700872
I1128 23:07:55.118535 173035 layer_factory.hpp:77] Creating layer res3a_branch2a_relu
I1128 23:07:55.118538 173035 net.cpp:84] Creating Layer res3a_branch2a_relu
I1128 23:07:55.118541 173035 net.cpp:406] res3a_branch2a_relu <- res3a_branch2a
I1128 23:07:55.118547 173035 net.cpp:367] res3a_branch2a_relu -> res3a_branch2a (in-place)
I1128 23:07:55.118551 173035 net.cpp:122] Setting up res3a_branch2a_relu
I1128 23:07:55.118554 173035 net.cpp:129] Top shape: 18 128 30 30 (2073600)
I1128 23:07:55.118557 173035 net.cpp:137] Memory required for data: 2450995272
I1128 23:07:55.118561 173035 layer_factory.hpp:77] Creating layer res3a_branch2b
I1128 23:07:55.118567 173035 net.cpp:84] Creating Layer res3a_branch2b
I1128 23:07:55.118571 173035 net.cpp:406] res3a_branch2b <- res3a_branch2a
I1128 23:07:55.118574 173035 net.cpp:380] res3a_branch2b -> res3a_branch2b
I1128 23:07:55.120404 173035 net.cpp:122] Setting up res3a_branch2b
I1128 23:07:55.120415 173035 net.cpp:129] Top shape: 18 128 30 30 (2073600)
I1128 23:07:55.120419 173035 net.cpp:137] Memory required for data: 2459289672
I1128 23:07:55.120422 173035 layer_factory.hpp:77] Creating layer bn3a_branch2b
I1128 23:07:55.120429 173035 net.cpp:84] Creating Layer bn3a_branch2b
I1128 23:07:55.120431 173035 net.cpp:406] bn3a_branch2b <- res3a_branch2b
I1128 23:07:55.120435 173035 net.cpp:367] bn3a_branch2b -> res3a_branch2b (in-place)
I1128 23:07:55.120563 173035 net.cpp:122] Setting up bn3a_branch2b
I1128 23:07:55.120568 173035 net.cpp:129] Top shape: 18 128 30 30 (2073600)
I1128 23:07:55.120570 173035 net.cpp:137] Memory required for data: 2467584072
I1128 23:07:55.120580 173035 layer_factory.hpp:77] Creating layer scale3a_branch2b
I1128 23:07:55.120594 173035 net.cpp:84] Creating Layer scale3a_branch2b
I1128 23:07:55.120596 173035 net.cpp:406] scale3a_branch2b <- res3a_branch2b
I1128 23:07:55.120600 173035 net.cpp:367] scale3a_branch2b -> res3a_branch2b (in-place)
I1128 23:07:55.120627 173035 layer_factory.hpp:77] Creating layer scale3a_branch2b
I1128 23:07:55.120707 173035 net.cpp:122] Setting up scale3a_branch2b
I1128 23:07:55.120712 173035 net.cpp:129] Top shape: 18 128 30 30 (2073600)
I1128 23:07:55.120714 173035 net.cpp:137] Memory required for data: 2475878472
I1128 23:07:55.120719 173035 layer_factory.hpp:77] Creating layer res3a_branch2b_relu
I1128 23:07:55.120723 173035 net.cpp:84] Creating Layer res3a_branch2b_relu
I1128 23:07:55.120726 173035 net.cpp:406] res3a_branch2b_relu <- res3a_branch2b
I1128 23:07:55.120733 173035 net.cpp:367] res3a_branch2b_relu -> res3a_branch2b (in-place)
I1128 23:07:55.120738 173035 net.cpp:122] Setting up res3a_branch2b_relu
I1128 23:07:55.120741 173035 net.cpp:129] Top shape: 18 128 30 30 (2073600)
I1128 23:07:55.120744 173035 net.cpp:137] Memory required for data: 2484172872
I1128 23:07:55.120746 173035 layer_factory.hpp:77] Creating layer res3a_branch2c
I1128 23:07:55.120753 173035 net.cpp:84] Creating Layer res3a_branch2c
I1128 23:07:55.120755 173035 net.cpp:406] res3a_branch2c <- res3a_branch2b
I1128 23:07:55.120761 173035 net.cpp:380] res3a_branch2c -> res3a_branch2c
I1128 23:07:55.121384 173035 net.cpp:122] Setting up res3a_branch2c
I1128 23:07:55.121390 173035 net.cpp:129] Top shape: 18 512 30 30 (8294400)
I1128 23:07:55.121393 173035 net.cpp:137] Memory required for data: 2517350472
I1128 23:07:55.121397 173035 layer_factory.hpp:77] Creating layer bn3a_branch2c
I1128 23:07:55.121407 173035 net.cpp:84] Creating Layer bn3a_branch2c
I1128 23:07:55.121412 173035 net.cpp:406] bn3a_branch2c <- res3a_branch2c
I1128 23:07:55.121417 173035 net.cpp:367] bn3a_branch2c -> res3a_branch2c (in-place)
I1128 23:07:55.121551 173035 net.cpp:122] Setting up bn3a_branch2c
I1128 23:07:55.121556 173035 net.cpp:129] Top shape: 18 512 30 30 (8294400)
I1128 23:07:55.121558 173035 net.cpp:137] Memory required for data: 2550528072
I1128 23:07:55.121567 173035 layer_factory.hpp:77] Creating layer scale3a_branch2c
I1128 23:07:55.121572 173035 net.cpp:84] Creating Layer scale3a_branch2c
I1128 23:07:55.121574 173035 net.cpp:406] scale3a_branch2c <- res3a_branch2c
I1128 23:07:55.121578 173035 net.cpp:367] scale3a_branch2c -> res3a_branch2c (in-place)
I1128 23:07:55.121609 173035 layer_factory.hpp:77] Creating layer scale3a_branch2c
I1128 23:07:55.121686 173035 net.cpp:122] Setting up scale3a_branch2c
I1128 23:07:55.121691 173035 net.cpp:129] Top shape: 18 512 30 30 (8294400)
I1128 23:07:55.121695 173035 net.cpp:137] Memory required for data: 2583705672
I1128 23:07:55.121700 173035 layer_factory.hpp:77] Creating layer res3a
I1128 23:07:55.121703 173035 net.cpp:84] Creating Layer res3a
I1128 23:07:55.121706 173035 net.cpp:406] res3a <- res3a_branch1
I1128 23:07:55.121709 173035 net.cpp:406] res3a <- res3a_branch2c
I1128 23:07:55.121716 173035 net.cpp:380] res3a -> res3a
I1128 23:07:55.121733 173035 net.cpp:122] Setting up res3a
I1128 23:07:55.121738 173035 net.cpp:129] Top shape: 18 512 30 30 (8294400)
I1128 23:07:55.121740 173035 net.cpp:137] Memory required for data: 2616883272
I1128 23:07:55.121743 173035 layer_factory.hpp:77] Creating layer res3a_relu
I1128 23:07:55.121747 173035 net.cpp:84] Creating Layer res3a_relu
I1128 23:07:55.121750 173035 net.cpp:406] res3a_relu <- res3a
I1128 23:07:55.121754 173035 net.cpp:367] res3a_relu -> res3a (in-place)
I1128 23:07:55.121758 173035 net.cpp:122] Setting up res3a_relu
I1128 23:07:55.121762 173035 net.cpp:129] Top shape: 18 512 30 30 (8294400)
I1128 23:07:55.121764 173035 net.cpp:137] Memory required for data: 2650060872
I1128 23:07:55.121767 173035 layer_factory.hpp:77] Creating layer res3a_res3a_relu_0_split
I1128 23:07:55.121773 173035 net.cpp:84] Creating Layer res3a_res3a_relu_0_split
I1128 23:07:55.121775 173035 net.cpp:406] res3a_res3a_relu_0_split <- res3a
I1128 23:07:55.121785 173035 net.cpp:380] res3a_res3a_relu_0_split -> res3a_res3a_relu_0_split_0
I1128 23:07:55.121795 173035 net.cpp:380] res3a_res3a_relu_0_split -> res3a_res3a_relu_0_split_1
I1128 23:07:55.121821 173035 net.cpp:122] Setting up res3a_res3a_relu_0_split
I1128 23:07:55.121826 173035 net.cpp:129] Top shape: 18 512 30 30 (8294400)
I1128 23:07:55.121829 173035 net.cpp:129] Top shape: 18 512 30 30 (8294400)
I1128 23:07:55.121831 173035 net.cpp:137] Memory required for data: 2716416072
I1128 23:07:55.121835 173035 layer_factory.hpp:77] Creating layer res3b_branch2a
I1128 23:07:55.121841 173035 net.cpp:84] Creating Layer res3b_branch2a
I1128 23:07:55.121845 173035 net.cpp:406] res3b_branch2a <- res3a_res3a_relu_0_split_0
I1128 23:07:55.121848 173035 net.cpp:380] res3b_branch2a -> res3b_branch2a
I1128 23:07:55.122969 173035 net.cpp:122] Setting up res3b_branch2a
I1128 23:07:55.122980 173035 net.cpp:129] Top shape: 18 128 30 30 (2073600)
I1128 23:07:55.122983 173035 net.cpp:137] Memory required for data: 2724710472
I1128 23:07:55.122987 173035 layer_factory.hpp:77] Creating layer bn3b_branch2a
I1128 23:07:55.122993 173035 net.cpp:84] Creating Layer bn3b_branch2a
I1128 23:07:55.122997 173035 net.cpp:406] bn3b_branch2a <- res3b_branch2a
I1128 23:07:55.123003 173035 net.cpp:367] bn3b_branch2a -> res3b_branch2a (in-place)
I1128 23:07:55.123131 173035 net.cpp:122] Setting up bn3b_branch2a
I1128 23:07:55.123137 173035 net.cpp:129] Top shape: 18 128 30 30 (2073600)
I1128 23:07:55.123141 173035 net.cpp:137] Memory required for data: 2733004872
I1128 23:07:55.123145 173035 layer_factory.hpp:77] Creating layer scale3b_branch2a
I1128 23:07:55.123150 173035 net.cpp:84] Creating Layer scale3b_branch2a
I1128 23:07:55.123153 173035 net.cpp:406] scale3b_branch2a <- res3b_branch2a
I1128 23:07:55.123157 173035 net.cpp:367] scale3b_branch2a -> res3b_branch2a (in-place)
I1128 23:07:55.123184 173035 layer_factory.hpp:77] Creating layer scale3b_branch2a
I1128 23:07:55.123262 173035 net.cpp:122] Setting up scale3b_branch2a
I1128 23:07:55.123268 173035 net.cpp:129] Top shape: 18 128 30 30 (2073600)
I1128 23:07:55.123271 173035 net.cpp:137] Memory required for data: 2741299272
I1128 23:07:55.123275 173035 layer_factory.hpp:77] Creating layer res3b_branch2a_relu
I1128 23:07:55.123281 173035 net.cpp:84] Creating Layer res3b_branch2a_relu
I1128 23:07:55.123283 173035 net.cpp:406] res3b_branch2a_relu <- res3b_branch2a
I1128 23:07:55.123289 173035 net.cpp:367] res3b_branch2a_relu -> res3b_branch2a (in-place)
I1128 23:07:55.123293 173035 net.cpp:122] Setting up res3b_branch2a_relu
I1128 23:07:55.123296 173035 net.cpp:129] Top shape: 18 128 30 30 (2073600)
I1128 23:07:55.123299 173035 net.cpp:137] Memory required for data: 2749593672
I1128 23:07:55.123303 173035 layer_factory.hpp:77] Creating layer res3b_branch2b
I1128 23:07:55.123308 173035 net.cpp:84] Creating Layer res3b_branch2b
I1128 23:07:55.123311 173035 net.cpp:406] res3b_branch2b <- res3b_branch2a
I1128 23:07:55.123317 173035 net.cpp:380] res3b_branch2b -> res3b_branch2b
I1128 23:07:55.125068 173035 net.cpp:122] Setting up res3b_branch2b
I1128 23:07:55.125079 173035 net.cpp:129] Top shape: 18 128 30 30 (2073600)
I1128 23:07:55.125082 173035 net.cpp:137] Memory required for data: 2757888072
I1128 23:07:55.125087 173035 layer_factory.hpp:77] Creating layer bn3b_branch2b
I1128 23:07:55.125092 173035 net.cpp:84] Creating Layer bn3b_branch2b
I1128 23:07:55.125094 173035 net.cpp:406] bn3b_branch2b <- res3b_branch2b
I1128 23:07:55.125098 173035 net.cpp:367] bn3b_branch2b -> res3b_branch2b (in-place)
I1128 23:07:55.125228 173035 net.cpp:122] Setting up bn3b_branch2b
I1128 23:07:55.125234 173035 net.cpp:129] Top shape: 18 128 30 30 (2073600)
I1128 23:07:55.125237 173035 net.cpp:137] Memory required for data: 2766182472
I1128 23:07:55.125242 173035 layer_factory.hpp:77] Creating layer scale3b_branch2b
I1128 23:07:55.125247 173035 net.cpp:84] Creating Layer scale3b_branch2b
I1128 23:07:55.125250 173035 net.cpp:406] scale3b_branch2b <- res3b_branch2b
I1128 23:07:55.125258 173035 net.cpp:367] scale3b_branch2b -> res3b_branch2b (in-place)
I1128 23:07:55.125293 173035 layer_factory.hpp:77] Creating layer scale3b_branch2b
I1128 23:07:55.125372 173035 net.cpp:122] Setting up scale3b_branch2b
I1128 23:07:55.125377 173035 net.cpp:129] Top shape: 18 128 30 30 (2073600)
I1128 23:07:55.125380 173035 net.cpp:137] Memory required for data: 2774476872
I1128 23:07:55.125386 173035 layer_factory.hpp:77] Creating layer res3b_branch2b_relu
I1128 23:07:55.125392 173035 net.cpp:84] Creating Layer res3b_branch2b_relu
I1128 23:07:55.125396 173035 net.cpp:406] res3b_branch2b_relu <- res3b_branch2b
I1128 23:07:55.125399 173035 net.cpp:367] res3b_branch2b_relu -> res3b_branch2b (in-place)
I1128 23:07:55.125404 173035 net.cpp:122] Setting up res3b_branch2b_relu
I1128 23:07:55.125408 173035 net.cpp:129] Top shape: 18 128 30 30 (2073600)
I1128 23:07:55.125411 173035 net.cpp:137] Memory required for data: 2782771272
I1128 23:07:55.125413 173035 layer_factory.hpp:77] Creating layer res3b_branch2c
I1128 23:07:55.125419 173035 net.cpp:84] Creating Layer res3b_branch2c
I1128 23:07:55.125422 173035 net.cpp:406] res3b_branch2c <- res3b_branch2b
I1128 23:07:55.125428 173035 net.cpp:380] res3b_branch2c -> res3b_branch2c
I1128 23:07:55.126066 173035 net.cpp:122] Setting up res3b_branch2c
I1128 23:07:55.126072 173035 net.cpp:129] Top shape: 18 512 30 30 (8294400)
I1128 23:07:55.126076 173035 net.cpp:137] Memory required for data: 2815948872
I1128 23:07:55.126080 173035 layer_factory.hpp:77] Creating layer bn3b_branch2c
I1128 23:07:55.126086 173035 net.cpp:84] Creating Layer bn3b_branch2c
I1128 23:07:55.126090 173035 net.cpp:406] bn3b_branch2c <- res3b_branch2c
I1128 23:07:55.126093 173035 net.cpp:367] bn3b_branch2c -> res3b_branch2c (in-place)
I1128 23:07:55.126224 173035 net.cpp:122] Setting up bn3b_branch2c
I1128 23:07:55.126230 173035 net.cpp:129] Top shape: 18 512 30 30 (8294400)
I1128 23:07:55.126232 173035 net.cpp:137] Memory required for data: 2849126472
I1128 23:07:55.126238 173035 layer_factory.hpp:77] Creating layer scale3b_branch2c
I1128 23:07:55.126242 173035 net.cpp:84] Creating Layer scale3b_branch2c
I1128 23:07:55.126245 173035 net.cpp:406] scale3b_branch2c <- res3b_branch2c
I1128 23:07:55.126250 173035 net.cpp:367] scale3b_branch2c -> res3b_branch2c (in-place)
I1128 23:07:55.126279 173035 layer_factory.hpp:77] Creating layer scale3b_branch2c
I1128 23:07:55.126371 173035 net.cpp:122] Setting up scale3b_branch2c
I1128 23:07:55.126376 173035 net.cpp:129] Top shape: 18 512 30 30 (8294400)
I1128 23:07:55.126379 173035 net.cpp:137] Memory required for data: 2882304072
I1128 23:07:55.126385 173035 layer_factory.hpp:77] Creating layer res3b
I1128 23:07:55.126391 173035 net.cpp:84] Creating Layer res3b
I1128 23:07:55.126394 173035 net.cpp:406] res3b <- res3a_res3a_relu_0_split_1
I1128 23:07:55.126399 173035 net.cpp:406] res3b <- res3b_branch2c
I1128 23:07:55.126402 173035 net.cpp:380] res3b -> res3b
I1128 23:07:55.126420 173035 net.cpp:122] Setting up res3b
I1128 23:07:55.126425 173035 net.cpp:129] Top shape: 18 512 30 30 (8294400)
I1128 23:07:55.126427 173035 net.cpp:137] Memory required for data: 2915481672
I1128 23:07:55.126431 173035 layer_factory.hpp:77] Creating layer res3b_relu
I1128 23:07:55.126435 173035 net.cpp:84] Creating Layer res3b_relu
I1128 23:07:55.126437 173035 net.cpp:406] res3b_relu <- res3b
I1128 23:07:55.126442 173035 net.cpp:367] res3b_relu -> res3b (in-place)
I1128 23:07:55.126447 173035 net.cpp:122] Setting up res3b_relu
I1128 23:07:55.126451 173035 net.cpp:129] Top shape: 18 512 30 30 (8294400)
I1128 23:07:55.126453 173035 net.cpp:137] Memory required for data: 2948659272
I1128 23:07:55.126456 173035 layer_factory.hpp:77] Creating layer res3b_res3b_relu_0_split
I1128 23:07:55.126461 173035 net.cpp:84] Creating Layer res3b_res3b_relu_0_split
I1128 23:07:55.126462 173035 net.cpp:406] res3b_res3b_relu_0_split <- res3b
I1128 23:07:55.126466 173035 net.cpp:380] res3b_res3b_relu_0_split -> res3b_res3b_relu_0_split_0
I1128 23:07:55.126473 173035 net.cpp:380] res3b_res3b_relu_0_split -> res3b_res3b_relu_0_split_1
I1128 23:07:55.126500 173035 net.cpp:122] Setting up res3b_res3b_relu_0_split
I1128 23:07:55.126509 173035 net.cpp:129] Top shape: 18 512 30 30 (8294400)
I1128 23:07:55.126513 173035 net.cpp:129] Top shape: 18 512 30 30 (8294400)
I1128 23:07:55.126515 173035 net.cpp:137] Memory required for data: 3015014472
I1128 23:07:55.126518 173035 layer_factory.hpp:77] Creating layer res3c_branch2a
I1128 23:07:55.126525 173035 net.cpp:84] Creating Layer res3c_branch2a
I1128 23:07:55.126528 173035 net.cpp:406] res3c_branch2a <- res3b_res3b_relu_0_split_0
I1128 23:07:55.126533 173035 net.cpp:380] res3c_branch2a -> res3c_branch2a
I1128 23:07:55.127157 173035 net.cpp:122] Setting up res3c_branch2a
I1128 23:07:55.127164 173035 net.cpp:129] Top shape: 18 128 30 30 (2073600)
I1128 23:07:55.127166 173035 net.cpp:137] Memory required for data: 3023308872
I1128 23:07:55.127172 173035 layer_factory.hpp:77] Creating layer bn3c_branch2a
I1128 23:07:55.127177 173035 net.cpp:84] Creating Layer bn3c_branch2a
I1128 23:07:55.127179 173035 net.cpp:406] bn3c_branch2a <- res3c_branch2a
I1128 23:07:55.127183 173035 net.cpp:367] bn3c_branch2a -> res3c_branch2a (in-place)
I1128 23:07:55.127313 173035 net.cpp:122] Setting up bn3c_branch2a
I1128 23:07:55.127322 173035 net.cpp:129] Top shape: 18 128 30 30 (2073600)
I1128 23:07:55.127324 173035 net.cpp:137] Memory required for data: 3031603272
I1128 23:07:55.127336 173035 layer_factory.hpp:77] Creating layer scale3c_branch2a
I1128 23:07:55.127341 173035 net.cpp:84] Creating Layer scale3c_branch2a
I1128 23:07:55.127343 173035 net.cpp:406] scale3c_branch2a <- res3c_branch2a
I1128 23:07:55.127347 173035 net.cpp:367] scale3c_branch2a -> res3c_branch2a (in-place)
I1128 23:07:55.127375 173035 layer_factory.hpp:77] Creating layer scale3c_branch2a
I1128 23:07:55.127452 173035 net.cpp:122] Setting up scale3c_branch2a
I1128 23:07:55.127457 173035 net.cpp:129] Top shape: 18 128 30 30 (2073600)
I1128 23:07:55.127460 173035 net.cpp:137] Memory required for data: 3039897672
I1128 23:07:55.127465 173035 layer_factory.hpp:77] Creating layer res3c_branch2a_relu
I1128 23:07:55.127470 173035 net.cpp:84] Creating Layer res3c_branch2a_relu
I1128 23:07:55.127473 173035 net.cpp:406] res3c_branch2a_relu <- res3c_branch2a
I1128 23:07:55.127477 173035 net.cpp:367] res3c_branch2a_relu -> res3c_branch2a (in-place)
I1128 23:07:55.127481 173035 net.cpp:122] Setting up res3c_branch2a_relu
I1128 23:07:55.127485 173035 net.cpp:129] Top shape: 18 128 30 30 (2073600)
I1128 23:07:55.127487 173035 net.cpp:137] Memory required for data: 3048192072
I1128 23:07:55.127490 173035 layer_factory.hpp:77] Creating layer res3c_branch2b
I1128 23:07:55.127496 173035 net.cpp:84] Creating Layer res3c_branch2b
I1128 23:07:55.127499 173035 net.cpp:406] res3c_branch2b <- res3c_branch2a
I1128 23:07:55.127504 173035 net.cpp:380] res3c_branch2b -> res3c_branch2b
I1128 23:07:55.129245 173035 net.cpp:122] Setting up res3c_branch2b
I1128 23:07:55.129256 173035 net.cpp:129] Top shape: 18 128 30 30 (2073600)
I1128 23:07:55.129258 173035 net.cpp:137] Memory required for data: 3056486472
I1128 23:07:55.129264 173035 layer_factory.hpp:77] Creating layer bn3c_branch2b
I1128 23:07:55.129269 173035 net.cpp:84] Creating Layer bn3c_branch2b
I1128 23:07:55.129272 173035 net.cpp:406] bn3c_branch2b <- res3c_branch2b
I1128 23:07:55.129276 173035 net.cpp:367] bn3c_branch2b -> res3c_branch2b (in-place)
I1128 23:07:55.129406 173035 net.cpp:122] Setting up bn3c_branch2b
I1128 23:07:55.129412 173035 net.cpp:129] Top shape: 18 128 30 30 (2073600)
I1128 23:07:55.129415 173035 net.cpp:137] Memory required for data: 3064780872
I1128 23:07:55.129420 173035 layer_factory.hpp:77] Creating layer scale3c_branch2b
I1128 23:07:55.129426 173035 net.cpp:84] Creating Layer scale3c_branch2b
I1128 23:07:55.129429 173035 net.cpp:406] scale3c_branch2b <- res3c_branch2b
I1128 23:07:55.129433 173035 net.cpp:367] scale3c_branch2b -> res3c_branch2b (in-place)
I1128 23:07:55.129462 173035 layer_factory.hpp:77] Creating layer scale3c_branch2b
I1128 23:07:55.129539 173035 net.cpp:122] Setting up scale3c_branch2b
I1128 23:07:55.129549 173035 net.cpp:129] Top shape: 18 128 30 30 (2073600)
I1128 23:07:55.129556 173035 net.cpp:137] Memory required for data: 3073075272
I1128 23:07:55.129561 173035 layer_factory.hpp:77] Creating layer res3c_branch2b_relu
I1128 23:07:55.129566 173035 net.cpp:84] Creating Layer res3c_branch2b_relu
I1128 23:07:55.129570 173035 net.cpp:406] res3c_branch2b_relu <- res3c_branch2b
I1128 23:07:55.129575 173035 net.cpp:367] res3c_branch2b_relu -> res3c_branch2b (in-place)
I1128 23:07:55.129578 173035 net.cpp:122] Setting up res3c_branch2b_relu
I1128 23:07:55.129583 173035 net.cpp:129] Top shape: 18 128 30 30 (2073600)
I1128 23:07:55.129585 173035 net.cpp:137] Memory required for data: 3081369672
I1128 23:07:55.129588 173035 layer_factory.hpp:77] Creating layer res3c_branch2c
I1128 23:07:55.129595 173035 net.cpp:84] Creating Layer res3c_branch2c
I1128 23:07:55.129598 173035 net.cpp:406] res3c_branch2c <- res3c_branch2b
I1128 23:07:55.129602 173035 net.cpp:380] res3c_branch2c -> res3c_branch2c
I1128 23:07:55.130249 173035 net.cpp:122] Setting up res3c_branch2c
I1128 23:07:55.130255 173035 net.cpp:129] Top shape: 18 512 30 30 (8294400)
I1128 23:07:55.130259 173035 net.cpp:137] Memory required for data: 3114547272
I1128 23:07:55.130264 173035 layer_factory.hpp:77] Creating layer bn3c_branch2c
I1128 23:07:55.130269 173035 net.cpp:84] Creating Layer bn3c_branch2c
I1128 23:07:55.130271 173035 net.cpp:406] bn3c_branch2c <- res3c_branch2c
I1128 23:07:55.130275 173035 net.cpp:367] bn3c_branch2c -> res3c_branch2c (in-place)
I1128 23:07:55.130426 173035 net.cpp:122] Setting up bn3c_branch2c
I1128 23:07:55.130431 173035 net.cpp:129] Top shape: 18 512 30 30 (8294400)
I1128 23:07:55.130434 173035 net.cpp:137] Memory required for data: 3147724872
I1128 23:07:55.130440 173035 layer_factory.hpp:77] Creating layer scale3c_branch2c
I1128 23:07:55.130445 173035 net.cpp:84] Creating Layer scale3c_branch2c
I1128 23:07:55.130448 173035 net.cpp:406] scale3c_branch2c <- res3c_branch2c
I1128 23:07:55.130452 173035 net.cpp:367] scale3c_branch2c -> res3c_branch2c (in-place)
I1128 23:07:55.130481 173035 layer_factory.hpp:77] Creating layer scale3c_branch2c
I1128 23:07:55.130554 173035 net.cpp:122] Setting up scale3c_branch2c
I1128 23:07:55.130559 173035 net.cpp:129] Top shape: 18 512 30 30 (8294400)
I1128 23:07:55.130563 173035 net.cpp:137] Memory required for data: 3180902472
I1128 23:07:55.130568 173035 layer_factory.hpp:77] Creating layer res3c
I1128 23:07:55.130573 173035 net.cpp:84] Creating Layer res3c
I1128 23:07:55.130575 173035 net.cpp:406] res3c <- res3b_res3b_relu_0_split_1
I1128 23:07:55.130579 173035 net.cpp:406] res3c <- res3c_branch2c
I1128 23:07:55.130584 173035 net.cpp:380] res3c -> res3c
I1128 23:07:55.130600 173035 net.cpp:122] Setting up res3c
I1128 23:07:55.130605 173035 net.cpp:129] Top shape: 18 512 30 30 (8294400)
I1128 23:07:55.130607 173035 net.cpp:137] Memory required for data: 3214080072
I1128 23:07:55.130611 173035 layer_factory.hpp:77] Creating layer res3c_relu
I1128 23:07:55.130615 173035 net.cpp:84] Creating Layer res3c_relu
I1128 23:07:55.130619 173035 net.cpp:406] res3c_relu <- res3c
I1128 23:07:55.130623 173035 net.cpp:367] res3c_relu -> res3c (in-place)
I1128 23:07:55.130628 173035 net.cpp:122] Setting up res3c_relu
I1128 23:07:55.130632 173035 net.cpp:129] Top shape: 18 512 30 30 (8294400)
I1128 23:07:55.130635 173035 net.cpp:137] Memory required for data: 3247257672
I1128 23:07:55.130638 173035 layer_factory.hpp:77] Creating layer res3c_res3c_relu_0_split
I1128 23:07:55.130643 173035 net.cpp:84] Creating Layer res3c_res3c_relu_0_split
I1128 23:07:55.130645 173035 net.cpp:406] res3c_res3c_relu_0_split <- res3c
I1128 23:07:55.130650 173035 net.cpp:380] res3c_res3c_relu_0_split -> res3c_res3c_relu_0_split_0
I1128 23:07:55.130655 173035 net.cpp:380] res3c_res3c_relu_0_split -> res3c_res3c_relu_0_split_1
I1128 23:07:55.130682 173035 net.cpp:122] Setting up res3c_res3c_relu_0_split
I1128 23:07:55.130686 173035 net.cpp:129] Top shape: 18 512 30 30 (8294400)
I1128 23:07:55.130693 173035 net.cpp:129] Top shape: 18 512 30 30 (8294400)
I1128 23:07:55.130697 173035 net.cpp:137] Memory required for data: 3313612872
I1128 23:07:55.130703 173035 layer_factory.hpp:77] Creating layer res3d_branch2a
I1128 23:07:55.130709 173035 net.cpp:84] Creating Layer res3d_branch2a
I1128 23:07:55.130712 173035 net.cpp:406] res3d_branch2a <- res3c_res3c_relu_0_split_0
I1128 23:07:55.130718 173035 net.cpp:380] res3d_branch2a -> res3d_branch2a
I1128 23:07:55.131837 173035 net.cpp:122] Setting up res3d_branch2a
I1128 23:07:55.131849 173035 net.cpp:129] Top shape: 18 128 30 30 (2073600)
I1128 23:07:55.131851 173035 net.cpp:137] Memory required for data: 3321907272
I1128 23:07:55.131855 173035 layer_factory.hpp:77] Creating layer bn3d_branch2a
I1128 23:07:55.131860 173035 net.cpp:84] Creating Layer bn3d_branch2a
I1128 23:07:55.131863 173035 net.cpp:406] bn3d_branch2a <- res3d_branch2a
I1128 23:07:55.131867 173035 net.cpp:367] bn3d_branch2a -> res3d_branch2a (in-place)
I1128 23:07:55.131997 173035 net.cpp:122] Setting up bn3d_branch2a
I1128 23:07:55.132004 173035 net.cpp:129] Top shape: 18 128 30 30 (2073600)
I1128 23:07:55.132007 173035 net.cpp:137] Memory required for data: 3330201672
I1128 23:07:55.132024 173035 layer_factory.hpp:77] Creating layer scale3d_branch2a
I1128 23:07:55.132030 173035 net.cpp:84] Creating Layer scale3d_branch2a
I1128 23:07:55.132033 173035 net.cpp:406] scale3d_branch2a <- res3d_branch2a
I1128 23:07:55.132040 173035 net.cpp:367] scale3d_branch2a -> res3d_branch2a (in-place)
I1128 23:07:55.132066 173035 layer_factory.hpp:77] Creating layer scale3d_branch2a
I1128 23:07:55.132143 173035 net.cpp:122] Setting up scale3d_branch2a
I1128 23:07:55.132149 173035 net.cpp:129] Top shape: 18 128 30 30 (2073600)
I1128 23:07:55.132151 173035 net.cpp:137] Memory required for data: 3338496072
I1128 23:07:55.132158 173035 layer_factory.hpp:77] Creating layer res3d_branch2a_relu
I1128 23:07:55.132163 173035 net.cpp:84] Creating Layer res3d_branch2a_relu
I1128 23:07:55.132165 173035 net.cpp:406] res3d_branch2a_relu <- res3d_branch2a
I1128 23:07:55.132169 173035 net.cpp:367] res3d_branch2a_relu -> res3d_branch2a (in-place)
I1128 23:07:55.132174 173035 net.cpp:122] Setting up res3d_branch2a_relu
I1128 23:07:55.132176 173035 net.cpp:129] Top shape: 18 128 30 30 (2073600)
I1128 23:07:55.132179 173035 net.cpp:137] Memory required for data: 3346790472
I1128 23:07:55.132182 173035 layer_factory.hpp:77] Creating layer res3d_branch2b
I1128 23:07:55.132189 173035 net.cpp:84] Creating Layer res3d_branch2b
I1128 23:07:55.132192 173035 net.cpp:406] res3d_branch2b <- res3d_branch2a
I1128 23:07:55.132200 173035 net.cpp:380] res3d_branch2b -> res3d_branch2b
I1128 23:07:55.133939 173035 net.cpp:122] Setting up res3d_branch2b
I1128 23:07:55.133949 173035 net.cpp:129] Top shape: 18 128 30 30 (2073600)
I1128 23:07:55.133951 173035 net.cpp:137] Memory required for data: 3355084872
I1128 23:07:55.133956 173035 layer_factory.hpp:77] Creating layer bn3d_branch2b
I1128 23:07:55.133963 173035 net.cpp:84] Creating Layer bn3d_branch2b
I1128 23:07:55.133966 173035 net.cpp:406] bn3d_branch2b <- res3d_branch2b
I1128 23:07:55.133970 173035 net.cpp:367] bn3d_branch2b -> res3d_branch2b (in-place)
I1128 23:07:55.134100 173035 net.cpp:122] Setting up bn3d_branch2b
I1128 23:07:55.134106 173035 net.cpp:129] Top shape: 18 128 30 30 (2073600)
I1128 23:07:55.134109 173035 net.cpp:137] Memory required for data: 3363379272
I1128 23:07:55.134114 173035 layer_factory.hpp:77] Creating layer scale3d_branch2b
I1128 23:07:55.134119 173035 net.cpp:84] Creating Layer scale3d_branch2b
I1128 23:07:55.134122 173035 net.cpp:406] scale3d_branch2b <- res3d_branch2b
I1128 23:07:55.134125 173035 net.cpp:367] scale3d_branch2b -> res3d_branch2b (in-place)
I1128 23:07:55.134153 173035 layer_factory.hpp:77] Creating layer scale3d_branch2b
I1128 23:07:55.134232 173035 net.cpp:122] Setting up scale3d_branch2b
I1128 23:07:55.134238 173035 net.cpp:129] Top shape: 18 128 30 30 (2073600)
I1128 23:07:55.134239 173035 net.cpp:137] Memory required for data: 3371673672
I1128 23:07:55.134249 173035 layer_factory.hpp:77] Creating layer res3d_branch2b_relu
I1128 23:07:55.134260 173035 net.cpp:84] Creating Layer res3d_branch2b_relu
I1128 23:07:55.134263 173035 net.cpp:406] res3d_branch2b_relu <- res3d_branch2b
I1128 23:07:55.134268 173035 net.cpp:367] res3d_branch2b_relu -> res3d_branch2b (in-place)
I1128 23:07:55.134271 173035 net.cpp:122] Setting up res3d_branch2b_relu
I1128 23:07:55.134275 173035 net.cpp:129] Top shape: 18 128 30 30 (2073600)
I1128 23:07:55.134277 173035 net.cpp:137] Memory required for data: 3379968072
I1128 23:07:55.134280 173035 layer_factory.hpp:77] Creating layer res3d_branch2c
I1128 23:07:55.134287 173035 net.cpp:84] Creating Layer res3d_branch2c
I1128 23:07:55.134291 173035 net.cpp:406] res3d_branch2c <- res3d_branch2b
I1128 23:07:55.134295 173035 net.cpp:380] res3d_branch2c -> res3d_branch2c
I1128 23:07:55.134930 173035 net.cpp:122] Setting up res3d_branch2c
I1128 23:07:55.134938 173035 net.cpp:129] Top shape: 18 512 30 30 (8294400)
I1128 23:07:55.134940 173035 net.cpp:137] Memory required for data: 3413145672
I1128 23:07:55.134943 173035 layer_factory.hpp:77] Creating layer bn3d_branch2c
I1128 23:07:55.134950 173035 net.cpp:84] Creating Layer bn3d_branch2c
I1128 23:07:55.134953 173035 net.cpp:406] bn3d_branch2c <- res3d_branch2c
I1128 23:07:55.134958 173035 net.cpp:367] bn3d_branch2c -> res3d_branch2c (in-place)
I1128 23:07:55.135083 173035 net.cpp:122] Setting up bn3d_branch2c
I1128 23:07:55.135088 173035 net.cpp:129] Top shape: 18 512 30 30 (8294400)
I1128 23:07:55.135092 173035 net.cpp:137] Memory required for data: 3446323272
I1128 23:07:55.135097 173035 layer_factory.hpp:77] Creating layer scale3d_branch2c
I1128 23:07:55.135104 173035 net.cpp:84] Creating Layer scale3d_branch2c
I1128 23:07:55.135107 173035 net.cpp:406] scale3d_branch2c <- res3d_branch2c
I1128 23:07:55.135112 173035 net.cpp:367] scale3d_branch2c -> res3d_branch2c (in-place)
I1128 23:07:55.135141 173035 layer_factory.hpp:77] Creating layer scale3d_branch2c
I1128 23:07:55.135217 173035 net.cpp:122] Setting up scale3d_branch2c
I1128 23:07:55.135223 173035 net.cpp:129] Top shape: 18 512 30 30 (8294400)
I1128 23:07:55.135226 173035 net.cpp:137] Memory required for data: 3479500872
I1128 23:07:55.135231 173035 layer_factory.hpp:77] Creating layer res3d
I1128 23:07:55.135236 173035 net.cpp:84] Creating Layer res3d
I1128 23:07:55.135239 173035 net.cpp:406] res3d <- res3c_res3c_relu_0_split_1
I1128 23:07:55.135242 173035 net.cpp:406] res3d <- res3d_branch2c
I1128 23:07:55.135248 173035 net.cpp:380] res3d -> res3d
I1128 23:07:55.135265 173035 net.cpp:122] Setting up res3d
I1128 23:07:55.135272 173035 net.cpp:129] Top shape: 18 512 30 30 (8294400)
I1128 23:07:55.135274 173035 net.cpp:137] Memory required for data: 3512678472
I1128 23:07:55.135277 173035 layer_factory.hpp:77] Creating layer res3d_relu
I1128 23:07:55.135282 173035 net.cpp:84] Creating Layer res3d_relu
I1128 23:07:55.135284 173035 net.cpp:406] res3d_relu <- res3d
I1128 23:07:55.135288 173035 net.cpp:367] res3d_relu -> res3d (in-place)
I1128 23:07:55.135293 173035 net.cpp:122] Setting up res3d_relu
I1128 23:07:55.135296 173035 net.cpp:129] Top shape: 18 512 30 30 (8294400)
I1128 23:07:55.135298 173035 net.cpp:137] Memory required for data: 3545856072
I1128 23:07:55.135301 173035 layer_factory.hpp:77] Creating layer res3d_res3d_relu_0_split
I1128 23:07:55.135305 173035 net.cpp:84] Creating Layer res3d_res3d_relu_0_split
I1128 23:07:55.135308 173035 net.cpp:406] res3d_res3d_relu_0_split <- res3d
I1128 23:07:55.135313 173035 net.cpp:380] res3d_res3d_relu_0_split -> res3d_res3d_relu_0_split_0
I1128 23:07:55.135318 173035 net.cpp:380] res3d_res3d_relu_0_split -> res3d_res3d_relu_0_split_1
I1128 23:07:55.135365 173035 net.cpp:122] Setting up res3d_res3d_relu_0_split
I1128 23:07:55.135370 173035 net.cpp:129] Top shape: 18 512 30 30 (8294400)
I1128 23:07:55.135373 173035 net.cpp:129] Top shape: 18 512 30 30 (8294400)
I1128 23:07:55.135376 173035 net.cpp:137] Memory required for data: 3612211272
I1128 23:07:55.135380 173035 layer_factory.hpp:77] Creating layer res4a_branch1
I1128 23:07:55.135388 173035 net.cpp:84] Creating Layer res4a_branch1
I1128 23:07:55.135397 173035 net.cpp:406] res4a_branch1 <- res3d_res3d_relu_0_split_0
I1128 23:07:55.135401 173035 net.cpp:380] res4a_branch1 -> res4a_branch1
I1128 23:07:55.140372 173035 net.cpp:122] Setting up res4a_branch1
I1128 23:07:55.140383 173035 net.cpp:129] Top shape: 18 1024 15 15 (4147200)
I1128 23:07:55.140386 173035 net.cpp:137] Memory required for data: 3628800072
I1128 23:07:55.140393 173035 layer_factory.hpp:77] Creating layer bn4a_branch1
I1128 23:07:55.140400 173035 net.cpp:84] Creating Layer bn4a_branch1
I1128 23:07:55.140403 173035 net.cpp:406] bn4a_branch1 <- res4a_branch1
I1128 23:07:55.140408 173035 net.cpp:367] bn4a_branch1 -> res4a_branch1 (in-place)
I1128 23:07:55.140544 173035 net.cpp:122] Setting up bn4a_branch1
I1128 23:07:55.140552 173035 net.cpp:129] Top shape: 18 1024 15 15 (4147200)
I1128 23:07:55.140553 173035 net.cpp:137] Memory required for data: 3645388872
I1128 23:07:55.140559 173035 layer_factory.hpp:77] Creating layer scale4a_branch1
I1128 23:07:55.140565 173035 net.cpp:84] Creating Layer scale4a_branch1
I1128 23:07:55.140568 173035 net.cpp:406] scale4a_branch1 <- res4a_branch1
I1128 23:07:55.140573 173035 net.cpp:367] scale4a_branch1 -> res4a_branch1 (in-place)
I1128 23:07:55.140599 173035 layer_factory.hpp:77] Creating layer scale4a_branch1
I1128 23:07:55.140677 173035 net.cpp:122] Setting up scale4a_branch1
I1128 23:07:55.140682 173035 net.cpp:129] Top shape: 18 1024 15 15 (4147200)
I1128 23:07:55.140686 173035 net.cpp:137] Memory required for data: 3661977672
I1128 23:07:55.140689 173035 layer_factory.hpp:77] Creating layer res4a_branch2a
I1128 23:07:55.140697 173035 net.cpp:84] Creating Layer res4a_branch2a
I1128 23:07:55.140700 173035 net.cpp:406] res4a_branch2a <- res3d_res3d_relu_0_split_1
I1128 23:07:55.140707 173035 net.cpp:380] res4a_branch2a -> res4a_branch2a
I1128 23:07:55.141820 173035 net.cpp:122] Setting up res4a_branch2a
I1128 23:07:55.141827 173035 net.cpp:129] Top shape: 18 256 15 15 (1036800)
I1128 23:07:55.141830 173035 net.cpp:137] Memory required for data: 3666124872
I1128 23:07:55.141834 173035 layer_factory.hpp:77] Creating layer bn4a_branch2a
I1128 23:07:55.141840 173035 net.cpp:84] Creating Layer bn4a_branch2a
I1128 23:07:55.141844 173035 net.cpp:406] bn4a_branch2a <- res4a_branch2a
I1128 23:07:55.141847 173035 net.cpp:367] bn4a_branch2a -> res4a_branch2a (in-place)
I1128 23:07:55.141976 173035 net.cpp:122] Setting up bn4a_branch2a
I1128 23:07:55.141983 173035 net.cpp:129] Top shape: 18 256 15 15 (1036800)
I1128 23:07:55.141984 173035 net.cpp:137] Memory required for data: 3670272072
I1128 23:07:55.141990 173035 layer_factory.hpp:77] Creating layer scale4a_branch2a
I1128 23:07:55.141995 173035 net.cpp:84] Creating Layer scale4a_branch2a
I1128 23:07:55.141999 173035 net.cpp:406] scale4a_branch2a <- res4a_branch2a
I1128 23:07:55.142004 173035 net.cpp:367] scale4a_branch2a -> res4a_branch2a (in-place)
I1128 23:07:55.142030 173035 layer_factory.hpp:77] Creating layer scale4a_branch2a
I1128 23:07:55.142103 173035 net.cpp:122] Setting up scale4a_branch2a
I1128 23:07:55.142108 173035 net.cpp:129] Top shape: 18 256 15 15 (1036800)
I1128 23:07:55.142112 173035 net.cpp:137] Memory required for data: 3674419272
I1128 23:07:55.142117 173035 layer_factory.hpp:77] Creating layer res4a_branch2a_relu
I1128 23:07:55.142120 173035 net.cpp:84] Creating Layer res4a_branch2a_relu
I1128 23:07:55.142123 173035 net.cpp:406] res4a_branch2a_relu <- res4a_branch2a
I1128 23:07:55.142127 173035 net.cpp:367] res4a_branch2a_relu -> res4a_branch2a (in-place)
I1128 23:07:55.142132 173035 net.cpp:122] Setting up res4a_branch2a_relu
I1128 23:07:55.142135 173035 net.cpp:129] Top shape: 18 256 15 15 (1036800)
I1128 23:07:55.142138 173035 net.cpp:137] Memory required for data: 3678566472
I1128 23:07:55.142140 173035 layer_factory.hpp:77] Creating layer res4a_branch2b
I1128 23:07:55.142148 173035 net.cpp:84] Creating Layer res4a_branch2b
I1128 23:07:55.142150 173035 net.cpp:406] res4a_branch2b <- res4a_branch2a
I1128 23:07:55.142160 173035 net.cpp:380] res4a_branch2b -> res4a_branch2b
I1128 23:07:55.147680 173035 net.cpp:122] Setting up res4a_branch2b
I1128 23:07:55.147691 173035 net.cpp:129] Top shape: 18 256 15 15 (1036800)
I1128 23:07:55.147693 173035 net.cpp:137] Memory required for data: 3682713672
I1128 23:07:55.147698 173035 layer_factory.hpp:77] Creating layer bn4a_branch2b
I1128 23:07:55.147702 173035 net.cpp:84] Creating Layer bn4a_branch2b
I1128 23:07:55.147706 173035 net.cpp:406] bn4a_branch2b <- res4a_branch2b
I1128 23:07:55.147712 173035 net.cpp:367] bn4a_branch2b -> res4a_branch2b (in-place)
I1128 23:07:55.147843 173035 net.cpp:122] Setting up bn4a_branch2b
I1128 23:07:55.147848 173035 net.cpp:129] Top shape: 18 256 15 15 (1036800)
I1128 23:07:55.147851 173035 net.cpp:137] Memory required for data: 3686860872
I1128 23:07:55.147858 173035 layer_factory.hpp:77] Creating layer scale4a_branch2b
I1128 23:07:55.147863 173035 net.cpp:84] Creating Layer scale4a_branch2b
I1128 23:07:55.147866 173035 net.cpp:406] scale4a_branch2b <- res4a_branch2b
I1128 23:07:55.147871 173035 net.cpp:367] scale4a_branch2b -> res4a_branch2b (in-place)
I1128 23:07:55.147899 173035 layer_factory.hpp:77] Creating layer scale4a_branch2b
I1128 23:07:55.147975 173035 net.cpp:122] Setting up scale4a_branch2b
I1128 23:07:55.147980 173035 net.cpp:129] Top shape: 18 256 15 15 (1036800)
I1128 23:07:55.147984 173035 net.cpp:137] Memory required for data: 3691008072
I1128 23:07:55.147987 173035 layer_factory.hpp:77] Creating layer res4a_branch2b_relu
I1128 23:07:55.147991 173035 net.cpp:84] Creating Layer res4a_branch2b_relu
I1128 23:07:55.147994 173035 net.cpp:406] res4a_branch2b_relu <- res4a_branch2b
I1128 23:07:55.148000 173035 net.cpp:367] res4a_branch2b_relu -> res4a_branch2b (in-place)
I1128 23:07:55.148005 173035 net.cpp:122] Setting up res4a_branch2b_relu
I1128 23:07:55.148007 173035 net.cpp:129] Top shape: 18 256 15 15 (1036800)
I1128 23:07:55.148010 173035 net.cpp:137] Memory required for data: 3695155272
I1128 23:07:55.148013 173035 layer_factory.hpp:77] Creating layer res4a_branch2c
I1128 23:07:55.148020 173035 net.cpp:84] Creating Layer res4a_branch2c
I1128 23:07:55.148022 173035 net.cpp:406] res4a_branch2c <- res4a_branch2b
I1128 23:07:55.148027 173035 net.cpp:380] res4a_branch2c -> res4a_branch2c
I1128 23:07:55.150629 173035 net.cpp:122] Setting up res4a_branch2c
I1128 23:07:55.150640 173035 net.cpp:129] Top shape: 18 1024 15 15 (4147200)
I1128 23:07:55.150642 173035 net.cpp:137] Memory required for data: 3711744072
I1128 23:07:55.150645 173035 layer_factory.hpp:77] Creating layer bn4a_branch2c
I1128 23:07:55.150651 173035 net.cpp:84] Creating Layer bn4a_branch2c
I1128 23:07:55.150655 173035 net.cpp:406] bn4a_branch2c <- res4a_branch2c
I1128 23:07:55.150658 173035 net.cpp:367] bn4a_branch2c -> res4a_branch2c (in-place)
I1128 23:07:55.150794 173035 net.cpp:122] Setting up bn4a_branch2c
I1128 23:07:55.150801 173035 net.cpp:129] Top shape: 18 1024 15 15 (4147200)
I1128 23:07:55.150804 173035 net.cpp:137] Memory required for data: 3728332872
I1128 23:07:55.150811 173035 layer_factory.hpp:77] Creating layer scale4a_branch2c
I1128 23:07:55.150815 173035 net.cpp:84] Creating Layer scale4a_branch2c
I1128 23:07:55.150820 173035 net.cpp:406] scale4a_branch2c <- res4a_branch2c
I1128 23:07:55.150823 173035 net.cpp:367] scale4a_branch2c -> res4a_branch2c (in-place)
I1128 23:07:55.150852 173035 layer_factory.hpp:77] Creating layer scale4a_branch2c
I1128 23:07:55.150934 173035 net.cpp:122] Setting up scale4a_branch2c
I1128 23:07:55.150940 173035 net.cpp:129] Top shape: 18 1024 15 15 (4147200)
I1128 23:07:55.150943 173035 net.cpp:137] Memory required for data: 3744921672
I1128 23:07:55.150948 173035 layer_factory.hpp:77] Creating layer res4a
I1128 23:07:55.150954 173035 net.cpp:84] Creating Layer res4a
I1128 23:07:55.150956 173035 net.cpp:406] res4a <- res4a_branch1
I1128 23:07:55.150960 173035 net.cpp:406] res4a <- res4a_branch2c
I1128 23:07:55.150964 173035 net.cpp:380] res4a -> res4a
I1128 23:07:55.150981 173035 net.cpp:122] Setting up res4a
I1128 23:07:55.150990 173035 net.cpp:129] Top shape: 18 1024 15 15 (4147200)
I1128 23:07:55.150998 173035 net.cpp:137] Memory required for data: 3761510472
I1128 23:07:55.151001 173035 layer_factory.hpp:77] Creating layer res4a_relu
I1128 23:07:55.151005 173035 net.cpp:84] Creating Layer res4a_relu
I1128 23:07:55.151008 173035 net.cpp:406] res4a_relu <- res4a
I1128 23:07:55.151015 173035 net.cpp:367] res4a_relu -> res4a (in-place)
I1128 23:07:55.151018 173035 net.cpp:122] Setting up res4a_relu
I1128 23:07:55.151022 173035 net.cpp:129] Top shape: 18 1024 15 15 (4147200)
I1128 23:07:55.151026 173035 net.cpp:137] Memory required for data: 3778099272
I1128 23:07:55.151027 173035 layer_factory.hpp:77] Creating layer res4a_res4a_relu_0_split
I1128 23:07:55.151032 173035 net.cpp:84] Creating Layer res4a_res4a_relu_0_split
I1128 23:07:55.151034 173035 net.cpp:406] res4a_res4a_relu_0_split <- res4a
I1128 23:07:55.151039 173035 net.cpp:380] res4a_res4a_relu_0_split -> res4a_res4a_relu_0_split_0
I1128 23:07:55.151044 173035 net.cpp:380] res4a_res4a_relu_0_split -> res4a_res4a_relu_0_split_1
I1128 23:07:55.151069 173035 net.cpp:122] Setting up res4a_res4a_relu_0_split
I1128 23:07:55.151074 173035 net.cpp:129] Top shape: 18 1024 15 15 (4147200)
I1128 23:07:55.151078 173035 net.cpp:129] Top shape: 18 1024 15 15 (4147200)
I1128 23:07:55.151080 173035 net.cpp:137] Memory required for data: 3811276872
I1128 23:07:55.151084 173035 layer_factory.hpp:77] Creating layer res4b_branch2a
I1128 23:07:55.151104 173035 net.cpp:84] Creating Layer res4b_branch2a
I1128 23:07:55.151108 173035 net.cpp:406] res4b_branch2a <- res4a_res4a_relu_0_split_0
I1128 23:07:55.151113 173035 net.cpp:380] res4b_branch2a -> res4b_branch2a
I1128 23:07:55.153725 173035 net.cpp:122] Setting up res4b_branch2a
I1128 23:07:55.153736 173035 net.cpp:129] Top shape: 18 256 15 15 (1036800)
I1128 23:07:55.153739 173035 net.cpp:137] Memory required for data: 3815424072
I1128 23:07:55.153744 173035 layer_factory.hpp:77] Creating layer bn4b_branch2a
I1128 23:07:55.153751 173035 net.cpp:84] Creating Layer bn4b_branch2a
I1128 23:07:55.153754 173035 net.cpp:406] bn4b_branch2a <- res4b_branch2a
I1128 23:07:55.153759 173035 net.cpp:367] bn4b_branch2a -> res4b_branch2a (in-place)
I1128 23:07:55.153889 173035 net.cpp:122] Setting up bn4b_branch2a
I1128 23:07:55.153894 173035 net.cpp:129] Top shape: 18 256 15 15 (1036800)
I1128 23:07:55.153898 173035 net.cpp:137] Memory required for data: 3819571272
I1128 23:07:55.153903 173035 layer_factory.hpp:77] Creating layer scale4b_branch2a
I1128 23:07:55.153908 173035 net.cpp:84] Creating Layer scale4b_branch2a
I1128 23:07:55.153910 173035 net.cpp:406] scale4b_branch2a <- res4b_branch2a
I1128 23:07:55.153915 173035 net.cpp:367] scale4b_branch2a -> res4b_branch2a (in-place)
I1128 23:07:55.153944 173035 layer_factory.hpp:77] Creating layer scale4b_branch2a
I1128 23:07:55.154018 173035 net.cpp:122] Setting up scale4b_branch2a
I1128 23:07:55.154023 173035 net.cpp:129] Top shape: 18 256 15 15 (1036800)
I1128 23:07:55.154026 173035 net.cpp:137] Memory required for data: 3823718472
I1128 23:07:55.154031 173035 layer_factory.hpp:77] Creating layer res4b_branch2a_relu
I1128 23:07:55.154038 173035 net.cpp:84] Creating Layer res4b_branch2a_relu
I1128 23:07:55.154042 173035 net.cpp:406] res4b_branch2a_relu <- res4b_branch2a
I1128 23:07:55.154044 173035 net.cpp:367] res4b_branch2a_relu -> res4b_branch2a (in-place)
I1128 23:07:55.154049 173035 net.cpp:122] Setting up res4b_branch2a_relu
I1128 23:07:55.154052 173035 net.cpp:129] Top shape: 18 256 15 15 (1036800)
I1128 23:07:55.154055 173035 net.cpp:137] Memory required for data: 3827865672
I1128 23:07:55.154058 173035 layer_factory.hpp:77] Creating layer res4b_branch2b
I1128 23:07:55.154067 173035 net.cpp:84] Creating Layer res4b_branch2b
I1128 23:07:55.154069 173035 net.cpp:406] res4b_branch2b <- res4b_branch2a
I1128 23:07:55.154073 173035 net.cpp:380] res4b_branch2b -> res4b_branch2b
I1128 23:07:55.159595 173035 net.cpp:122] Setting up res4b_branch2b
I1128 23:07:55.159607 173035 net.cpp:129] Top shape: 18 256 15 15 (1036800)
I1128 23:07:55.159613 173035 net.cpp:137] Memory required for data: 3832012872
I1128 23:07:55.159622 173035 layer_factory.hpp:77] Creating layer bn4b_branch2b
I1128 23:07:55.159627 173035 net.cpp:84] Creating Layer bn4b_branch2b
I1128 23:07:55.159631 173035 net.cpp:406] bn4b_branch2b <- res4b_branch2b
I1128 23:07:55.159636 173035 net.cpp:367] bn4b_branch2b -> res4b_branch2b (in-place)
I1128 23:07:55.159767 173035 net.cpp:122] Setting up bn4b_branch2b
I1128 23:07:55.159772 173035 net.cpp:129] Top shape: 18 256 15 15 (1036800)
I1128 23:07:55.159775 173035 net.cpp:137] Memory required for data: 3836160072
I1128 23:07:55.159781 173035 layer_factory.hpp:77] Creating layer scale4b_branch2b
I1128 23:07:55.159785 173035 net.cpp:84] Creating Layer scale4b_branch2b
I1128 23:07:55.159788 173035 net.cpp:406] scale4b_branch2b <- res4b_branch2b
I1128 23:07:55.159792 173035 net.cpp:367] scale4b_branch2b -> res4b_branch2b (in-place)
I1128 23:07:55.159823 173035 layer_factory.hpp:77] Creating layer scale4b_branch2b
I1128 23:07:55.159898 173035 net.cpp:122] Setting up scale4b_branch2b
I1128 23:07:55.159904 173035 net.cpp:129] Top shape: 18 256 15 15 (1036800)
I1128 23:07:55.159906 173035 net.cpp:137] Memory required for data: 3840307272
I1128 23:07:55.159910 173035 layer_factory.hpp:77] Creating layer res4b_branch2b_relu
I1128 23:07:55.159917 173035 net.cpp:84] Creating Layer res4b_branch2b_relu
I1128 23:07:55.159920 173035 net.cpp:406] res4b_branch2b_relu <- res4b_branch2b
I1128 23:07:55.159924 173035 net.cpp:367] res4b_branch2b_relu -> res4b_branch2b (in-place)
I1128 23:07:55.159930 173035 net.cpp:122] Setting up res4b_branch2b_relu
I1128 23:07:55.159934 173035 net.cpp:129] Top shape: 18 256 15 15 (1036800)
I1128 23:07:55.159936 173035 net.cpp:137] Memory required for data: 3844454472
I1128 23:07:55.159940 173035 layer_factory.hpp:77] Creating layer res4b_branch2c
I1128 23:07:55.159946 173035 net.cpp:84] Creating Layer res4b_branch2c
I1128 23:07:55.159948 173035 net.cpp:406] res4b_branch2c <- res4b_branch2b
I1128 23:07:55.159955 173035 net.cpp:380] res4b_branch2c -> res4b_branch2c
I1128 23:07:55.162564 173035 net.cpp:122] Setting up res4b_branch2c
I1128 23:07:55.162575 173035 net.cpp:129] Top shape: 18 1024 15 15 (4147200)
I1128 23:07:55.162576 173035 net.cpp:137] Memory required for data: 3861043272
I1128 23:07:55.162581 173035 layer_factory.hpp:77] Creating layer bn4b_branch2c
I1128 23:07:55.162586 173035 net.cpp:84] Creating Layer bn4b_branch2c
I1128 23:07:55.162590 173035 net.cpp:406] bn4b_branch2c <- res4b_branch2c
I1128 23:07:55.162593 173035 net.cpp:367] bn4b_branch2c -> res4b_branch2c (in-place)
I1128 23:07:55.162727 173035 net.cpp:122] Setting up bn4b_branch2c
I1128 23:07:55.162734 173035 net.cpp:129] Top shape: 18 1024 15 15 (4147200)
I1128 23:07:55.162736 173035 net.cpp:137] Memory required for data: 3877632072
I1128 23:07:55.162742 173035 layer_factory.hpp:77] Creating layer scale4b_branch2c
I1128 23:07:55.162748 173035 net.cpp:84] Creating Layer scale4b_branch2c
I1128 23:07:55.162752 173035 net.cpp:406] scale4b_branch2c <- res4b_branch2c
I1128 23:07:55.162755 173035 net.cpp:367] scale4b_branch2c -> res4b_branch2c (in-place)
I1128 23:07:55.162784 173035 layer_factory.hpp:77] Creating layer scale4b_branch2c
I1128 23:07:55.162868 173035 net.cpp:122] Setting up scale4b_branch2c
I1128 23:07:55.162873 173035 net.cpp:129] Top shape: 18 1024 15 15 (4147200)
I1128 23:07:55.162876 173035 net.cpp:137] Memory required for data: 3894220872
I1128 23:07:55.162880 173035 layer_factory.hpp:77] Creating layer res4b
I1128 23:07:55.162885 173035 net.cpp:84] Creating Layer res4b
I1128 23:07:55.162889 173035 net.cpp:406] res4b <- res4a_res4a_relu_0_split_1
I1128 23:07:55.162892 173035 net.cpp:406] res4b <- res4b_branch2c
I1128 23:07:55.162899 173035 net.cpp:380] res4b -> res4b
I1128 23:07:55.162916 173035 net.cpp:122] Setting up res4b
I1128 23:07:55.162922 173035 net.cpp:129] Top shape: 18 1024 15 15 (4147200)
I1128 23:07:55.162925 173035 net.cpp:137] Memory required for data: 3910809672
I1128 23:07:55.162927 173035 layer_factory.hpp:77] Creating layer res4b_relu
I1128 23:07:55.162935 173035 net.cpp:84] Creating Layer res4b_relu
I1128 23:07:55.162943 173035 net.cpp:406] res4b_relu <- res4b
I1128 23:07:55.162947 173035 net.cpp:367] res4b_relu -> res4b (in-place)
I1128 23:07:55.162951 173035 net.cpp:122] Setting up res4b_relu
I1128 23:07:55.162955 173035 net.cpp:129] Top shape: 18 1024 15 15 (4147200)
I1128 23:07:55.162958 173035 net.cpp:137] Memory required for data: 3927398472
I1128 23:07:55.162961 173035 layer_factory.hpp:77] Creating layer res4b_res4b_relu_0_split
I1128 23:07:55.162966 173035 net.cpp:84] Creating Layer res4b_res4b_relu_0_split
I1128 23:07:55.162967 173035 net.cpp:406] res4b_res4b_relu_0_split <- res4b
I1128 23:07:55.162973 173035 net.cpp:380] res4b_res4b_relu_0_split -> res4b_res4b_relu_0_split_0
I1128 23:07:55.162978 173035 net.cpp:380] res4b_res4b_relu_0_split -> res4b_res4b_relu_0_split_1
I1128 23:07:55.163007 173035 net.cpp:122] Setting up res4b_res4b_relu_0_split
I1128 23:07:55.163012 173035 net.cpp:129] Top shape: 18 1024 15 15 (4147200)
I1128 23:07:55.163015 173035 net.cpp:129] Top shape: 18 1024 15 15 (4147200)
I1128 23:07:55.163018 173035 net.cpp:137] Memory required for data: 3960576072
I1128 23:07:55.163020 173035 layer_factory.hpp:77] Creating layer res4c_branch2a
I1128 23:07:55.163027 173035 net.cpp:84] Creating Layer res4c_branch2a
I1128 23:07:55.163029 173035 net.cpp:406] res4c_branch2a <- res4b_res4b_relu_0_split_0
I1128 23:07:55.163034 173035 net.cpp:380] res4c_branch2a -> res4c_branch2a
I1128 23:07:55.165644 173035 net.cpp:122] Setting up res4c_branch2a
I1128 23:07:55.165655 173035 net.cpp:129] Top shape: 18 256 15 15 (1036800)
I1128 23:07:55.165658 173035 net.cpp:137] Memory required for data: 3964723272
I1128 23:07:55.165663 173035 layer_factory.hpp:77] Creating layer bn4c_branch2a
I1128 23:07:55.165670 173035 net.cpp:84] Creating Layer bn4c_branch2a
I1128 23:07:55.165674 173035 net.cpp:406] bn4c_branch2a <- res4c_branch2a
I1128 23:07:55.165678 173035 net.cpp:367] bn4c_branch2a -> res4c_branch2a (in-place)
I1128 23:07:55.165812 173035 net.cpp:122] Setting up bn4c_branch2a
I1128 23:07:55.165817 173035 net.cpp:129] Top shape: 18 256 15 15 (1036800)
I1128 23:07:55.165819 173035 net.cpp:137] Memory required for data: 3968870472
I1128 23:07:55.165827 173035 layer_factory.hpp:77] Creating layer scale4c_branch2a
I1128 23:07:55.165832 173035 net.cpp:84] Creating Layer scale4c_branch2a
I1128 23:07:55.165835 173035 net.cpp:406] scale4c_branch2a <- res4c_branch2a
I1128 23:07:55.165839 173035 net.cpp:367] scale4c_branch2a -> res4c_branch2a (in-place)
I1128 23:07:55.165868 173035 layer_factory.hpp:77] Creating layer scale4c_branch2a
I1128 23:07:55.165946 173035 net.cpp:122] Setting up scale4c_branch2a
I1128 23:07:55.165951 173035 net.cpp:129] Top shape: 18 256 15 15 (1036800)
I1128 23:07:55.165954 173035 net.cpp:137] Memory required for data: 3973017672
I1128 23:07:55.165959 173035 layer_factory.hpp:77] Creating layer res4c_branch2a_relu
I1128 23:07:55.165963 173035 net.cpp:84] Creating Layer res4c_branch2a_relu
I1128 23:07:55.165966 173035 net.cpp:406] res4c_branch2a_relu <- res4c_branch2a
I1128 23:07:55.165969 173035 net.cpp:367] res4c_branch2a_relu -> res4c_branch2a (in-place)
I1128 23:07:55.165974 173035 net.cpp:122] Setting up res4c_branch2a_relu
I1128 23:07:55.165977 173035 net.cpp:129] Top shape: 18 256 15 15 (1036800)
I1128 23:07:55.165980 173035 net.cpp:137] Memory required for data: 3977164872
I1128 23:07:55.165982 173035 layer_factory.hpp:77] Creating layer res4c_branch2b
I1128 23:07:55.165990 173035 net.cpp:84] Creating Layer res4c_branch2b
I1128 23:07:55.165993 173035 net.cpp:406] res4c_branch2b <- res4c_branch2a
I1128 23:07:55.165999 173035 net.cpp:380] res4c_branch2b -> res4c_branch2b
I1128 23:07:55.171612 173035 net.cpp:122] Setting up res4c_branch2b
I1128 23:07:55.171623 173035 net.cpp:129] Top shape: 18 256 15 15 (1036800)
I1128 23:07:55.171627 173035 net.cpp:137] Memory required for data: 3981312072
I1128 23:07:55.171633 173035 layer_factory.hpp:77] Creating layer bn4c_branch2b
I1128 23:07:55.171638 173035 net.cpp:84] Creating Layer bn4c_branch2b
I1128 23:07:55.171648 173035 net.cpp:406] bn4c_branch2b <- res4c_branch2b
I1128 23:07:55.171659 173035 net.cpp:367] bn4c_branch2b -> res4c_branch2b (in-place)
I1128 23:07:55.171807 173035 net.cpp:122] Setting up bn4c_branch2b
I1128 23:07:55.171813 173035 net.cpp:129] Top shape: 18 256 15 15 (1036800)
I1128 23:07:55.171816 173035 net.cpp:137] Memory required for data: 3985459272
I1128 23:07:55.171823 173035 layer_factory.hpp:77] Creating layer scale4c_branch2b
I1128 23:07:55.171826 173035 net.cpp:84] Creating Layer scale4c_branch2b
I1128 23:07:55.171829 173035 net.cpp:406] scale4c_branch2b <- res4c_branch2b
I1128 23:07:55.171834 173035 net.cpp:367] scale4c_branch2b -> res4c_branch2b (in-place)
I1128 23:07:55.171880 173035 layer_factory.hpp:77] Creating layer scale4c_branch2b
I1128 23:07:55.171955 173035 net.cpp:122] Setting up scale4c_branch2b
I1128 23:07:55.171962 173035 net.cpp:129] Top shape: 18 256 15 15 (1036800)
I1128 23:07:55.171964 173035 net.cpp:137] Memory required for data: 3989606472
I1128 23:07:55.171968 173035 layer_factory.hpp:77] Creating layer res4c_branch2b_relu
I1128 23:07:55.171974 173035 net.cpp:84] Creating Layer res4c_branch2b_relu
I1128 23:07:55.171977 173035 net.cpp:406] res4c_branch2b_relu <- res4c_branch2b
I1128 23:07:55.171983 173035 net.cpp:367] res4c_branch2b_relu -> res4c_branch2b (in-place)
I1128 23:07:55.171986 173035 net.cpp:122] Setting up res4c_branch2b_relu
I1128 23:07:55.171990 173035 net.cpp:129] Top shape: 18 256 15 15 (1036800)
I1128 23:07:55.171993 173035 net.cpp:137] Memory required for data: 3993753672
I1128 23:07:55.171995 173035 layer_factory.hpp:77] Creating layer res4c_branch2c
I1128 23:07:55.172001 173035 net.cpp:84] Creating Layer res4c_branch2c
I1128 23:07:55.172003 173035 net.cpp:406] res4c_branch2c <- res4c_branch2b
I1128 23:07:55.172009 173035 net.cpp:380] res4c_branch2c -> res4c_branch2c
I1128 23:07:55.174638 173035 net.cpp:122] Setting up res4c_branch2c
I1128 23:07:55.174649 173035 net.cpp:129] Top shape: 18 1024 15 15 (4147200)
I1128 23:07:55.174651 173035 net.cpp:137] Memory required for data: 4010342472
I1128 23:07:55.174657 173035 layer_factory.hpp:77] Creating layer bn4c_branch2c
I1128 23:07:55.174664 173035 net.cpp:84] Creating Layer bn4c_branch2c
I1128 23:07:55.174666 173035 net.cpp:406] bn4c_branch2c <- res4c_branch2c
I1128 23:07:55.174670 173035 net.cpp:367] bn4c_branch2c -> res4c_branch2c (in-place)
I1128 23:07:55.174816 173035 net.cpp:122] Setting up bn4c_branch2c
I1128 23:07:55.174823 173035 net.cpp:129] Top shape: 18 1024 15 15 (4147200)
I1128 23:07:55.174825 173035 net.cpp:137] Memory required for data: 4026931272
I1128 23:07:55.174830 173035 layer_factory.hpp:77] Creating layer scale4c_branch2c
I1128 23:07:55.174837 173035 net.cpp:84] Creating Layer scale4c_branch2c
I1128 23:07:55.174840 173035 net.cpp:406] scale4c_branch2c <- res4c_branch2c
I1128 23:07:55.174844 173035 net.cpp:367] scale4c_branch2c -> res4c_branch2c (in-place)
I1128 23:07:55.174875 173035 layer_factory.hpp:77] Creating layer scale4c_branch2c
I1128 23:07:55.174978 173035 net.cpp:122] Setting up scale4c_branch2c
I1128 23:07:55.174983 173035 net.cpp:129] Top shape: 18 1024 15 15 (4147200)
I1128 23:07:55.174986 173035 net.cpp:137] Memory required for data: 4043520072
I1128 23:07:55.174990 173035 layer_factory.hpp:77] Creating layer res4c
I1128 23:07:55.174994 173035 net.cpp:84] Creating Layer res4c
I1128 23:07:55.174998 173035 net.cpp:406] res4c <- res4b_res4b_relu_0_split_1
I1128 23:07:55.175002 173035 net.cpp:406] res4c <- res4c_branch2c
I1128 23:07:55.175007 173035 net.cpp:380] res4c -> res4c
I1128 23:07:55.175026 173035 net.cpp:122] Setting up res4c
I1128 23:07:55.175031 173035 net.cpp:129] Top shape: 18 1024 15 15 (4147200)
I1128 23:07:55.175034 173035 net.cpp:137] Memory required for data: 4060108872
I1128 23:07:55.175037 173035 layer_factory.hpp:77] Creating layer res4c_relu
I1128 23:07:55.175041 173035 net.cpp:84] Creating Layer res4c_relu
I1128 23:07:55.175045 173035 net.cpp:406] res4c_relu <- res4c
I1128 23:07:55.175048 173035 net.cpp:367] res4c_relu -> res4c (in-place)
I1128 23:07:55.175055 173035 net.cpp:122] Setting up res4c_relu
I1128 23:07:55.175065 173035 net.cpp:129] Top shape: 18 1024 15 15 (4147200)
I1128 23:07:55.175067 173035 net.cpp:137] Memory required for data: 4076697672
I1128 23:07:55.175071 173035 layer_factory.hpp:77] Creating layer res4c_res4c_relu_0_split
I1128 23:07:55.175077 173035 net.cpp:84] Creating Layer res4c_res4c_relu_0_split
I1128 23:07:55.175081 173035 net.cpp:406] res4c_res4c_relu_0_split <- res4c
I1128 23:07:55.175084 173035 net.cpp:380] res4c_res4c_relu_0_split -> res4c_res4c_relu_0_split_0
I1128 23:07:55.175089 173035 net.cpp:380] res4c_res4c_relu_0_split -> res4c_res4c_relu_0_split_1
I1128 23:07:55.175115 173035 net.cpp:122] Setting up res4c_res4c_relu_0_split
I1128 23:07:55.175120 173035 net.cpp:129] Top shape: 18 1024 15 15 (4147200)
I1128 23:07:55.175124 173035 net.cpp:129] Top shape: 18 1024 15 15 (4147200)
I1128 23:07:55.175127 173035 net.cpp:137] Memory required for data: 4109875272
I1128 23:07:55.175129 173035 layer_factory.hpp:77] Creating layer res4d_branch2a
I1128 23:07:55.175135 173035 net.cpp:84] Creating Layer res4d_branch2a
I1128 23:07:55.175139 173035 net.cpp:406] res4d_branch2a <- res4c_res4c_relu_0_split_0
I1128 23:07:55.175144 173035 net.cpp:380] res4d_branch2a -> res4d_branch2a
I1128 23:07:55.177767 173035 net.cpp:122] Setting up res4d_branch2a
I1128 23:07:55.177778 173035 net.cpp:129] Top shape: 18 256 15 15 (1036800)
I1128 23:07:55.177780 173035 net.cpp:137] Memory required for data: 4114022472
I1128 23:07:55.177784 173035 layer_factory.hpp:77] Creating layer bn4d_branch2a
I1128 23:07:55.177789 173035 net.cpp:84] Creating Layer bn4d_branch2a
I1128 23:07:55.177793 173035 net.cpp:406] bn4d_branch2a <- res4d_branch2a
I1128 23:07:55.177798 173035 net.cpp:367] bn4d_branch2a -> res4d_branch2a (in-place)
I1128 23:07:55.177928 173035 net.cpp:122] Setting up bn4d_branch2a
I1128 23:07:55.177933 173035 net.cpp:129] Top shape: 18 256 15 15 (1036800)
I1128 23:07:55.177937 173035 net.cpp:137] Memory required for data: 4118169672
I1128 23:07:55.177942 173035 layer_factory.hpp:77] Creating layer scale4d_branch2a
I1128 23:07:55.177948 173035 net.cpp:84] Creating Layer scale4d_branch2a
I1128 23:07:55.177951 173035 net.cpp:406] scale4d_branch2a <- res4d_branch2a
I1128 23:07:55.177954 173035 net.cpp:367] scale4d_branch2a -> res4d_branch2a (in-place)
I1128 23:07:55.177983 173035 layer_factory.hpp:77] Creating layer scale4d_branch2a
I1128 23:07:55.178061 173035 net.cpp:122] Setting up scale4d_branch2a
I1128 23:07:55.178067 173035 net.cpp:129] Top shape: 18 256 15 15 (1036800)
I1128 23:07:55.178069 173035 net.cpp:137] Memory required for data: 4122316872
I1128 23:07:55.178076 173035 layer_factory.hpp:77] Creating layer res4d_branch2a_relu
I1128 23:07:55.178081 173035 net.cpp:84] Creating Layer res4d_branch2a_relu
I1128 23:07:55.178083 173035 net.cpp:406] res4d_branch2a_relu <- res4d_branch2a
I1128 23:07:55.178088 173035 net.cpp:367] res4d_branch2a_relu -> res4d_branch2a (in-place)
I1128 23:07:55.178093 173035 net.cpp:122] Setting up res4d_branch2a_relu
I1128 23:07:55.178097 173035 net.cpp:129] Top shape: 18 256 15 15 (1036800)
I1128 23:07:55.178099 173035 net.cpp:137] Memory required for data: 4126464072
I1128 23:07:55.178102 173035 layer_factory.hpp:77] Creating layer res4d_branch2b
I1128 23:07:55.178108 173035 net.cpp:84] Creating Layer res4d_branch2b
I1128 23:07:55.178112 173035 net.cpp:406] res4d_branch2b <- res4d_branch2a
I1128 23:07:55.178117 173035 net.cpp:380] res4d_branch2b -> res4d_branch2b
I1128 23:07:55.184028 173035 net.cpp:122] Setting up res4d_branch2b
I1128 23:07:55.184041 173035 net.cpp:129] Top shape: 18 256 15 15 (1036800)
I1128 23:07:55.184043 173035 net.cpp:137] Memory required for data: 4130611272
I1128 23:07:55.184047 173035 layer_factory.hpp:77] Creating layer bn4d_branch2b
I1128 23:07:55.184054 173035 net.cpp:84] Creating Layer bn4d_branch2b
I1128 23:07:55.184059 173035 net.cpp:406] bn4d_branch2b <- res4d_branch2b
I1128 23:07:55.184063 173035 net.cpp:367] bn4d_branch2b -> res4d_branch2b (in-place)
I1128 23:07:55.184208 173035 net.cpp:122] Setting up bn4d_branch2b
I1128 23:07:55.184221 173035 net.cpp:129] Top shape: 18 256 15 15 (1036800)
I1128 23:07:55.184224 173035 net.cpp:137] Memory required for data: 4134758472
I1128 23:07:55.184231 173035 layer_factory.hpp:77] Creating layer scale4d_branch2b
I1128 23:07:55.184236 173035 net.cpp:84] Creating Layer scale4d_branch2b
I1128 23:07:55.184238 173035 net.cpp:406] scale4d_branch2b <- res4d_branch2b
I1128 23:07:55.184244 173035 net.cpp:367] scale4d_branch2b -> res4d_branch2b (in-place)
I1128 23:07:55.184273 173035 layer_factory.hpp:77] Creating layer scale4d_branch2b
I1128 23:07:55.184355 173035 net.cpp:122] Setting up scale4d_branch2b
I1128 23:07:55.184360 173035 net.cpp:129] Top shape: 18 256 15 15 (1036800)
I1128 23:07:55.184363 173035 net.cpp:137] Memory required for data: 4138905672
I1128 23:07:55.184370 173035 layer_factory.hpp:77] Creating layer res4d_branch2b_relu
I1128 23:07:55.184376 173035 net.cpp:84] Creating Layer res4d_branch2b_relu
I1128 23:07:55.184378 173035 net.cpp:406] res4d_branch2b_relu <- res4d_branch2b
I1128 23:07:55.184383 173035 net.cpp:367] res4d_branch2b_relu -> res4d_branch2b (in-place)
I1128 23:07:55.184387 173035 net.cpp:122] Setting up res4d_branch2b_relu
I1128 23:07:55.184391 173035 net.cpp:129] Top shape: 18 256 15 15 (1036800)
I1128 23:07:55.184393 173035 net.cpp:137] Memory required for data: 4143052872
I1128 23:07:55.184397 173035 layer_factory.hpp:77] Creating layer res4d_branch2c
I1128 23:07:55.184404 173035 net.cpp:84] Creating Layer res4d_branch2c
I1128 23:07:55.184407 173035 net.cpp:406] res4d_branch2c <- res4d_branch2b
I1128 23:07:55.184412 173035 net.cpp:380] res4d_branch2c -> res4d_branch2c
I1128 23:07:55.187100 173035 net.cpp:122] Setting up res4d_branch2c
I1128 23:07:55.187110 173035 net.cpp:129] Top shape: 18 1024 15 15 (4147200)
I1128 23:07:55.187113 173035 net.cpp:137] Memory required for data: 4159641672
I1128 23:07:55.187116 173035 layer_factory.hpp:77] Creating layer bn4d_branch2c
I1128 23:07:55.187122 173035 net.cpp:84] Creating Layer bn4d_branch2c
I1128 23:07:55.187125 173035 net.cpp:406] bn4d_branch2c <- res4d_branch2c
I1128 23:07:55.187129 173035 net.cpp:367] bn4d_branch2c -> res4d_branch2c (in-place)
I1128 23:07:55.187269 173035 net.cpp:122] Setting up bn4d_branch2c
I1128 23:07:55.187275 173035 net.cpp:129] Top shape: 18 1024 15 15 (4147200)
I1128 23:07:55.187278 173035 net.cpp:137] Memory required for data: 4176230472
I1128 23:07:55.187283 173035 layer_factory.hpp:77] Creating layer scale4d_branch2c
I1128 23:07:55.187288 173035 net.cpp:84] Creating Layer scale4d_branch2c
I1128 23:07:55.187291 173035 net.cpp:406] scale4d_branch2c <- res4d_branch2c
I1128 23:07:55.187295 173035 net.cpp:367] scale4d_branch2c -> res4d_branch2c (in-place)
I1128 23:07:55.187325 173035 layer_factory.hpp:77] Creating layer scale4d_branch2c
I1128 23:07:55.187422 173035 net.cpp:122] Setting up scale4d_branch2c
I1128 23:07:55.187429 173035 net.cpp:129] Top shape: 18 1024 15 15 (4147200)
I1128 23:07:55.187432 173035 net.cpp:137] Memory required for data: 4192819272
I1128 23:07:55.187438 173035 layer_factory.hpp:77] Creating layer res4d
I1128 23:07:55.187444 173035 net.cpp:84] Creating Layer res4d
I1128 23:07:55.187448 173035 net.cpp:406] res4d <- res4c_res4c_relu_0_split_1
I1128 23:07:55.187453 173035 net.cpp:406] res4d <- res4d_branch2c
I1128 23:07:55.187458 173035 net.cpp:380] res4d -> res4d
I1128 23:07:55.187474 173035 net.cpp:122] Setting up res4d
I1128 23:07:55.187480 173035 net.cpp:129] Top shape: 18 1024 15 15 (4147200)
I1128 23:07:55.187482 173035 net.cpp:137] Memory required for data: 4209408072
I1128 23:07:55.187485 173035 layer_factory.hpp:77] Creating layer res4d_relu
I1128 23:07:55.187489 173035 net.cpp:84] Creating Layer res4d_relu
I1128 23:07:55.187492 173035 net.cpp:406] res4d_relu <- res4d
I1128 23:07:55.187497 173035 net.cpp:367] res4d_relu -> res4d (in-place)
I1128 23:07:55.187502 173035 net.cpp:122] Setting up res4d_relu
I1128 23:07:55.187505 173035 net.cpp:129] Top shape: 18 1024 15 15 (4147200)
I1128 23:07:55.187508 173035 net.cpp:137] Memory required for data: 4225996872
I1128 23:07:55.187515 173035 layer_factory.hpp:77] Creating layer res4d_res4d_relu_0_split
I1128 23:07:55.187525 173035 net.cpp:84] Creating Layer res4d_res4d_relu_0_split
I1128 23:07:55.187527 173035 net.cpp:406] res4d_res4d_relu_0_split <- res4d
I1128 23:07:55.187532 173035 net.cpp:380] res4d_res4d_relu_0_split -> res4d_res4d_relu_0_split_0
I1128 23:07:55.187537 173035 net.cpp:380] res4d_res4d_relu_0_split -> res4d_res4d_relu_0_split_1
I1128 23:07:55.187566 173035 net.cpp:122] Setting up res4d_res4d_relu_0_split
I1128 23:07:55.187572 173035 net.cpp:129] Top shape: 18 1024 15 15 (4147200)
I1128 23:07:55.187574 173035 net.cpp:129] Top shape: 18 1024 15 15 (4147200)
I1128 23:07:55.187577 173035 net.cpp:137] Memory required for data: 4259174472
I1128 23:07:55.187579 173035 layer_factory.hpp:77] Creating layer res4e_branch2a
I1128 23:07:55.187587 173035 net.cpp:84] Creating Layer res4e_branch2a
I1128 23:07:55.187590 173035 net.cpp:406] res4e_branch2a <- res4d_res4d_relu_0_split_0
I1128 23:07:55.187595 173035 net.cpp:380] res4e_branch2a -> res4e_branch2a
I1128 23:07:55.190203 173035 net.cpp:122] Setting up res4e_branch2a
I1128 23:07:55.190213 173035 net.cpp:129] Top shape: 18 256 15 15 (1036800)
I1128 23:07:55.190217 173035 net.cpp:137] Memory required for data: 4263321672
I1128 23:07:55.190222 173035 layer_factory.hpp:77] Creating layer bn4e_branch2a
I1128 23:07:55.190227 173035 net.cpp:84] Creating Layer bn4e_branch2a
I1128 23:07:55.190230 173035 net.cpp:406] bn4e_branch2a <- res4e_branch2a
I1128 23:07:55.190235 173035 net.cpp:367] bn4e_branch2a -> res4e_branch2a (in-place)
I1128 23:07:55.190376 173035 net.cpp:122] Setting up bn4e_branch2a
I1128 23:07:55.190382 173035 net.cpp:129] Top shape: 18 256 15 15 (1036800)
I1128 23:07:55.190384 173035 net.cpp:137] Memory required for data: 4267468872
I1128 23:07:55.190390 173035 layer_factory.hpp:77] Creating layer scale4e_branch2a
I1128 23:07:55.190395 173035 net.cpp:84] Creating Layer scale4e_branch2a
I1128 23:07:55.190398 173035 net.cpp:406] scale4e_branch2a <- res4e_branch2a
I1128 23:07:55.190402 173035 net.cpp:367] scale4e_branch2a -> res4e_branch2a (in-place)
I1128 23:07:55.190433 173035 layer_factory.hpp:77] Creating layer scale4e_branch2a
I1128 23:07:55.190515 173035 net.cpp:122] Setting up scale4e_branch2a
I1128 23:07:55.190521 173035 net.cpp:129] Top shape: 18 256 15 15 (1036800)
I1128 23:07:55.190522 173035 net.cpp:137] Memory required for data: 4271616072
I1128 23:07:55.190527 173035 layer_factory.hpp:77] Creating layer res4e_branch2a_relu
I1128 23:07:55.190536 173035 net.cpp:84] Creating Layer res4e_branch2a_relu
I1128 23:07:55.190538 173035 net.cpp:406] res4e_branch2a_relu <- res4e_branch2a
I1128 23:07:55.190541 173035 net.cpp:367] res4e_branch2a_relu -> res4e_branch2a (in-place)
I1128 23:07:55.190546 173035 net.cpp:122] Setting up res4e_branch2a_relu
I1128 23:07:55.190551 173035 net.cpp:129] Top shape: 18 256 15 15 (1036800)
I1128 23:07:55.190552 173035 net.cpp:137] Memory required for data: 4275763272
I1128 23:07:55.190556 173035 layer_factory.hpp:77] Creating layer res4e_branch2b
I1128 23:07:55.190563 173035 net.cpp:84] Creating Layer res4e_branch2b
I1128 23:07:55.190567 173035 net.cpp:406] res4e_branch2b <- res4e_branch2a
I1128 23:07:55.190570 173035 net.cpp:380] res4e_branch2b -> res4e_branch2b
I1128 23:07:55.196105 173035 net.cpp:122] Setting up res4e_branch2b
I1128 23:07:55.196116 173035 net.cpp:129] Top shape: 18 256 15 15 (1036800)
I1128 23:07:55.196120 173035 net.cpp:137] Memory required for data: 4279910472
I1128 23:07:55.196125 173035 layer_factory.hpp:77] Creating layer bn4e_branch2b
I1128 23:07:55.196132 173035 net.cpp:84] Creating Layer bn4e_branch2b
I1128 23:07:55.196136 173035 net.cpp:406] bn4e_branch2b <- res4e_branch2b
I1128 23:07:55.196141 173035 net.cpp:367] bn4e_branch2b -> res4e_branch2b (in-place)
I1128 23:07:55.196280 173035 net.cpp:122] Setting up bn4e_branch2b
I1128 23:07:55.196286 173035 net.cpp:129] Top shape: 18 256 15 15 (1036800)
I1128 23:07:55.196290 173035 net.cpp:137] Memory required for data: 4284057672
I1128 23:07:55.196298 173035 layer_factory.hpp:77] Creating layer scale4e_branch2b
I1128 23:07:55.196310 173035 net.cpp:84] Creating Layer scale4e_branch2b
I1128 23:07:55.196313 173035 net.cpp:406] scale4e_branch2b <- res4e_branch2b
I1128 23:07:55.196318 173035 net.cpp:367] scale4e_branch2b -> res4e_branch2b (in-place)
I1128 23:07:55.196349 173035 layer_factory.hpp:77] Creating layer scale4e_branch2b
I1128 23:07:55.196434 173035 net.cpp:122] Setting up scale4e_branch2b
I1128 23:07:55.196439 173035 net.cpp:129] Top shape: 18 256 15 15 (1036800)
I1128 23:07:55.196442 173035 net.cpp:137] Memory required for data: 4288204872
I1128 23:07:55.196446 173035 layer_factory.hpp:77] Creating layer res4e_branch2b_relu
I1128 23:07:55.196450 173035 net.cpp:84] Creating Layer res4e_branch2b_relu
I1128 23:07:55.196454 173035 net.cpp:406] res4e_branch2b_relu <- res4e_branch2b
I1128 23:07:55.196457 173035 net.cpp:367] res4e_branch2b_relu -> res4e_branch2b (in-place)
I1128 23:07:55.196461 173035 net.cpp:122] Setting up res4e_branch2b_relu
I1128 23:07:55.196465 173035 net.cpp:129] Top shape: 18 256 15 15 (1036800)
I1128 23:07:55.196467 173035 net.cpp:137] Memory required for data: 4292352072
I1128 23:07:55.196470 173035 layer_factory.hpp:77] Creating layer res4e_branch2c
I1128 23:07:55.196477 173035 net.cpp:84] Creating Layer res4e_branch2c
I1128 23:07:55.196480 173035 net.cpp:406] res4e_branch2c <- res4e_branch2b
I1128 23:07:55.196486 173035 net.cpp:380] res4e_branch2c -> res4e_branch2c
I1128 23:07:55.199102 173035 net.cpp:122] Setting up res4e_branch2c
I1128 23:07:55.199112 173035 net.cpp:129] Top shape: 18 1024 15 15 (4147200)
I1128 23:07:55.199115 173035 net.cpp:137] Memory required for data: 4308940872
I1128 23:07:55.199120 173035 layer_factory.hpp:77] Creating layer bn4e_branch2c
I1128 23:07:55.199126 173035 net.cpp:84] Creating Layer bn4e_branch2c
I1128 23:07:55.199129 173035 net.cpp:406] bn4e_branch2c <- res4e_branch2c
I1128 23:07:55.199136 173035 net.cpp:367] bn4e_branch2c -> res4e_branch2c (in-place)
I1128 23:07:55.199278 173035 net.cpp:122] Setting up bn4e_branch2c
I1128 23:07:55.199285 173035 net.cpp:129] Top shape: 18 1024 15 15 (4147200)
I1128 23:07:55.199288 173035 net.cpp:137] Memory required for data: 4325529672
I1128 23:07:55.199293 173035 layer_factory.hpp:77] Creating layer scale4e_branch2c
I1128 23:07:55.199297 173035 net.cpp:84] Creating Layer scale4e_branch2c
I1128 23:07:55.199301 173035 net.cpp:406] scale4e_branch2c <- res4e_branch2c
I1128 23:07:55.199304 173035 net.cpp:367] scale4e_branch2c -> res4e_branch2c (in-place)
I1128 23:07:55.199340 173035 layer_factory.hpp:77] Creating layer scale4e_branch2c
I1128 23:07:55.199429 173035 net.cpp:122] Setting up scale4e_branch2c
I1128 23:07:55.199434 173035 net.cpp:129] Top shape: 18 1024 15 15 (4147200)
I1128 23:07:55.199436 173035 net.cpp:137] Memory required for data: 4342118472
I1128 23:07:55.199441 173035 layer_factory.hpp:77] Creating layer res4e
I1128 23:07:55.199447 173035 net.cpp:84] Creating Layer res4e
I1128 23:07:55.199450 173035 net.cpp:406] res4e <- res4d_res4d_relu_0_split_1
I1128 23:07:55.199455 173035 net.cpp:406] res4e <- res4e_branch2c
I1128 23:07:55.199458 173035 net.cpp:380] res4e -> res4e
I1128 23:07:55.199476 173035 net.cpp:122] Setting up res4e
I1128 23:07:55.199482 173035 net.cpp:129] Top shape: 18 1024 15 15 (4147200)
I1128 23:07:55.199484 173035 net.cpp:137] Memory required for data: 4358707272
I1128 23:07:55.199487 173035 layer_factory.hpp:77] Creating layer res4e_relu
I1128 23:07:55.199491 173035 net.cpp:84] Creating Layer res4e_relu
I1128 23:07:55.199494 173035 net.cpp:406] res4e_relu <- res4e
I1128 23:07:55.199499 173035 net.cpp:367] res4e_relu -> res4e (in-place)
I1128 23:07:55.199503 173035 net.cpp:122] Setting up res4e_relu
I1128 23:07:55.199507 173035 net.cpp:129] Top shape: 18 1024 15 15 (4147200)
I1128 23:07:55.199510 173035 net.cpp:137] Memory required for data: 4375296072
I1128 23:07:55.199514 173035 layer_factory.hpp:77] Creating layer res4e_res4e_relu_0_split
I1128 23:07:55.199518 173035 net.cpp:84] Creating Layer res4e_res4e_relu_0_split
I1128 23:07:55.199527 173035 net.cpp:406] res4e_res4e_relu_0_split <- res4e
I1128 23:07:55.199537 173035 net.cpp:380] res4e_res4e_relu_0_split -> res4e_res4e_relu_0_split_0
I1128 23:07:55.199542 173035 net.cpp:380] res4e_res4e_relu_0_split -> res4e_res4e_relu_0_split_1
I1128 23:07:55.199569 173035 net.cpp:122] Setting up res4e_res4e_relu_0_split
I1128 23:07:55.199574 173035 net.cpp:129] Top shape: 18 1024 15 15 (4147200)
I1128 23:07:55.199579 173035 net.cpp:129] Top shape: 18 1024 15 15 (4147200)
I1128 23:07:55.199580 173035 net.cpp:137] Memory required for data: 4408473672
I1128 23:07:55.199584 173035 layer_factory.hpp:77] Creating layer res4f_branch2a
I1128 23:07:55.199590 173035 net.cpp:84] Creating Layer res4f_branch2a
I1128 23:07:55.199594 173035 net.cpp:406] res4f_branch2a <- res4e_res4e_relu_0_split_0
I1128 23:07:55.199599 173035 net.cpp:380] res4f_branch2a -> res4f_branch2a
I1128 23:07:55.202234 173035 net.cpp:122] Setting up res4f_branch2a
I1128 23:07:55.202245 173035 net.cpp:129] Top shape: 18 256 15 15 (1036800)
I1128 23:07:55.202249 173035 net.cpp:137] Memory required for data: 4412620872
I1128 23:07:55.202253 173035 layer_factory.hpp:77] Creating layer bn4f_branch2a
I1128 23:07:55.202258 173035 net.cpp:84] Creating Layer bn4f_branch2a
I1128 23:07:55.202261 173035 net.cpp:406] bn4f_branch2a <- res4f_branch2a
I1128 23:07:55.202268 173035 net.cpp:367] bn4f_branch2a -> res4f_branch2a (in-place)
I1128 23:07:55.202414 173035 net.cpp:122] Setting up bn4f_branch2a
I1128 23:07:55.202420 173035 net.cpp:129] Top shape: 18 256 15 15 (1036800)
I1128 23:07:55.202424 173035 net.cpp:137] Memory required for data: 4416768072
I1128 23:07:55.202445 173035 layer_factory.hpp:77] Creating layer scale4f_branch2a
I1128 23:07:55.202450 173035 net.cpp:84] Creating Layer scale4f_branch2a
I1128 23:07:55.202453 173035 net.cpp:406] scale4f_branch2a <- res4f_branch2a
I1128 23:07:55.202456 173035 net.cpp:367] scale4f_branch2a -> res4f_branch2a (in-place)
I1128 23:07:55.202487 173035 layer_factory.hpp:77] Creating layer scale4f_branch2a
I1128 23:07:55.202567 173035 net.cpp:122] Setting up scale4f_branch2a
I1128 23:07:55.202572 173035 net.cpp:129] Top shape: 18 256 15 15 (1036800)
I1128 23:07:55.202575 173035 net.cpp:137] Memory required for data: 4420915272
I1128 23:07:55.202581 173035 layer_factory.hpp:77] Creating layer res4f_branch2a_relu
I1128 23:07:55.202586 173035 net.cpp:84] Creating Layer res4f_branch2a_relu
I1128 23:07:55.202589 173035 net.cpp:406] res4f_branch2a_relu <- res4f_branch2a
I1128 23:07:55.202594 173035 net.cpp:367] res4f_branch2a_relu -> res4f_branch2a (in-place)
I1128 23:07:55.202599 173035 net.cpp:122] Setting up res4f_branch2a_relu
I1128 23:07:55.202602 173035 net.cpp:129] Top shape: 18 256 15 15 (1036800)
I1128 23:07:55.202605 173035 net.cpp:137] Memory required for data: 4425062472
I1128 23:07:55.202607 173035 layer_factory.hpp:77] Creating layer res4f_branch2b
I1128 23:07:55.202613 173035 net.cpp:84] Creating Layer res4f_branch2b
I1128 23:07:55.202616 173035 net.cpp:406] res4f_branch2b <- res4f_branch2a
I1128 23:07:55.202621 173035 net.cpp:380] res4f_branch2b -> res4f_branch2b
I1128 23:07:55.208160 173035 net.cpp:122] Setting up res4f_branch2b
I1128 23:07:55.208173 173035 net.cpp:129] Top shape: 18 256 15 15 (1036800)
I1128 23:07:55.208174 173035 net.cpp:137] Memory required for data: 4429209672
I1128 23:07:55.208178 173035 layer_factory.hpp:77] Creating layer bn4f_branch2b
I1128 23:07:55.208184 173035 net.cpp:84] Creating Layer bn4f_branch2b
I1128 23:07:55.208187 173035 net.cpp:406] bn4f_branch2b <- res4f_branch2b
I1128 23:07:55.208191 173035 net.cpp:367] bn4f_branch2b -> res4f_branch2b (in-place)
I1128 23:07:55.208333 173035 net.cpp:122] Setting up bn4f_branch2b
I1128 23:07:55.208339 173035 net.cpp:129] Top shape: 18 256 15 15 (1036800)
I1128 23:07:55.208343 173035 net.cpp:137] Memory required for data: 4433356872
I1128 23:07:55.208348 173035 layer_factory.hpp:77] Creating layer scale4f_branch2b
I1128 23:07:55.208353 173035 net.cpp:84] Creating Layer scale4f_branch2b
I1128 23:07:55.208360 173035 net.cpp:406] scale4f_branch2b <- res4f_branch2b
I1128 23:07:55.208365 173035 net.cpp:367] scale4f_branch2b -> res4f_branch2b (in-place)
I1128 23:07:55.208405 173035 layer_factory.hpp:77] Creating layer scale4f_branch2b
I1128 23:07:55.208489 173035 net.cpp:122] Setting up scale4f_branch2b
I1128 23:07:55.208495 173035 net.cpp:129] Top shape: 18 256 15 15 (1036800)
I1128 23:07:55.208498 173035 net.cpp:137] Memory required for data: 4437504072
I1128 23:07:55.208504 173035 layer_factory.hpp:77] Creating layer res4f_branch2b_relu
I1128 23:07:55.208510 173035 net.cpp:84] Creating Layer res4f_branch2b_relu
I1128 23:07:55.208513 173035 net.cpp:406] res4f_branch2b_relu <- res4f_branch2b
I1128 23:07:55.208518 173035 net.cpp:367] res4f_branch2b_relu -> res4f_branch2b (in-place)
I1128 23:07:55.208521 173035 net.cpp:122] Setting up res4f_branch2b_relu
I1128 23:07:55.208525 173035 net.cpp:129] Top shape: 18 256 15 15 (1036800)
I1128 23:07:55.208528 173035 net.cpp:137] Memory required for data: 4441651272
I1128 23:07:55.208531 173035 layer_factory.hpp:77] Creating layer res4f_branch2c
I1128 23:07:55.208539 173035 net.cpp:84] Creating Layer res4f_branch2c
I1128 23:07:55.208541 173035 net.cpp:406] res4f_branch2c <- res4f_branch2b
I1128 23:07:55.208545 173035 net.cpp:380] res4f_branch2c -> res4f_branch2c
I1128 23:07:55.211155 173035 net.cpp:122] Setting up res4f_branch2c
I1128 23:07:55.211165 173035 net.cpp:129] Top shape: 18 1024 15 15 (4147200)
I1128 23:07:55.211169 173035 net.cpp:137] Memory required for data: 4458240072
I1128 23:07:55.211172 173035 layer_factory.hpp:77] Creating layer bn4f_branch2c
I1128 23:07:55.211180 173035 net.cpp:84] Creating Layer bn4f_branch2c
I1128 23:07:55.211184 173035 net.cpp:406] bn4f_branch2c <- res4f_branch2c
I1128 23:07:55.211187 173035 net.cpp:367] bn4f_branch2c -> res4f_branch2c (in-place)
I1128 23:07:55.211338 173035 net.cpp:122] Setting up bn4f_branch2c
I1128 23:07:55.211344 173035 net.cpp:129] Top shape: 18 1024 15 15 (4147200)
I1128 23:07:55.211346 173035 net.cpp:137] Memory required for data: 4474828872
I1128 23:07:55.211380 173035 layer_factory.hpp:77] Creating layer scale4f_branch2c
I1128 23:07:55.211387 173035 net.cpp:84] Creating Layer scale4f_branch2c
I1128 23:07:55.211391 173035 net.cpp:406] scale4f_branch2c <- res4f_branch2c
I1128 23:07:55.211395 173035 net.cpp:367] scale4f_branch2c -> res4f_branch2c (in-place)
I1128 23:07:55.211426 173035 layer_factory.hpp:77] Creating layer scale4f_branch2c
I1128 23:07:55.211516 173035 net.cpp:122] Setting up scale4f_branch2c
I1128 23:07:55.211522 173035 net.cpp:129] Top shape: 18 1024 15 15 (4147200)
I1128 23:07:55.211524 173035 net.cpp:137] Memory required for data: 4491417672
I1128 23:07:55.211529 173035 layer_factory.hpp:77] Creating layer res4f
I1128 23:07:55.211534 173035 net.cpp:84] Creating Layer res4f
I1128 23:07:55.211539 173035 net.cpp:406] res4f <- res4e_res4e_relu_0_split_1
I1128 23:07:55.211541 173035 net.cpp:406] res4f <- res4f_branch2c
I1128 23:07:55.211545 173035 net.cpp:380] res4f -> res4f
I1128 23:07:55.211565 173035 net.cpp:122] Setting up res4f
I1128 23:07:55.211570 173035 net.cpp:129] Top shape: 18 1024 15 15 (4147200)
I1128 23:07:55.211572 173035 net.cpp:137] Memory required for data: 4508006472
I1128 23:07:55.211575 173035 layer_factory.hpp:77] Creating layer res4f_relu
I1128 23:07:55.211580 173035 net.cpp:84] Creating Layer res4f_relu
I1128 23:07:55.211585 173035 net.cpp:406] res4f_relu <- res4f
I1128 23:07:55.211587 173035 net.cpp:367] res4f_relu -> res4f (in-place)
I1128 23:07:55.211592 173035 net.cpp:122] Setting up res4f_relu
I1128 23:07:55.211596 173035 net.cpp:129] Top shape: 18 1024 15 15 (4147200)
I1128 23:07:55.211598 173035 net.cpp:137] Memory required for data: 4524595272
I1128 23:07:55.211601 173035 layer_factory.hpp:77] Creating layer res4f_res4f_relu_0_split
I1128 23:07:55.211606 173035 net.cpp:84] Creating Layer res4f_res4f_relu_0_split
I1128 23:07:55.211608 173035 net.cpp:406] res4f_res4f_relu_0_split <- res4f
I1128 23:07:55.211614 173035 net.cpp:380] res4f_res4f_relu_0_split -> res4f_res4f_relu_0_split_0
I1128 23:07:55.211622 173035 net.cpp:380] res4f_res4f_relu_0_split -> res4f_res4f_relu_0_split_1
I1128 23:07:55.211658 173035 net.cpp:122] Setting up res4f_res4f_relu_0_split
I1128 23:07:55.211663 173035 net.cpp:129] Top shape: 18 1024 15 15 (4147200)
I1128 23:07:55.211668 173035 net.cpp:129] Top shape: 18 1024 15 15 (4147200)
I1128 23:07:55.211669 173035 net.cpp:137] Memory required for data: 4557772872
I1128 23:07:55.211673 173035 layer_factory.hpp:77] Creating layer res5a_branch1
I1128 23:07:55.211679 173035 net.cpp:84] Creating Layer res5a_branch1
I1128 23:07:55.211683 173035 net.cpp:406] res5a_branch1 <- res4f_res4f_relu_0_split_0
I1128 23:07:55.211688 173035 net.cpp:380] res5a_branch1 -> res5a_branch1
I1128 23:07:55.230700 173035 net.cpp:122] Setting up res5a_branch1
I1128 23:07:55.230713 173035 net.cpp:129] Top shape: 18 2048 8 8 (2359296)
I1128 23:07:55.230716 173035 net.cpp:137] Memory required for data: 4567210056
I1128 23:07:55.230721 173035 layer_factory.hpp:77] Creating layer bn5a_branch1
I1128 23:07:55.230728 173035 net.cpp:84] Creating Layer bn5a_branch1
I1128 23:07:55.230732 173035 net.cpp:406] bn5a_branch1 <- res5a_branch1
I1128 23:07:55.230736 173035 net.cpp:367] bn5a_branch1 -> res5a_branch1 (in-place)
I1128 23:07:55.230901 173035 net.cpp:122] Setting up bn5a_branch1
I1128 23:07:55.230906 173035 net.cpp:129] Top shape: 18 2048 8 8 (2359296)
I1128 23:07:55.230909 173035 net.cpp:137] Memory required for data: 4576647240
I1128 23:07:55.230916 173035 layer_factory.hpp:77] Creating layer scale5a_branch1
I1128 23:07:55.230921 173035 net.cpp:84] Creating Layer scale5a_branch1
I1128 23:07:55.230924 173035 net.cpp:406] scale5a_branch1 <- res5a_branch1
I1128 23:07:55.230927 173035 net.cpp:367] scale5a_branch1 -> res5a_branch1 (in-place)
I1128 23:07:55.230957 173035 layer_factory.hpp:77] Creating layer scale5a_branch1
I1128 23:07:55.231046 173035 net.cpp:122] Setting up scale5a_branch1
I1128 23:07:55.231052 173035 net.cpp:129] Top shape: 18 2048 8 8 (2359296)
I1128 23:07:55.231055 173035 net.cpp:137] Memory required for data: 4586084424
I1128 23:07:55.231060 173035 layer_factory.hpp:77] Creating layer res5a_branch2a
I1128 23:07:55.231066 173035 net.cpp:84] Creating Layer res5a_branch2a
I1128 23:07:55.231070 173035 net.cpp:406] res5a_branch2a <- res4f_res4f_relu_0_split_1
I1128 23:07:55.231075 173035 net.cpp:380] res5a_branch2a -> res5a_branch2a
I1128 23:07:55.236030 173035 net.cpp:122] Setting up res5a_branch2a
I1128 23:07:55.236042 173035 net.cpp:129] Top shape: 18 512 8 8 (589824)
I1128 23:07:55.236044 173035 net.cpp:137] Memory required for data: 4588443720
I1128 23:07:55.236048 173035 layer_factory.hpp:77] Creating layer bn5a_branch2a
I1128 23:07:55.236055 173035 net.cpp:84] Creating Layer bn5a_branch2a
I1128 23:07:55.236059 173035 net.cpp:406] bn5a_branch2a <- res5a_branch2a
I1128 23:07:55.236063 173035 net.cpp:367] bn5a_branch2a -> res5a_branch2a (in-place)
I1128 23:07:55.236209 173035 net.cpp:122] Setting up bn5a_branch2a
I1128 23:07:55.236217 173035 net.cpp:129] Top shape: 18 512 8 8 (589824)
I1128 23:07:55.236220 173035 net.cpp:137] Memory required for data: 4590803016
I1128 23:07:55.236227 173035 layer_factory.hpp:77] Creating layer scale5a_branch2a
I1128 23:07:55.236232 173035 net.cpp:84] Creating Layer scale5a_branch2a
I1128 23:07:55.236235 173035 net.cpp:406] scale5a_branch2a <- res5a_branch2a
I1128 23:07:55.236238 173035 net.cpp:367] scale5a_branch2a -> res5a_branch2a (in-place)
I1128 23:07:55.236268 173035 layer_factory.hpp:77] Creating layer scale5a_branch2a
I1128 23:07:55.236357 173035 net.cpp:122] Setting up scale5a_branch2a
I1128 23:07:55.236363 173035 net.cpp:129] Top shape: 18 512 8 8 (589824)
I1128 23:07:55.236366 173035 net.cpp:137] Memory required for data: 4593162312
I1128 23:07:55.236371 173035 layer_factory.hpp:77] Creating layer res5a_branch2a_relu
I1128 23:07:55.236377 173035 net.cpp:84] Creating Layer res5a_branch2a_relu
I1128 23:07:55.236379 173035 net.cpp:406] res5a_branch2a_relu <- res5a_branch2a
I1128 23:07:55.236383 173035 net.cpp:367] res5a_branch2a_relu -> res5a_branch2a (in-place)
I1128 23:07:55.236392 173035 net.cpp:122] Setting up res5a_branch2a_relu
I1128 23:07:55.236400 173035 net.cpp:129] Top shape: 18 512 8 8 (589824)
I1128 23:07:55.236403 173035 net.cpp:137] Memory required for data: 4595521608
I1128 23:07:55.236407 173035 layer_factory.hpp:77] Creating layer res5a_branch2b
I1128 23:07:55.236413 173035 net.cpp:84] Creating Layer res5a_branch2b
I1128 23:07:55.236416 173035 net.cpp:406] res5a_branch2b <- res5a_branch2a
I1128 23:07:55.236421 173035 net.cpp:380] res5a_branch2b -> res5a_branch2b
I1128 23:07:55.257781 173035 net.cpp:122] Setting up res5a_branch2b
I1128 23:07:55.257794 173035 net.cpp:129] Top shape: 18 512 8 8 (589824)
I1128 23:07:55.257797 173035 net.cpp:137] Memory required for data: 4597880904
I1128 23:07:55.257802 173035 layer_factory.hpp:77] Creating layer bn5a_branch2b
I1128 23:07:55.257810 173035 net.cpp:84] Creating Layer bn5a_branch2b
I1128 23:07:55.257813 173035 net.cpp:406] bn5a_branch2b <- res5a_branch2b
I1128 23:07:55.257817 173035 net.cpp:367] bn5a_branch2b -> res5a_branch2b (in-place)
I1128 23:07:55.257966 173035 net.cpp:122] Setting up bn5a_branch2b
I1128 23:07:55.257972 173035 net.cpp:129] Top shape: 18 512 8 8 (589824)
I1128 23:07:55.257975 173035 net.cpp:137] Memory required for data: 4600240200
I1128 23:07:55.257982 173035 layer_factory.hpp:77] Creating layer scale5a_branch2b
I1128 23:07:55.257988 173035 net.cpp:84] Creating Layer scale5a_branch2b
I1128 23:07:55.257992 173035 net.cpp:406] scale5a_branch2b <- res5a_branch2b
I1128 23:07:55.257995 173035 net.cpp:367] scale5a_branch2b -> res5a_branch2b (in-place)
I1128 23:07:55.258023 173035 layer_factory.hpp:77] Creating layer scale5a_branch2b
I1128 23:07:55.258113 173035 net.cpp:122] Setting up scale5a_branch2b
I1128 23:07:55.258118 173035 net.cpp:129] Top shape: 18 512 8 8 (589824)
I1128 23:07:55.258121 173035 net.cpp:137] Memory required for data: 4602599496
I1128 23:07:55.258126 173035 layer_factory.hpp:77] Creating layer res5a_branch2b_relu
I1128 23:07:55.258131 173035 net.cpp:84] Creating Layer res5a_branch2b_relu
I1128 23:07:55.258132 173035 net.cpp:406] res5a_branch2b_relu <- res5a_branch2b
I1128 23:07:55.258136 173035 net.cpp:367] res5a_branch2b_relu -> res5a_branch2b (in-place)
I1128 23:07:55.258141 173035 net.cpp:122] Setting up res5a_branch2b_relu
I1128 23:07:55.258144 173035 net.cpp:129] Top shape: 18 512 8 8 (589824)
I1128 23:07:55.258147 173035 net.cpp:137] Memory required for data: 4604958792
I1128 23:07:55.258149 173035 layer_factory.hpp:77] Creating layer res5a_branch2c
I1128 23:07:55.258157 173035 net.cpp:84] Creating Layer res5a_branch2c
I1128 23:07:55.258160 173035 net.cpp:406] res5a_branch2c <- res5a_branch2b
I1128 23:07:55.258165 173035 net.cpp:380] res5a_branch2c -> res5a_branch2c
I1128 23:07:55.267843 173035 net.cpp:122] Setting up res5a_branch2c
I1128 23:07:55.267854 173035 net.cpp:129] Top shape: 18 2048 8 8 (2359296)
I1128 23:07:55.267858 173035 net.cpp:137] Memory required for data: 4614395976
I1128 23:07:55.267863 173035 layer_factory.hpp:77] Creating layer bn5a_branch2c
I1128 23:07:55.267868 173035 net.cpp:84] Creating Layer bn5a_branch2c
I1128 23:07:55.267873 173035 net.cpp:406] bn5a_branch2c <- res5a_branch2c
I1128 23:07:55.267879 173035 net.cpp:367] bn5a_branch2c -> res5a_branch2c (in-place)
I1128 23:07:55.268033 173035 net.cpp:122] Setting up bn5a_branch2c
I1128 23:07:55.268038 173035 net.cpp:129] Top shape: 18 2048 8 8 (2359296)
I1128 23:07:55.268041 173035 net.cpp:137] Memory required for data: 4623833160
I1128 23:07:55.268049 173035 layer_factory.hpp:77] Creating layer scale5a_branch2c
…
I1128 23:07:55.490499 173035 net.cpp:122] Setting up bn4d_branch2a
I1128 23:07:55.490514 173035 net.cpp:129] Top shape: 10 256 15 15 (576000)
I1128 23:07:55.490523 173035 net.cpp:137] Memory required for data: 2287872160
I1128 23:07:55.490537 173035 layer_factory.hpp:77] Creating layer scale4d_branch2a
I1128 23:07:55.490553 173035 net.cpp:84] Creating Layer scale4d_branch2a
I1128 23:07:55.490561 173035 net.cpp:406] scale4d_branch2a <- res4d_branch2a
I1128 23:07:55.490573 173035 net.cpp:367] scale4d_branch2a -> res4d_branch2a (in-place)
I1128 23:07:55.490653 173035 layer_factory.hpp:77] Creating layer scale4d_branch2a
I1128 23:07:55.490883 173035 net.cpp:122] Setting up scale4d_branch2a
I1128 23:07:55.490898 173035 net.cpp:129] Top shape: 10 256 15 15 (576000)
I1128 23:07:55.490907 173035 net.cpp:137] Memory required for data: 2290176160
I1128 23:07:55.490919 173035 layer_factory.hpp:77] Creating layer res4d_branch2a_relu
I1128 23:07:55.490931 173035 net.cpp:84] Creating Layer res4d_branch2a_relu
I1128 23:07:55.490939 173035 net.cpp:406] res4d_branch2a_relu <- res4d_branch2a
I1128 23:07:55.490957 173035 net.cpp:367] res4d_branch2a_relu -> res4d_branch2a (in-place)
I1128 23:07:55.490969 173035 net.cpp:122] Setting up res4d_branch2a_relu
I1128 23:07:55.490980 173035 net.cpp:129] Top shape: 10 256 15 15 (576000)
I1128 23:07:55.490986 173035 net.cpp:137] Memory required for data: 2292480160
I1128 23:07:55.490995 173035 layer_factory.hpp:77] Creating layer res4d_branch2b
I1128 23:07:55.491011 173035 net.cpp:84] Creating Layer res4d_branch2b
I1128 23:07:55.491019 173035 net.cpp:406] res4d_branch2b <- res4d_branch2a
I1128 23:07:55.491035 173035 net.cpp:380] res4d_branch2b -> res4d_branch2b
I1128 23:07:55.505241 173035 net.cpp:122] Setting up res4d_branch2b
I1128 23:07:55.505269 173035 net.cpp:129] Top shape: 10 256 15 15 (576000)
I1128 23:07:55.505275 173035 net.cpp:137] Memory required for data: 2294784160
I1128 23:07:55.505285 173035 layer_factory.hpp:77] Creating layer bn4d_branch2b
I1128 23:07:55.505302 173035 net.cpp:84] Creating Layer bn4d_branch2b
I1128 23:07:55.505311 173035 net.cpp:406] bn4d_branch2b <- res4d_branch2b
I1128 23:07:55.505321 173035 net.cpp:367] bn4d_branch2b -> res4d_branch2b (in-place)
I1128 23:07:55.505673 173035 net.cpp:122] Setting up bn4d_branch2b
I1128 23:07:55.505687 173035 net.cpp:129] Top shape: 10 256 15 15 (576000)
I1128 23:07:55.505694 173035 net.cpp:137] Memory required for data: 2297088160
I1128 23:07:55.505707 173035 layer_factory.hpp:77] Creating layer scale4d_branch2b
I1128 23:07:55.505718 173035 net.cpp:84] Creating Layer scale4d_branch2b
I1128 23:07:55.505726 173035 net.cpp:406] scale4d_branch2b <- res4d_branch2b
I1128 23:07:55.505736 173035 net.cpp:367] scale4d_branch2b -> res4d_branch2b (in-place)
I1128 23:07:55.505810 173035 layer_factory.hpp:77] Creating layer scale4d_branch2b
I1128 23:07:55.506016 173035 net.cpp:122] Setting up scale4d_branch2b
I1128 23:07:55.506029 173035 net.cpp:129] Top shape: 10 256 15 15 (576000)
I1128 23:07:55.506036 173035 net.cpp:137] Memory required for data: 2299392160
I1128 23:07:55.506047 173035 layer_factory.hpp:77] Creating layer res4d_branch2b_relu
I1128 23:07:55.506059 173035 net.cpp:84] Creating Layer res4d_branch2b_relu
I1128 23:07:55.506068 173035 net.cpp:406] res4d_branch2b_relu <- res4d_branch2b
I1128 23:07:55.506078 173035 net.cpp:367] res4d_branch2b_relu -> res4d_branch2b (in-place)
I1128 23:07:55.506088 173035 net.cpp:122] Setting up res4d_branch2b_relu
I1128 23:07:55.506096 173035 net.cpp:129] Top shape: 10 256 15 15 (576000)
I1128 23:07:55.506104 173035 net.cpp:137] Memory required for data: 2301696160
I1128 23:07:55.506111 173035 layer_factory.hpp:77] Creating layer res4d_branch2c
I1128 23:07:55.506127 173035 net.cpp:84] Creating Layer res4d_branch2c
I1128 23:07:55.506142 173035 net.cpp:406] res4d_branch2c <- res4d_branch2b
I1128 23:07:55.506165 173035 net.cpp:380] res4d_branch2c -> res4d_branch2c
I1128 23:07:55.512475 173035 net.cpp:122] Setting up res4d_branch2c
I1128 23:07:55.512497 173035 net.cpp:129] Top shape: 10 1024 15 15 (2304000)
I1128 23:07:55.512504 173035 net.cpp:137] Memory required for data: 2310912160
I1128 23:07:55.512514 173035 layer_factory.hpp:77] Creating layer bn4d_branch2c
I1128 23:07:55.512526 173035 net.cpp:84] Creating Layer bn4d_branch2c
I1128 23:07:55.512533 173035 net.cpp:406] bn4d_branch2c <- res4d_branch2c
I1128 23:07:55.512542 173035 net.cpp:367] bn4d_branch2c -> res4d_branch2c (in-place)
I1128 23:07:55.512898 173035 net.cpp:122] Setting up bn4d_branch2c
I1128 23:07:55.512912 173035 net.cpp:129] Top shape: 10 1024 15 15 (2304000)
I1128 23:07:55.512917 173035 net.cpp:137] Memory required for data: 2320128160
I1128 23:07:55.512930 173035 layer_factory.hpp:77] Creating layer scale4d_branch2c
I1128 23:07:55.512941 173035 net.cpp:84] Creating Layer scale4d_branch2c
I1128 23:07:55.512948 173035 net.cpp:406] scale4d_branch2c <- res4d_branch2c
I1128 23:07:55.512956 173035 net.cpp:367] scale4d_branch2c -> res4d_branch2c (in-place)
I1128 23:07:55.513025 173035 layer_factory.hpp:77] Creating layer scale4d_branch2c
I1128 23:07:55.513232 173035 net.cpp:122] Setting up scale4d_branch2c
I1128 23:07:55.513243 173035 net.cpp:129] Top shape: 10 1024 15 15 (2304000)
I1128 23:07:55.513249 173035 net.cpp:137] Memory required for data: 2329344160
I1128 23:07:55.513259 173035 layer_factory.hpp:77] Creating layer res4d
I1128 23:07:55.513273 173035 net.cpp:84] Creating Layer res4d
I1128 23:07:55.513281 173035 net.cpp:406] res4d <- res4c_res4c_relu_0_split_1
I1128 23:07:55.513290 173035 net.cpp:406] res4d <- res4d_branch2c
I1128 23:07:55.513299 173035 net.cpp:380] res4d -> res4d
I1128 23:07:55.513342 173035 net.cpp:122] Setting up res4d
I1128 23:07:55.513353 173035 net.cpp:129] Top shape: 10 1024 15 15 (2304000)
I1128 23:07:55.513360 173035 net.cpp:137] Memory required for data: 2338560160
I1128 23:07:55.513365 173035 layer_factory.hpp:77] Creating layer res4d_relu
I1128 23:07:55.513376 173035 net.cpp:84] Creating Layer res4d_relu
I1128 23:07:55.513382 173035 net.cpp:406] res4d_relu <- res4d
I1128 23:07:55.513394 173035 net.cpp:367] res4d_relu -> res4d (in-place)
I1128 23:07:55.513404 173035 net.cpp:122] Setting up res4d_relu
I1128 23:07:55.513413 173035 net.cpp:129] Top shape: 10 1024 15 15 (2304000)
I1128 23:07:55.513419 173035 net.cpp:137] Memory required for data: 2347776160
I1128 23:07:55.513427 173035 layer_factory.hpp:77] Creating layer res4d_res4d_relu_0_split
I1128 23:07:55.513435 173035 net.cpp:84] Creating Layer res4d_res4d_relu_0_split
I1128 23:07:55.513442 173035 net.cpp:406] res4d_res4d_relu_0_split <- res4d
I1128 23:07:55.513453 173035 net.cpp:380] res4d_res4d_relu_0_split -> res4d_res4d_relu_0_split_0
I1128 23:07:55.513463 173035 net.cpp:380] res4d_res4d_relu_0_split -> res4d_res4d_relu_0_split_1
I1128 23:07:55.513525 173035 net.cpp:122] Setting up res4d_res4d_relu_0_split
I1128 23:07:55.513535 173035 net.cpp:129] Top shape: 10 1024 15 15 (2304000)
I1128 23:07:55.513543 173035 net.cpp:129] Top shape: 10 1024 15 15 (2304000)
I1128 23:07:55.513550 173035 net.cpp:137] Memory required for data: 2366208160
I1128 23:07:55.513556 173035 layer_factory.hpp:77] Creating layer res4e_branch2a
I1128 23:07:55.513569 173035 net.cpp:84] Creating Layer res4e_branch2a
I1128 23:07:55.513576 173035 net.cpp:406] res4e_branch2a <- res4d_res4d_relu_0_split_0
I1128 23:07:55.513589 173035 net.cpp:380] res4e_branch2a -> res4e_branch2a
I1128 23:07:55.519508 173035 net.cpp:122] Setting up res4e_branch2a
I1128 23:07:55.519531 173035 net.cpp:129] Top shape: 10 256 15 15 (576000)
I1128 23:07:55.519538 173035 net.cpp:137] Memory required for data: 2368512160
I1128 23:07:55.519547 173035 layer_factory.hpp:77] Creating layer bn4e_branch2a
I1128 23:07:55.519559 173035 net.cpp:84] Creating Layer bn4e_branch2a
I1128 23:07:55.519567 173035 net.cpp:406] bn4e_branch2a <- res4e_branch2a
I1128 23:07:55.519584 173035 net.cpp:367] bn4e_branch2a -> res4e_branch2a (in-place)
I1128 23:07:55.519933 173035 net.cpp:122] Setting up bn4e_branch2a
I1128 23:07:55.519948 173035 net.cpp:129] Top shape: 10 256 15 15 (576000)
I1128 23:07:55.519956 173035 net.cpp:137] Memory required for data: 2370816160
I1128 23:07:55.519969 173035 layer_factory.hpp:77] Creating layer scale4e_branch2a
I1128 23:07:55.519979 173035 net.cpp:84] Creating Layer scale4e_branch2a
I1128 23:07:55.519986 173035 net.cpp:406] scale4e_branch2a <- res4e_branch2a
I1128 23:07:55.519996 173035 net.cpp:367] scale4e_branch2a -> res4e_branch2a (in-place)
I1128 23:07:55.520066 173035 layer_factory.hpp:77] Creating layer scale4e_branch2a
I1128 23:07:55.520258 173035 net.cpp:122] Setting up scale4e_branch2a
I1128 23:07:55.520270 173035 net.cpp:129] Top shape: 10 256 15 15 (576000)
I1128 23:07:55.520277 173035 net.cpp:137] Memory required for data: 2373120160
I1128 23:07:55.520288 173035 layer_factory.hpp:77] Creating layer res4e_branch2a_relu
I1128 23:07:55.520300 173035 net.cpp:84] Creating Layer res4e_branch2a_relu
I1128 23:07:55.520306 173035 net.cpp:406] res4e_branch2a_relu <- res4e_branch2a
I1128 23:07:55.520316 173035 net.cpp:367] res4e_branch2a_relu -> res4e_branch2a (in-place)
I1128 23:07:55.520325 173035 net.cpp:122] Setting up res4e_branch2a_relu
I1128 23:07:55.520334 173035 net.cpp:129] Top shape: 10 256 15 15 (576000)
I1128 23:07:55.520340 173035 net.cpp:137] Memory required for data: 2375424160
I1128 23:07:55.520349 173035 layer_factory.hpp:77] Creating layer res4e_branch2b
I1128 23:07:55.520362 173035 net.cpp:84] Creating Layer res4e_branch2b
I1128 23:07:55.520370 173035 net.cpp:406] res4e_branch2b <- res4e_branch2a
I1128 23:07:55.520380 173035 net.cpp:380] res4e_branch2b -> res4e_branch2b
I1128 23:07:55.532431 173035 net.cpp:122] Setting up res4e_branch2b
I1128 23:07:55.532454 173035 net.cpp:129] Top shape: 10 256 15 15 (576000)
I1128 23:07:55.532460 173035 net.cpp:137] Memory required for data: 2377728160
I1128 23:07:55.532469 173035 layer_factory.hpp:77] Creating layer bn4e_branch2b
I1128 23:07:55.532487 173035 net.cpp:84] Creating Layer bn4e_branch2b
I1128 23:07:55.532495 173035 net.cpp:406] bn4e_branch2b <- res4e_branch2b
I1128 23:07:55.532505 173035 net.cpp:367] bn4e_branch2b -> res4e_branch2b (in-place)
I1128 23:07:55.532827 173035 net.cpp:122] Setting up bn4e_branch2b
I1128 23:07:55.532840 173035 net.cpp:129] Top shape: 10 256 15 15 (576000)
I1128 23:07:55.532846 173035 net.cpp:137] Memory required for data: 2380032160
I1128 23:07:55.532857 173035 layer_factory.hpp:77] Creating layer scale4e_branch2b
I1128 23:07:55.532867 173035 net.cpp:84] Creating Layer scale4e_branch2b
I1128 23:07:55.532874 173035 net.cpp:406] scale4e_branch2b <- res4e_branch2b
I1128 23:07:55.532886 173035 net.cpp:367] scale4e_branch2b -> res4e_branch2b (in-place)
I1128 23:07:55.532949 173035 layer_factory.hpp:77] Creating layer scale4e_branch2b
I1128 23:07:55.533134 173035 net.cpp:122] Setting up scale4e_branch2b
I1128 23:07:55.533146 173035 net.cpp:129] Top shape: 10 256 15 15 (576000)
I1128 23:07:55.533152 173035 net.cpp:137] Memory required for data: 2382336160
I1128 23:07:55.533161 173035 layer_factory.hpp:77] Creating layer res4e_branch2b_relu
I1128 23:07:55.533170 173035 net.cpp:84] Creating Layer res4e_branch2b_relu
I1128 23:07:55.533177 173035 net.cpp:406] res4e_branch2b_relu <- res4e_branch2b
I1128 23:07:55.533185 173035 net.cpp:367] res4e_branch2b_relu -> res4e_branch2b (in-place)
I1128 23:07:55.533195 173035 net.cpp:122] Setting up res4e_branch2b_relu
I1128 23:07:55.533202 173035 net.cpp:129] Top shape: 10 256 15 15 (576000)
I1128 23:07:55.533210 173035 net.cpp:137] Memory required for data: 2384640160
I1128 23:07:55.533215 173035 layer_factory.hpp:77] Creating layer res4e_branch2c
I1128 23:07:55.533229 173035 net.cpp:84] Creating Layer res4e_branch2c
I1128 23:07:55.533236 173035 net.cpp:406] res4e_branch2c <- res4e_branch2b
I1128 23:07:55.533248 173035 net.cpp:380] res4e_branch2c -> res4e_branch2c
I1128 23:07:55.538620 173035 net.cpp:122] Setting up res4e_branch2c
I1128 23:07:55.538646 173035 net.cpp:129] Top shape: 10 1024 15 15 (2304000)
I1128 23:07:55.538661 173035 net.cpp:137] Memory required for data: 2393856160
I1128 23:07:55.538671 173035 layer_factory.hpp:77] Creating layer bn4e_branch2c
I1128 23:07:55.538681 173035 net.cpp:84] Creating Layer bn4e_branch2c
I1128 23:07:55.538687 173035 net.cpp:406] bn4e_branch2c <- res4e_branch2c
I1128 23:07:55.538698 173035 net.cpp:367] bn4e_branch2c -> res4e_branch2c (in-place)
I1128 23:07:55.539017 173035 net.cpp:122] Setting up bn4e_branch2c
I1128 23:07:55.539028 173035 net.cpp:129] Top shape: 10 1024 15 15 (2304000)
I1128 23:07:55.539034 173035 net.cpp:137] Memory required for data: 2403072160
I1128 23:07:55.539044 173035 layer_factory.hpp:77] Creating layer scale4e_branch2c
I1128 23:07:55.539054 173035 net.cpp:84] Creating Layer scale4e_branch2c
I1128 23:07:55.539060 173035 net.cpp:406] scale4e_branch2c <- res4e_branch2c
I1128 23:07:55.539068 173035 net.cpp:367] scale4e_branch2c -> res4e_branch2c (in-place)
I1128 23:07:55.539135 173035 layer_factory.hpp:77] Creating layer scale4e_branch2c
I1128 23:07:55.539319 173035 net.cpp:122] Setting up scale4e_branch2c
I1128 23:07:55.539335 173035 net.cpp:129] Top shape: 10 1024 15 15 (2304000)
I1128 23:07:55.539341 173035 net.cpp:137] Memory required for data: 2412288160
I1128 23:07:55.539350 173035 layer_factory.hpp:77] Creating layer res4e
I1128 23:07:55.539363 173035 net.cpp:84] Creating Layer res4e
I1128 23:07:55.539371 173035 net.cpp:406] res4e <- res4d_res4d_relu_0_split_1
I1128 23:07:55.539377 173035 net.cpp:406] res4e <- res4e_branch2c
I1128 23:07:55.539386 173035 net.cpp:380] res4e -> res4e
I1128 23:07:55.539425 173035 net.cpp:122] Setting up res4e
I1128 23:07:55.539435 173035 net.cpp:129] Top shape: 10 1024 15 15 (2304000)
I1128 23:07:55.539440 173035 net.cpp:137] Memory required for data: 2421504160
I1128 23:07:55.539445 173035 layer_factory.hpp:77] Creating layer res4e_relu
I1128 23:07:55.539455 173035 net.cpp:84] Creating Layer res4e_relu
I1128 23:07:55.539460 173035 net.cpp:406] res4e_relu <- res4e
I1128 23:07:55.539470 173035 net.cpp:367] res4e_relu -> res4e (in-place)
I1128 23:07:55.539479 173035 net.cpp:122] Setting up res4e_relu
I1128 23:07:55.539487 173035 net.cpp:129] Top shape: 10 1024 15 15 (2304000)
I1128 23:07:55.539494 173035 net.cpp:137] Memory required for data: 2430720160
I1128 23:07:55.539499 173035 layer_factory.hpp:77] Creating layer res4e_res4e_relu_0_split
I1128 23:07:55.539507 173035 net.cpp:84] Creating Layer res4e_res4e_relu_0_split
I1128 23:07:55.539513 173035 net.cpp:406] res4e_res4e_relu_0_split <- res4e
I1128 23:07:55.539521 173035 net.cpp:380] res4e_res4e_relu_0_split -> res4e_res4e_relu_0_split_0
I1128 23:07:55.539531 173035 net.cpp:380] res4e_res4e_relu_0_split -> res4e_res4e_relu_0_split_1
I1128 23:07:55.539584 173035 net.cpp:122] Setting up res4e_res4e_relu_0_split
I1128 23:07:55.539595 173035 net.cpp:129] Top shape: 10 1024 15 15 (2304000)
I1128 23:07:55.539602 173035 net.cpp:129] Top shape: 10 1024 15 15 (2304000)
I1128 23:07:55.539608 173035 net.cpp:137] Memory required for data: 2449152160
I1128 23:07:55.539613 173035 layer_factory.hpp:77] Creating layer res4f_branch2a
I1128 23:07:55.539630 173035 net.cpp:84] Creating Layer res4f_branch2a
I1128 23:07:55.539638 173035 net.cpp:406] res4f_branch2a <- res4e_res4e_relu_0_split_0
I1128 23:07:55.539647 173035 net.cpp:380] res4f_branch2a -> res4f_branch2a
I1128 23:07:55.544870 173035 net.cpp:122] Setting up res4f_branch2a
I1128 23:07:55.544891 173035 net.cpp:129] Top shape: 10 256 15 15 (576000)
I1128 23:07:55.544898 173035 net.cpp:137] Memory required for data: 2451456160
I1128 23:07:55.544905 173035 layer_factory.hpp:77] Creating layer bn4f_branch2a
I1128 23:07:55.544915 173035 net.cpp:84] Creating Layer bn4f_branch2a
I1128 23:07:55.544924 173035 net.cpp:406] bn4f_branch2a <- res4f_branch2a
I1128 23:07:55.544934 173035 net.cpp:367] bn4f_branch2a -> res4f_branch2a (in-place)
I1128 23:07:55.545225 173035 net.cpp:122] Setting up bn4f_branch2a
I1128 23:07:55.545235 173035 net.cpp:129] Top shape: 10 256 15 15 (576000)
I1128 23:07:55.545248 173035 net.cpp:137] Memory required for data: 2453760160
I1128 23:07:55.545269 173035 layer_factory.hpp:77] Creating layer scale4f_branch2a
I1128 23:07:55.545279 173035 net.cpp:84] Creating Layer scale4f_branch2a
I1128 23:07:55.545284 173035 net.cpp:406] scale4f_branch2a <- res4f_branch2a
I1128 23:07:55.545294 173035 net.cpp:367] scale4f_branch2a -> res4f_branch2a (in-place)
I1128 23:07:55.545357 173035 layer_factory.hpp:77] Creating layer scale4f_branch2a
I1128 23:07:55.545526 173035 net.cpp:122] Setting up scale4f_branch2a
I1128 23:07:55.545536 173035 net.cpp:129] Top shape: 10 256 15 15 (576000)
I1128 23:07:55.545542 173035 net.cpp:137] Memory required for data: 2456064160
I1128 23:07:55.545552 173035 layer_factory.hpp:77] Creating layer res4f_branch2a_relu
I1128 23:07:55.545559 173035 net.cpp:84] Creating Layer res4f_branch2a_relu
I1128 23:07:55.545565 173035 net.cpp:406] res4f_branch2a_relu <- res4f_branch2a
I1128 23:07:55.545577 173035 net.cpp:367] res4f_branch2a_relu -> res4f_branch2a (in-place)
I1128 23:07:55.545584 173035 net.cpp:122] Setting up res4f_branch2a_relu
I1128 23:07:55.545593 173035 net.cpp:129] Top shape: 10 256 15 15 (576000)
I1128 23:07:55.545598 173035 net.cpp:137] Memory required for data: 2458368160
I1128 23:07:55.545604 173035 layer_factory.hpp:77] Creating layer res4f_branch2b
I1128 23:07:55.545614 173035 net.cpp:84] Creating Layer res4f_branch2b
I1128 23:07:55.545620 173035 net.cpp:406] res4f_branch2b <- res4f_branch2a
I1128 23:07:55.545631 173035 net.cpp:380] res4f_branch2b -> res4f_branch2b
I1128 23:07:55.556210 173035 net.cpp:122] Setting up res4f_branch2b
I1128 23:07:55.556228 173035 net.cpp:129] Top shape: 10 256 15 15 (576000)
I1128 23:07:55.556234 173035 net.cpp:137] Memory required for data: 2460672160
I1128 23:07:55.556242 173035 layer_factory.hpp:77] Creating layer bn4f_branch2b
I1128 23:07:55.556252 173035 net.cpp:84] Creating Layer bn4f_branch2b
I1128 23:07:55.556258 173035 net.cpp:406] bn4f_branch2b <- res4f_branch2b
I1128 23:07:55.556267 173035 net.cpp:367] bn4f_branch2b -> res4f_branch2b (in-place)
I1128 23:07:55.556550 173035 net.cpp:122] Setting up bn4f_branch2b
I1128 23:07:55.556560 173035 net.cpp:129] Top shape: 10 256 15 15 (576000)
I1128 23:07:55.556565 173035 net.cpp:137] Memory required for data: 2462976160
I1128 23:07:55.556574 173035 layer_factory.hpp:77] Creating layer scale4f_branch2b
I1128 23:07:55.556584 173035 net.cpp:84] Creating Layer scale4f_branch2b
I1128 23:07:55.556591 173035 net.cpp:406] scale4f_branch2b <- res4f_branch2b
I1128 23:07:55.556598 173035 net.cpp:367] scale4f_branch2b -> res4f_branch2b (in-place)
I1128 23:07:55.556658 173035 layer_factory.hpp:77] Creating layer scale4f_branch2b
I1128 23:07:55.556816 173035 net.cpp:122] Setting up scale4f_branch2b
I1128 23:07:55.556828 173035 net.cpp:129] Top shape: 10 256 15 15 (576000)
I1128 23:07:55.556833 173035 net.cpp:137] Memory required for data: 2465280160
I1128 23:07:55.556840 173035 layer_factory.hpp:77] Creating layer res4f_branch2b_relu
I1128 23:07:55.556849 173035 net.cpp:84] Creating Layer res4f_branch2b_relu
I1128 23:07:55.556855 173035 net.cpp:406] res4f_branch2b_relu <- res4f_branch2b
I1128 23:07:55.556864 173035 net.cpp:367] res4f_branch2b_relu -> res4f_branch2b (in-place)
I1128 23:07:55.556872 173035 net.cpp:122] Setting up res4f_branch2b_relu
I1128 23:07:55.556879 173035 net.cpp:129] Top shape: 10 256 15 15 (576000)
I1128 23:07:55.556885 173035 net.cpp:137] Memory required for data: 2467584160
I1128 23:07:55.556890 173035 layer_factory.hpp:77] Creating layer res4f_branch2c
I1128 23:07:55.556902 173035 net.cpp:84] Creating Layer res4f_branch2c
I1128 23:07:55.556908 173035 net.cpp:406] res4f_branch2c <- res4f_branch2b
I1128 23:07:55.556917 173035 net.cpp:380] res4f_branch2c -> res4f_branch2c
I1128 23:07:55.561734 173035 net.cpp:122] Setting up res4f_branch2c
I1128 23:07:55.561753 173035 net.cpp:129] Top shape: 10 1024 15 15 (2304000)
I1128 23:07:55.561758 173035 net.cpp:137] Memory required for data: 2476800160
I1128 23:07:55.561771 173035 layer_factory.hpp:77] Creating layer bn4f_branch2c
I1128 23:07:55.561790 173035 net.cpp:84] Creating Layer bn4f_branch2c
I1128 23:07:55.561796 173035 net.cpp:406] bn4f_branch2c <- res4f_branch2c
I1128 23:07:55.561805 173035 net.cpp:367] bn4f_branch2c -> res4f_branch2c (in-place)
I1128 23:07:55.562088 173035 net.cpp:122] Setting up bn4f_branch2c
I1128 23:07:55.562098 173035 net.cpp:129] Top shape: 10 1024 15 15 (2304000)
I1128 23:07:55.562103 173035 net.cpp:137] Memory required for data: 2486016160
I1128 23:07:55.562147 173035 layer_factory.hpp:77] Creating layer scale4f_branch2c
I1128 23:07:55.562158 173035 net.cpp:84] Creating Layer scale4f_branch2c
I1128 23:07:55.562165 173035 net.cpp:406] scale4f_branch2c <- res4f_branch2c
I1128 23:07:55.562171 173035 net.cpp:367] scale4f_branch2c -> res4f_branch2c (in-place)
I1128 23:07:55.562228 173035 layer_factory.hpp:77] Creating layer scale4f_branch2c
I1128 23:07:55.562393 173035 net.cpp:122] Setting up scale4f_branch2c
I1128 23:07:55.562402 173035 net.cpp:129] Top shape: 10 1024 15 15 (2304000)
I1128 23:07:55.562407 173035 net.cpp:137] Memory required for data: 2495232160
I1128 23:07:55.562415 173035 layer_factory.hpp:77] Creating layer res4f
I1128 23:07:55.562424 173035 net.cpp:84] Creating Layer res4f
I1128 23:07:55.562430 173035 net.cpp:406] res4f <- res4e_res4e_relu_0_split_1
I1128 23:07:55.562436 173035 net.cpp:406] res4f <- res4f_branch2c
I1128 23:07:55.562443 173035 net.cpp:380] res4f -> res4f
I1128 23:07:55.562477 173035 net.cpp:122] Setting up res4f
I1128 23:07:55.562485 173035 net.cpp:129] Top shape: 10 1024 15 15 (2304000)
I1128 23:07:55.562490 173035 net.cpp:137] Memory required for data: 2504448160
I1128 23:07:55.562495 173035 layer_factory.hpp:77] Creating layer res4f_relu
I1128 23:07:55.562505 173035 net.cpp:84] Creating Layer res4f_relu
I1128 23:07:55.562511 173035 net.cpp:406] res4f_relu <- res4f
I1128 23:07:55.562517 173035 net.cpp:367] res4f_relu -> res4f (in-place)
I1128 23:07:55.562525 173035 net.cpp:122] Setting up res4f_relu
I1128 23:07:55.562533 173035 net.cpp:129] Top shape: 10 1024 15 15 (2304000)
I1128 23:07:55.562537 173035 net.cpp:137] Memory required for data: 2513664160
I1128 23:07:55.562542 173035 layer_factory.hpp:77] Creating layer res4f_res4f_relu_0_split
I1128 23:07:55.562551 173035 net.cpp:84] Creating Layer res4f_res4f_relu_0_split
I1128 23:07:55.562556 173035 net.cpp:406] res4f_res4f_relu_0_split <- res4f
I1128 23:07:55.562564 173035 net.cpp:380] res4f_res4f_relu_0_split -> res4f_res4f_relu_0_split_0
I1128 23:07:55.562574 173035 net.cpp:380] res4f_res4f_relu_0_split -> res4f_res4f_relu_0_split_1
I1128 23:07:55.562621 173035 net.cpp:122] Setting up res4f_res4f_relu_0_split
I1128 23:07:55.562630 173035 net.cpp:129] Top shape: 10 1024 15 15 (2304000)
I1128 23:07:55.562638 173035 net.cpp:129] Top shape: 10 1024 15 15 (2304000)
I1128 23:07:55.562641 173035 net.cpp:137] Memory required for data: 2532096160
I1128 23:07:55.562646 173035 layer_factory.hpp:77] Creating layer res5a_branch1
I1128 23:07:55.562660 173035 net.cpp:84] Creating Layer res5a_branch1
I1128 23:07:55.562666 173035 net.cpp:406] res5a_branch1 <- res4f_res4f_relu_0_split_0
I1128 23:07:55.562674 173035 net.cpp:380] res5a_branch1 -> res5a_branch1
I1128 23:07:55.597868 173035 net.cpp:122] Setting up res5a_branch1
I1128 23:07:55.597898 173035 net.cpp:129] Top shape: 10 2048 8 8 (1310720)
I1128 23:07:55.597903 173035 net.cpp:137] Memory required for data: 2537339040
I1128 23:07:55.597913 173035 layer_factory.hpp:77] Creating layer bn5a_branch1
I1128 23:07:55.597926 173035 net.cpp:84] Creating Layer bn5a_branch1
I1128 23:07:55.597934 173035 net.cpp:406] bn5a_branch1 <- res5a_branch1
I1128 23:07:55.597942 173035 net.cpp:367] bn5a_branch1 -> res5a_branch1 (in-place)
I1128 23:07:55.598230 173035 net.cpp:122] Setting up bn5a_branch1
I1128 23:07:55.598239 173035 net.cpp:129] Top shape: 10 2048 8 8 (1310720)
I1128 23:07:55.598244 173035 net.cpp:137] Memory required for data: 2542581920
I1128 23:07:55.598254 173035 layer_factory.hpp:77] Creating layer scale5a_branch1
I1128 23:07:55.598270 173035 net.cpp:84] Creating Layer scale5a_branch1
I1128 23:07:55.598286 173035 net.cpp:406] scale5a_branch1 <- res5a_branch1
I1128 23:07:55.598296 173035 net.cpp:367] scale5a_branch1 -> res5a_branch1 (in-place)
I1128 23:07:55.598346 173035 layer_factory.hpp:77] Creating layer scale5a_branch1
I1128 23:07:55.598487 173035 net.cpp:122] Setting up scale5a_branch1
I1128 23:07:55.598496 173035 net.cpp:129] Top shape: 10 2048 8 8 (1310720)
I1128 23:07:55.598501 173035 net.cpp:137] Memory required for data: 2547824800
I1128 23:07:55.598508 173035 layer_factory.hpp:77] Creating layer res5a_branch2a
I1128 23:07:55.598517 173035 net.cpp:84] Creating Layer res5a_branch2a
I1128 23:07:55.598522 173035 net.cpp:406] res5a_branch2a <- res4f_res4f_relu_0_split_1
I1128 23:07:55.598532 173035 net.cpp:380] res5a_branch2a -> res5a_branch2a
I1128 23:07:55.606317 173035 net.cpp:122] Setting up res5a_branch2a
I1128 23:07:55.606334 173035 net.cpp:129] Top shape: 10 512 8 8 (327680)
I1128 23:07:55.606339 173035 net.cpp:137] Memory required for data: 2549135520
I1128 23:07:55.606346 173035 layer_factory.hpp:77] Creating layer bn5a_branch2a
I1128 23:07:55.606354 173035 net.cpp:84] Creating Layer bn5a_branch2a
I1128 23:07:55.606359 173035 net.cpp:406] bn5a_branch2a <- res5a_branch2a
I1128 23:07:55.606366 173035 net.cpp:367] bn5a_branch2a -> res5a_branch2a (in-place)
I1128 23:07:55.606613 173035 net.cpp:122] Setting up bn5a_branch2a
I1128 23:07:55.606624 173035 net.cpp:129] Top shape: 10 512 8 8 (327680)
I1128 23:07:55.606628 173035 net.cpp:137] Memory required for data: 2550446240
I1128 23:07:55.606637 173035 layer_factory.hpp:77] Creating layer scale5a_branch2a
I1128 23:07:55.606645 173035 net.cpp:84] Creating Layer scale5a_branch2a
I1128 23:07:55.606649 173035 net.cpp:406] scale5a_branch2a <- res5a_branch2a
I1128 23:07:55.606655 173035 net.cpp:367] scale5a_branch2a -> res5a_branch2a (in-place)
I1128 23:07:55.606703 173035 layer_factory.hpp:77] Creating layer scale5a_branch2a
I1128 23:07:55.606845 173035 net.cpp:122] Setting up scale5a_branch2a
I1128 23:07:55.606853 173035 net.cpp:129] Top shape: 10 512 8 8 (327680)
I1128 23:07:55.606858 173035 net.cpp:137] Memory required for data: 2551756960
I1128 23:07:55.606865 173035 layer_factory.hpp:77] Creating layer res5a_branch2a_relu
I1128 23:07:55.606875 173035 net.cpp:84] Creating Layer res5a_branch2a_relu
I1128 23:07:55.606880 173035 net.cpp:406] res5a_branch2a_relu <- res5a_branch2a
I1128 23:07:55.606886 173035 net.cpp:367] res5a_branch2a_relu -> res5a_branch2a (in-place)
I1128 23:07:55.606892 173035 net.cpp:122] Setting up res5a_branch2a_relu
I1128 23:07:55.606899 173035 net.cpp:129] Top shape: 10 512 8 8 (327680)
I1128 23:07:55.606904 173035 net.cpp:137] Memory required for data: 2553067680
I1128 23:07:55.606907 173035 layer_factory.hpp:77] Creating layer res5a_branch2b
I1128 23:07:55.606919 173035 net.cpp:84] Creating Layer res5a_branch2b
I1128 23:07:55.606923 173035 net.cpp:406] res5a_branch2b <- res5a_branch2a
I1128 23:07:55.606930 173035 net.cpp:380] res5a_branch2b -> res5a_branch2b
I1128 23:07:55.638850 173035 net.cpp:122] Setting up res5a_branch2b
I1128 23:07:55.638870 173035 net.cpp:129] Top shape: 10 512 8 8 (327680)
I1128 23:07:55.638875 173035 net.cpp:137] Memory required for data: 2554378400
I1128 23:07:55.638881 173035 layer_factory.hpp:77] Creating layer bn5a_branch2b
I1128 23:07:55.638891 173035 net.cpp:84] Creating Layer bn5a_branch2b
I1128 23:07:55.638896 173035 net.cpp:406] bn5a_branch2b <- res5a_branch2b
I1128 23:07:55.638903 173035 net.cpp:367] bn5a_branch2b -> res5a_branch2b (in-place)
I1128 23:07:55.639127 173035 net.cpp:122] Setting up bn5a_branch2b
I1128 23:07:55.639134 173035 net.cpp:129] Top shape: 10 512 8 8 (327680)
I1128 23:07:55.639137 173035 net.cpp:137] Memory required for data: 2555689120
I1128 23:07:55.639147 173035 layer_factory.hpp:77] Creating layer scale5a_branch2b
I1128 23:07:55.639153 173035 net.cpp:84] Creating Layer scale5a_branch2b
I1128 23:07:55.639156 173035 net.cpp:406] scale5a_branch2b <- res5a_branch2b
I1128 23:07:55.639164 173035 net.cpp:367] scale5a_branch2b -> res5a_branch2b (in-place)
I1128 23:07:55.639212 173035 layer_factory.hpp:77] Creating layer scale5a_branch2b
I1128 23:07:55.639355 173035 net.cpp:122] Setting up scale5a_branch2b
I1128 23:07:55.639365 173035 net.cpp:129] Top shape: 10 512 8 8 (327680)
I1128 23:07:55.639369 173035 net.cpp:137] Memory required for data: 2556999840
I1128 23:07:55.639377 173035 layer_factory.hpp:77] Creating layer res5a_branch2b_relu
I1128 23:07:55.639384 173035 net.cpp:84] Creating Layer res5a_branch2b_relu
I1128 23:07:55.639389 173035 net.cpp:406] res5a_branch2b_relu <- res5a_branch2b
I1128 23:07:55.639394 173035 net.cpp:367] res5a_branch2b_relu -> res5a_branch2b (in-place)
I1128 23:07:55.639401 173035 net.cpp:122] Setting up res5a_branch2b_relu
I1128 23:07:55.639406 173035 net.cpp:129] Top shape: 10 512 8 8 (327680)
I1128 23:07:55.639410 173035 net.cpp:137] Memory required for data: 2558310560
I1128 23:07:55.639413 173035 layer_factory.hpp:77] Creating layer res5a_branch2c
I1128 23:07:55.639425 173035 net.cpp:84] Creating Layer res5a_branch2c
I1128 23:07:55.639428 173035 net.cpp:406] res5a_branch2c <- res5a_branch2b
I1128 23:07:55.639436 173035 net.cpp:380] res5a_branch2c -> res5a_branch2c
I1128 23:07:55.650391 173035 net.cpp:122] Setting up res5a_branch2c
I1128 23:07:55.650404 173035 net.cpp:129] Top shape: 10 2048 8 8 (1310720)
I1128 23:07:55.650408 173035 net.cpp:137] Memory required for data: 2563553440
I1128 23:07:55.650411 173035 layer_factory.hpp:77] Creating layer bn5a_branch2c
I1128 23:07:55.650418 173035 net.cpp:84] Creating Layer bn5a_branch2c
I1128 23:07:55.650421 173035 net.cpp:406] bn5a_branch2c <- res5a_branch2c
I1128 23:07:55.650427 173035 net.cpp:367] bn5a_branch2c -> res5a_branch2c (in-place)
I1128 23:07:55.650594 173035 net.cpp:122] Setting up bn5a_branch2c
I1128 23:07:55.650600 173035 net.cpp:129] Top shape: 10 2048 8 8 (1310720)
I1128 23:07:55.650604 173035 net.cpp:137] Memory required for data: 2568796320
I1128 23:07:55.650609 173035 layer_factory.hpp:77] Creating layer scale5a_branch2c
I1128 23:07:55.650614 173035 net.cpp:84] Creating Layer scale5a_branch2c
I1128 23:07:55.650617 173035 net.cpp:406] scale5a_branch2c <- res5a_branch2c
I1128 23:07:55.650621 173035 net.cpp:367] scale5a_branch2c -> res5a_branch2c (in-place)
I1128 23:07:55.650656 173035 layer_factory.hpp:77] Creating layer scale5a_branch2c
I1128 23:07:55.650755 173035 net.cpp:122] Setting up scale5a_branch2c
I1128 23:07:55.650761 173035 net.cpp:129] Top shape: 10 2048 8 8 (1310720)
I1128 23:07:55.650765 173035 net.cpp:137] Memory required for data: 2574039200
I1128 23:07:55.650770 173035 layer_factory.hpp:77] Creating layer res5a
I1128 23:07:55.650777 173035 net.cpp:84] Creating Layer res5a
I1128 23:07:55.650781 173035 net.cpp:406] res5a <- res5a_branch1
I1128 23:07:55.650785 173035 net.cpp:406] res5a <- res5a_branch2c
I1128 23:07:55.650789 173035 net.cpp:380] res5a -> res5a
I1128 23:07:55.650812 173035 net.cpp:122] Setting up res5a
I1128 23:07:55.650817 173035 net.cpp:129] Top shape: 10 2048 8 8 (1310720)
I1128 23:07:55.650820 173035 net.cpp:137] Memory required for data: 2579282080
I1128 23:07:55.650823 173035 layer_factory.hpp:77] Creating layer res5a_relu
I1128 23:07:55.650828 173035 net.cpp:84] Creating Layer res5a_relu
I1128 23:07:55.650831 173035 net.cpp:406] res5a_relu <- res5a
I1128 23:07:55.650840 173035 net.cpp:367] res5a_relu -> res5a (in-place)
I1128 23:07:55.650844 173035 net.cpp:122] Setting up res5a_relu
I1128 23:07:55.650848 173035 net.cpp:129] Top shape: 10 2048 8 8 (1310720)
I1128 23:07:55.650851 173035 net.cpp:137] Memory required for data: 2584524960
I1128 23:07:55.650854 173035 layer_factory.hpp:77] Creating layer res5a_res5a_relu_0_split
I1128 23:07:55.650859 173035 net.cpp:84] Creating Layer res5a_res5a_relu_0_split
I1128 23:07:55.650862 173035 net.cpp:406] res5a_res5a_relu_0_split <- res5a
I1128 23:07:55.650866 173035 net.cpp:380] res5a_res5a_relu_0_split -> res5a_res5a_relu_0_split_0
I1128 23:07:55.650871 173035 net.cpp:380] res5a_res5a_relu_0_split -> res5a_res5a_relu_0_split_1
I1128 23:07:55.650904 173035 net.cpp:122] Setting up res5a_res5a_relu_0_split
I1128 23:07:55.650913 173035 net.cpp:129] Top shape: 10 2048 8 8 (1310720)
I1128 23:07:55.650923 173035 net.cpp:129] Top shape: 10 2048 8 8 (1310720)
I1128 23:07:55.650926 173035 net.cpp:137] Memory required for data: 2595010720
I1128 23:07:55.650929 173035 layer_factory.hpp:77] Creating layer res5b_branch2a
I1128 23:07:55.650938 173035 net.cpp:84] Creating Layer res5b_branch2a
I1128 23:07:55.650940 173035 net.cpp:406] res5b_branch2a <- res5a_res5a_relu_0_split_0
I1128 23:07:55.650946 173035 net.cpp:380] res5b_branch2a -> res5b_branch2a
I1128 23:07:55.661160 173035 net.cpp:122] Setting up res5b_branch2a
I1128 23:07:55.661172 173035 net.cpp:129] Top shape: 10 512 8 8 (327680)
I1128 23:07:55.661175 173035 net.cpp:137] Memory required for data: 2596321440
I1128 23:07:55.661182 173035 layer_factory.hpp:77] Creating layer bn5b_branch2a
I1128 23:07:55.661187 173035 net.cpp:84] Creating Layer bn5b_branch2a
I1128 23:07:55.661191 173035 net.cpp:406] bn5b_branch2a <- res5b_branch2a
I1128 23:07:55.661197 173035 net.cpp:367] bn5b_branch2a -> res5b_branch2a (in-place)
I1128 23:07:55.661365 173035 net.cpp:122] Setting up bn5b_branch2a
I1128 23:07:55.661372 173035 net.cpp:129] Top shape: 10 512 8 8 (327680)
I1128 23:07:55.661375 173035 net.cpp:137] Memory required for data: 2597632160
I1128 23:07:55.661381 173035 layer_factory.hpp:77] Creating layer scale5b_branch2a
I1128 23:07:55.661386 173035 net.cpp:84] Creating Layer scale5b_branch2a
I1128 23:07:55.661389 173035 net.cpp:406] scale5b_branch2a <- res5b_branch2a
I1128 23:07:55.661393 173035 net.cpp:367] scale5b_branch2a -> res5b_branch2a (in-place)
I1128 23:07:55.661428 173035 layer_factory.hpp:77] Creating layer scale5b_branch2a
I1128 23:07:55.661530 173035 net.cpp:122] Setting up scale5b_branch2a
I1128 23:07:55.661535 173035 net.cpp:129] Top shape: 10 512 8 8 (327680)
I1128 23:07:55.661537 173035 net.cpp:137] Memory required for data: 2598942880
I1128 23:07:55.661542 173035 layer_factory.hpp:77] Creating layer res5b_branch2a_relu
I1128 23:07:55.661548 173035 net.cpp:84] Creating Layer res5b_branch2a_relu
I1128 23:07:55.661550 173035 net.cpp:406] res5b_branch2a_relu <- res5b_branch2a
I1128 23:07:55.661556 173035 net.cpp:367] res5b_branch2a_relu -> res5b_branch2a (in-place)
I1128 23:07:55.661561 173035 net.cpp:122] Setting up res5b_branch2a_relu
I1128 23:07:55.661566 173035 net.cpp:129] Top shape: 10 512 8 8 (327680)
I1128 23:07:55.661567 173035 net.cpp:137] Memory required for data: 2600253600
I1128 23:07:55.661571 173035 layer_factory.hpp:77] Creating layer res5b_branch2b
I1128 23:07:55.661577 173035 net.cpp:84] Creating Layer res5b_branch2b
I1128 23:07:55.661581 173035 net.cpp:406] res5b_branch2b <- res5b_branch2a
I1128 23:07:55.661587 173035 net.cpp:380] res5b_branch2b -> res5b_branch2b
I1128 23:07:55.684134 173035 net.cpp:122] Setting up res5b_branch2b
I1128 23:07:55.684147 173035 net.cpp:129] Top shape: 10 512 8 8 (327680)
I1128 23:07:55.684150 173035 net.cpp:137] Memory required for data: 2601564320
I1128 23:07:55.684155 173035 layer_factory.hpp:77] Creating layer bn5b_branch2b
I1128 23:07:55.684161 173035 net.cpp:84] Creating Layer bn5b_branch2b
I1128 23:07:55.684165 173035 net.cpp:406] bn5b_branch2b <- res5b_branch2b
I1128 23:07:55.684170 173035 net.cpp:367] bn5b_branch2b -> res5b_branch2b (in-place)
I1128 23:07:55.684337 173035 net.cpp:122] Setting up bn5b_branch2b
I1128 23:07:55.684343 173035 net.cpp:129] Top shape: 10 512 8 8 (327680)
I1128 23:07:55.684346 173035 net.cpp:137] Memory required for data: 2602875040
I1128 23:07:55.684352 173035 layer_factory.hpp:77] Creating layer scale5b_branch2b
I1128 23:07:55.684362 173035 net.cpp:84] Creating Layer scale5b_branch2b
I1128 23:07:55.684365 173035 net.cpp:406] scale5b_branch2b <- res5b_branch2b
I1128 23:07:55.684370 173035 net.cpp:367] scale5b_branch2b -> res5b_branch2b (in-place)
I1128 23:07:55.684406 173035 layer_factory.hpp:77] Creating layer scale5b_branch2b
I1128 23:07:55.684504 173035 net.cpp:122] Setting up scale5b_branch2b
I1128 23:07:55.684509 173035 net.cpp:129] Top shape: 10 512 8 8 (327680)
I1128 23:07:55.684516 173035 net.cpp:137] Memory required for data: 2604185760
I1128 23:07:55.684527 173035 layer_factory.hpp:77] Creating layer res5b_branch2b_relu
I1128 23:07:55.684532 173035 net.cpp:84] Creating Layer res5b_branch2b_relu
I1128 23:07:55.684535 173035 net.cpp:406] res5b_branch2b_relu <- res5b_branch2b
I1128 23:07:55.684541 173035 net.cpp:367] res5b_branch2b_relu -> res5b_branch2b (in-place)
I1128 23:07:55.684546 173035 net.cpp:122] Setting up res5b_branch2b_relu
I1128 23:07:55.684551 173035 net.cpp:129] Top shape: 10 512 8 8 (327680)
I1128 23:07:55.684552 173035 net.cpp:137] Memory required for data: 2605496480
I1128 23:07:55.684556 173035 layer_factory.hpp:77] Creating layer res5b_branch2c
I1128 23:07:55.684566 173035 net.cpp:84] Creating Layer res5b_branch2c
I1128 23:07:55.684568 173035 net.cpp:406] res5b_branch2c <- res5b_branch2b
I1128 23:07:55.684573 173035 net.cpp:380] res5b_branch2c -> res5b_branch2c
I1128 23:07:55.694735 173035 net.cpp:122] Setting up res5b_branch2c
I1128 23:07:55.694746 173035 net.cpp:129] Top shape: 10 2048 8 8 (1310720)
I1128 23:07:55.694749 173035 net.cpp:137] Memory required for data: 2610739360
I1128 23:07:55.694754 173035 layer_factory.hpp:77] Creating layer bn5b_branch2c
I1128 23:07:55.694761 173035 net.cpp:84] Creating Layer bn5b_branch2c
I1128 23:07:55.694766 173035 net.cpp:406] bn5b_branch2c <- res5b_branch2c
I1128 23:07:55.694769 173035 net.cpp:367] bn5b_branch2c -> res5b_branch2c (in-place)
I1128 23:07:55.694941 173035 net.cpp:122] Setting up bn5b_branch2c
I1128 23:07:55.694947 173035 net.cpp:129] Top shape: 10 2048 8 8 (1310720)
I1128 23:07:55.694949 173035 net.cpp:137] Memory required for data: 2615982240
I1128 23:07:55.694957 173035 layer_factory.hpp:77] Creating layer scale5b_branch2c
I1128 23:07:55.694960 173035 net.cpp:84] Creating Layer scale5b_branch2c
I1128 23:07:55.694963 173035 net.cpp:406] scale5b_branch2c <- res5b_branch2c
I1128 23:07:55.694969 173035 net.cpp:367] scale5b_branch2c -> res5b_branch2c (in-place)
I1128 23:07:55.695003 173035 layer_factory.hpp:77] Creating layer scale5b_branch2c
I1128 23:07:55.695102 173035 net.cpp:122] Setting up scale5b_branch2c
I1128 23:07:55.695109 173035 net.cpp:129] Top shape: 10 2048 8 8 (1310720)
I1128 23:07:55.695112 173035 net.cpp:137] Memory required for data: 2621225120
I1128 23:07:55.695117 173035 layer_factory.hpp:77] Creating layer res5b
I1128 23:07:55.695122 173035 net.cpp:84] Creating Layer res5b
I1128 23:07:55.695127 173035 net.cpp:406] res5b <- res5a_res5a_relu_0_split_1
I1128 23:07:55.695130 173035 net.cpp:406] res5b <- res5b_branch2c
I1128 23:07:55.695134 173035 net.cpp:380] res5b -> res5b
I1128 23:07:55.695156 173035 net.cpp:122] Setting up res5b
I1128 23:07:55.695161 173035 net.cpp:129] Top shape: 10 2048 8 8 (1310720)
I1128 23:07:55.695164 173035 net.cpp:137] Memory required for data: 2626468000
I1128 23:07:55.695168 173035 layer_factory.hpp:77] Creating layer res5b_relu
I1128 23:07:55.695174 173035 net.cpp:84] Creating Layer res5b_relu
I1128 23:07:55.695178 173035 net.cpp:406] res5b_relu <- res5b
I1128 23:07:55.695183 173035 net.cpp:367] res5b_relu -> res5b (in-place)
I1128 23:07:55.695188 173035 net.cpp:122] Setting up res5b_relu
I1128 23:07:55.695190 173035 net.cpp:129] Top shape: 10 2048 8 8 (1310720)
I1128 23:07:55.695194 173035 net.cpp:137] Memory required for data: 2631710880
I1128 23:07:55.695196 173035 layer_factory.hpp:77] Creating layer res5b_res5b_relu_0_split
I1128 23:07:55.695201 173035 net.cpp:84] Creating Layer res5b_res5b_relu_0_split
I1128 23:07:55.695204 173035 net.cpp:406] res5b_res5b_relu_0_split <- res5b
I1128 23:07:55.695209 173035 net.cpp:380] res5b_res5b_relu_0_split -> res5b_res5b_relu_0_split_0
I1128 23:07:55.695215 173035 net.cpp:380] res5b_res5b_relu_0_split -> res5b_res5b_relu_0_split_1
I1128 23:07:55.695245 173035 net.cpp:122] Setting up res5b_res5b_relu_0_split
I1128 23:07:55.695250 173035 net.cpp:129] Top shape: 10 2048 8 8 (1310720)
I1128 23:07:55.695252 173035 net.cpp:129] Top shape: 10 2048 8 8 (1310720)
I1128 23:07:55.695255 173035 net.cpp:137] Memory required for data: 2642196640
I1128 23:07:55.695262 173035 layer_factory.hpp:77] Creating layer res5c_branch2a
I1128 23:07:55.695276 173035 net.cpp:84] Creating Layer res5c_branch2a
I1128 23:07:55.695279 173035 net.cpp:406] res5c_branch2a <- res5b_res5b_relu_0_split_0
I1128 23:07:55.695286 173035 net.cpp:380] res5c_branch2a -> res5c_branch2a
I1128 23:07:55.705461 173035 net.cpp:122] Setting up res5c_branch2a
I1128 23:07:55.705474 173035 net.cpp:129] Top shape: 10 512 8 8 (327680)
I1128 23:07:55.705477 173035 net.cpp:137] Memory required for data: 2643507360
I1128 23:07:55.705483 173035 layer_factory.hpp:77] Creating layer bn5c_branch2a
I1128 23:07:55.705493 173035 net.cpp:84] Creating Layer bn5c_branch2a
I1128 23:07:55.705497 173035 net.cpp:406] bn5c_branch2a <- res5c_branch2a
I1128 23:07:55.705502 173035 net.cpp:367] bn5c_branch2a -> res5c_branch2a (in-place)
I1128 23:07:55.705674 173035 net.cpp:122] Setting up bn5c_branch2a
I1128 23:07:55.705680 173035 net.cpp:129] Top shape: 10 512 8 8 (327680)
I1128 23:07:55.705683 173035 net.cpp:137] Memory required for data: 2644818080
I1128 23:07:55.705689 173035 layer_factory.hpp:77] Creating layer scale5c_branch2a
I1128 23:07:55.705694 173035 net.cpp:84] Creating Layer scale5c_branch2a
I1128 23:07:55.705698 173035 net.cpp:406] scale5c_branch2a <- res5c_branch2a
I1128 23:07:55.705703 173035 net.cpp:367] scale5c_branch2a -> res5c_branch2a (in-place)
I1128 23:07:55.705736 173035 layer_factory.hpp:77] Creating layer scale5c_branch2a
I1128 23:07:55.705839 173035 net.cpp:122] Setting up scale5c_branch2a
I1128 23:07:55.705845 173035 net.cpp:129] Top shape: 10 512 8 8 (327680)
I1128 23:07:55.705848 173035 net.cpp:137] Memory required for data: 2646128800
I1128 23:07:55.705853 173035 layer_factory.hpp:77] Creating layer res5c_branch2a_relu
I1128 23:07:55.705859 173035 net.cpp:84] Creating Layer res5c_branch2a_relu
I1128 23:07:55.705863 173035 net.cpp:406] res5c_branch2a_relu <- res5c_branch2a
I1128 23:07:55.705866 173035 net.cpp:367] res5c_branch2a_relu -> res5c_branch2a (in-place)
I1128 23:07:55.705871 173035 net.cpp:122] Setting up res5c_branch2a_relu
I1128 23:07:55.705875 173035 net.cpp:129] Top shape: 10 512 8 8 (327680)
I1128 23:07:55.705878 173035 net.cpp:137] Memory required for data: 2647439520
I1128 23:07:55.705881 173035 layer_factory.hpp:77] Creating layer res5c_branch2b
I1128 23:07:55.705888 173035 net.cpp:84] Creating Layer res5c_branch2b
I1128 23:07:55.705893 173035 net.cpp:406] res5c_branch2b <- res5c_branch2a
I1128 23:07:55.705899 173035 net.cpp:380] res5c_branch2b -> res5c_branch2b
I1128 23:07:55.728483 173035 net.cpp:122] Setting up res5c_branch2b
I1128 23:07:55.728497 173035 net.cpp:129] Top shape: 10 512 8 8 (327680)
I1128 23:07:55.728502 173035 net.cpp:137] Memory required for data: 2648750240
I1128 23:07:55.728505 173035 layer_factory.hpp:77] Creating layer bn5c_branch2b
I1128 23:07:55.728512 173035 net.cpp:84] Creating Layer bn5c_branch2b
I1128 23:07:55.728514 173035 net.cpp:406] bn5c_branch2b <- res5c_branch2b
I1128 23:07:55.728521 173035 net.cpp:367] bn5c_branch2b -> res5c_branch2b (in-place)
I1128 23:07:55.728693 173035 net.cpp:122] Setting up bn5c_branch2b
I1128 23:07:55.728698 173035 net.cpp:129] Top shape: 10 512 8 8 (327680)
I1128 23:07:55.728701 173035 net.cpp:137] Memory required for data: 2650060960
I1128 23:07:55.728708 173035 layer_factory.hpp:77] Creating layer scale5c_branch2b
I1128 23:07:55.728713 173035 net.cpp:84] Creating Layer scale5c_branch2b
I1128 23:07:55.728716 173035 net.cpp:406] scale5c_branch2b <- res5c_branch2b
I1128 23:07:55.728720 173035 net.cpp:367] scale5c_branch2b -> res5c_branch2b (in-place)
I1128 23:07:55.728755 173035 layer_factory.hpp:77] Creating layer scale5c_branch2b
I1128 23:07:55.728858 173035 net.cpp:122] Setting up scale5c_branch2b
I1128 23:07:55.728864 173035 net.cpp:129] Top shape: 10 512 8 8 (327680)
I1128 23:07:55.728868 173035 net.cpp:137] Memory required for data: 2651371680
I1128 23:07:55.728873 173035 layer_factory.hpp:77] Creating layer res5c_branch2b_relu
I1128 23:07:55.728878 173035 net.cpp:84] Creating Layer res5c_branch2b_relu
I1128 23:07:55.728884 173035 net.cpp:406] res5c_branch2b_relu <- res5c_branch2b
I1128 23:07:55.728896 173035 net.cpp:367] res5c_branch2b_relu -> res5c_branch2b (in-place)
I1128 23:07:55.728901 173035 net.cpp:122] Setting up res5c_branch2b_relu
I1128 23:07:55.728905 173035 net.cpp:129] Top shape: 10 512 8 8 (327680)
I1128 23:07:55.728909 173035 net.cpp:137] Memory required for data: 2652682400
I1128 23:07:55.728911 173035 layer_factory.hpp:77] Creating layer res5c_branch2c
I1128 23:07:55.728919 173035 net.cpp:84] Creating Layer res5c_branch2c
I1128 23:07:55.728920 173035 net.cpp:406] res5c_branch2c <- res5c_branch2b
I1128 23:07:55.728926 173035 net.cpp:380] res5c_branch2c -> res5c_branch2c
I1128 23:07:55.739167 173035 net.cpp:122] Setting up res5c_branch2c
I1128 23:07:55.739181 173035 net.cpp:129] Top shape: 10 2048 8 8 (1310720)
I1128 23:07:55.739183 173035 net.cpp:137] Memory required for data: 2657925280
I1128 23:07:55.739188 173035 layer_factory.hpp:77] Creating layer bn5c_branch2c
I1128 23:07:55.739193 173035 net.cpp:84] Creating Layer bn5c_branch2c
I1128 23:07:55.739197 173035 net.cpp:406] bn5c_branch2c <- res5c_branch2c
I1128 23:07:55.739202 173035 net.cpp:367] bn5c_branch2c -> res5c_branch2c (in-place)
I1128 23:07:55.739378 173035 net.cpp:122] Setting up bn5c_branch2c
I1128 23:07:55.739385 173035 net.cpp:129] Top shape: 10 2048 8 8 (1310720)
I1128 23:07:55.739389 173035 net.cpp:137] Memory required for data: 2663168160
I1128 23:07:55.739394 173035 layer_factory.hpp:77] Creating layer scale5c_branch2c
I1128 23:07:55.739401 173035 net.cpp:84] Creating Layer scale5c_branch2c
I1128 23:07:55.739405 173035 net.cpp:406] scale5c_branch2c <- res5c_branch2c
I1128 23:07:55.739409 173035 net.cpp:367] scale5c_branch2c -> res5c_branch2c (in-place)
I1128 23:07:55.739444 173035 layer_factory.hpp:77] Creating layer scale5c_branch2c
I1128 23:07:55.739547 173035 net.cpp:122] Setting up scale5c_branch2c
I1128 23:07:55.739552 173035 net.cpp:129] Top shape: 10 2048 8 8 (1310720)
I1128 23:07:55.739555 173035 net.cpp:137] Memory required for data: 2668411040
I1128 23:07:55.739560 173035 layer_factory.hpp:77] Creating layer res5c
I1128 23:07:55.739565 173035 net.cpp:84] Creating Layer res5c
I1128 23:07:55.739568 173035 net.cpp:406] res5c <- res5b_res5b_relu_0_split_1
I1128 23:07:55.739573 173035 net.cpp:406] res5c <- res5c_branch2c
I1128 23:07:55.739579 173035 net.cpp:380] res5c -> res5c
I1128 23:07:55.739600 173035 net.cpp:122] Setting up res5c
I1128 23:07:55.739606 173035 net.cpp:129] Top shape: 10 2048 8 8 (1310720)
I1128 23:07:55.739609 173035 net.cpp:137] Memory required for data: 2673653920
I1128 23:07:55.739612 173035 layer_factory.hpp:77] Creating layer res5c_relu
I1128 23:07:55.739616 173035 net.cpp:84] Creating Layer res5c_relu
I1128 23:07:55.739619 173035 net.cpp:406] res5c_relu <- res5c
I1128 23:07:55.739624 173035 net.cpp:367] res5c_relu -> res5c (in-place)
I1128 23:07:55.739629 173035 net.cpp:122] Setting up res5c_relu
I1128 23:07:55.739632 173035 net.cpp:129] Top shape: 10 2048 8 8 (1310720)
I1128 23:07:55.739634 173035 net.cpp:137] Memory required for data: 2678896800
I1128 23:07:55.739639 173035 layer_factory.hpp:77] Creating layer pool5
I1128 23:07:55.739646 173035 net.cpp:84] Creating Layer pool5
I1128 23:07:55.739650 173035 net.cpp:406] pool5 <- res5c
I1128 23:07:55.739655 173035 net.cpp:380] pool5 -> pool5
I1128 23:07:55.739676 173035 net.cpp:122] Setting up pool5
I1128 23:07:55.739681 173035 net.cpp:129] Top shape: 10 2048 2 2 (81920)
I1128 23:07:55.739684 173035 net.cpp:137] Memory required for data: 2679224480
I1128 23:07:55.739687 173035 layer_factory.hpp:77] Creating layer fcfine
I1128 23:07:55.739696 173035 net.cpp:84] Creating Layer fcfine
I1128 23:07:55.739701 173035 net.cpp:406] fcfine <- pool5
I1128 23:07:55.739706 173035 net.cpp:380] fcfine -> fcfine
I1128 23:07:55.746137 173035 net.cpp:122] Setting up fcfine
I1128 23:07:55.746150 173035 net.cpp:129] Top shape: 10 80 (800)
I1128 23:07:55.746152 173035 net.cpp:137] Memory required for data: 2679227680
I1128 23:07:55.746158 173035 layer_factory.hpp:77] Creating layer fcfine_fcfine_0_split
I1128 23:07:55.746173 173035 net.cpp:84] Creating Layer fcfine_fcfine_0_split
I1128 23:07:55.746178 173035 net.cpp:406] fcfine_fcfine_0_split <- fcfine
I1128 23:07:55.746186 173035 net.cpp:380] fcfine_fcfine_0_split -> fcfine_fcfine_0_split_0
I1128 23:07:55.746191 173035 net.cpp:380] fcfine_fcfine_0_split -> fcfine_fcfine_0_split_1
I1128 23:07:55.746196 173035 net.cpp:380] fcfine_fcfine_0_split -> fcfine_fcfine_0_split_2
I1128 23:07:55.746240 173035 net.cpp:122] Setting up fcfine_fcfine_0_split
I1128 23:07:55.746245 173035 net.cpp:129] Top shape: 10 80 (800)
I1128 23:07:55.746249 173035 net.cpp:129] Top shape: 10 80 (800)
I1128 23:07:55.746253 173035 net.cpp:129] Top shape: 10 80 (800)
I1128 23:07:55.746255 173035 net.cpp:137] Memory required for data: 2679237280
I1128 23:07:55.746258 173035 layer_factory.hpp:77] Creating layer loss
I1128 23:07:55.746263 173035 net.cpp:84] Creating Layer loss
I1128 23:07:55.746266 173035 net.cpp:406] loss <- fcfine_fcfine_0_split_0
I1128 23:07:55.746270 173035 net.cpp:406] loss <- label_data_1_split_0
I1128 23:07:55.746275 173035 net.cpp:380] loss -> loss
…
