…
I1202 19:58:28.564225 93725 net.cpp:294] The NetState phase (0) differed from the phase (1) specified by a rule in layer acc/top-3
I1202 19:58:28.564851 93725 net.cpp:51] Initializing net from parameters: 
name: "ResNet-50"
state {
  phase: TRAIN
  level: 0
  stage: ""
}
layer {
  name: "data"
  type: "Python"
  top: "data"
  top: "label"
  include {
    phase: TRAIN
  }
  python_param {
    module: "data_layer_res-zscore"
    layer: "PythonDataLayer"
    param_str: "{\"path\":\"/home/yuchaohui/ych/caffe_ych/data/chaai/new/img_train_lmdb/\",\"batch_size\":18,\"input_size\":256,\"target_size\":240,\"mode\":\"train\"}"
    share_in_parallel: true
  }
}
layer {
  name: "conv1"
  type: "Convolution"
  bottom: "data"
  top: "conv1"
  convolution_param {
    num_output: 64
    bias_term: true
    pad: 3
    kernel_size: 7
    stride: 2
    weight_filler {
      type: "msra"
    }
  }
}
layer {
  name: "bn_conv1"
  type: "BatchNorm"
  bottom: "conv1"
  top: "conv1"
  batch_norm_param {
    use_global_stats: false
  }
}
layer {
  name: "scale_conv1"
  type: "Scale"
  bottom: "conv1"
  top: "conv1"
  scale_param {
    bias_term: true
  }
}
layer {
  name: "conv1_relu"
  type: "ReLU"
  bottom: "conv1"
  top: "conv1"
}
layer {
  name: "pool1"
  type: "Pooling"
  bottom: "conv1"
  top: "pool1"
  pooling_param {
    pool: MAX
    kernel_size: 3
    stride: 2
  }
}
layer {
  name: "res2a_branch1"
  type: "Convolution"
  bottom: "pool1"
  top: "res2a_branch1"
  convolution_param {
    num_output: 256
    bias_term: false
    pad: 0
    kernel_size: 1
    stride: 1
    weight_filler {
      type: "msra"
    }
  }
}
layer {
  name: "bn2a_branch1"
  type: "BatchNorm"
  bottom: "res2a_branch1"
  top: "res2a_branch1"
  batch_norm_param {
    use_global_stats: false
  }
}
layer {
  name: "scale2a_branch1"
  type: "Scale"
  bottom: "res2a_branch1"
  top: "res2a_branch1"
  scale_param {
    bias_term: true
  }
}
layer {
  name: "res2a_branch2a"
  type: "Convolution"
  bottom: "pool1"
  top: "res2a_branch2a"
  convolution_param {
    num_output: 64
    bias_term: false
    pad: 0
    kernel_size: 1
    stride: 1
    weight_filler {
      type: "msra"
    }
  }
}
layer {
  name: "bn2a_branch2a"
  type: "BatchNorm"
  bottom: "res2a_branch2a"
  top: "res2a_branch2a"
  batch_norm_param {
    use_global_stats: false
  }
}
layer {
  name: "scale2a_branch2a"
  type: "Scale"
  bottom: "res2a_branch2a"
  top: "res2a_branch2a"
  scale_param {
    bias_term: true
  }
}
layer {
  name: "res2a_branch2a_relu"
  type: "ReLU"
  bottom: "res2a_branch2a"
  top: "res2a_branch2a"
}
layer {
  name: "res2a_branch2b"
  type: "Convolution"
  bottom: "res2a_branch2a"
  top: "res2a_branch2b"
  convolution_param {
    num_output: 64
    bias_term: false
    pad: 1
    kernel_size: 3
    stride: 1
    weight_filler {
      type: "msra"
    }
  }
}
layer {
  name: "bn2a_branch2b"
  type: "BatchNorm"
  bottom: "res2a_branch2b"
  top: "res2a_branch2b"
  batch_norm_param {
    use_global_stats: false
  }
}
layer {
  name: "scale2a_branch2b"
  type: "Scale"
  bottom: "res2a_branch2b"
  top: "res2a_branch2b"
  scale_param {
    bias_term: true
  }
}
layer {
  name: "res2a_branch2b_relu"
  type: "ReLU"
  bottom: "res2a_branch2b"
  top: "res2a_branch2b"
}
layer {
  name: "res2a_branch2c"
  type: "Convolution"
  bottom: "res2a_branch2b"
  top: "res2a_branch2c"
  convolution_param {
    num_output: 256
    bias_term: false
    pad: 0
    kernel_size: 1
    stride: 1
    weight_filler {
      type: "msra"
    }
  }
}
layer {
  name: "bn2a_branch2c"
  type: "BatchNorm"
  bottom: "res2a_branch2c"
  top: "res2a_branch2c"
  batch_norm_param {
    use_global_stats: false
  }
}
layer {
  name: "scale2a_branch2c"
  type: "Scale"
  bottom: "res2a_branch2c"
  top: "res2a_branch2c"
  scale_param {
    bias_term: true
  }
}
layer {
  name: "res2a"
  type: "Eltwise"
  bottom: "res2a_branch1"
  bottom: "res2a_branch2c"
  top: "res2a"
  eltwise_param {
    operation: SUM
  }
}
layer {
  name: "res2a_relu"
  type: "ReLU"
  bottom: "res2a"
  top: "res2a"
}
layer {
  name: "res2b_branch2a"
  type: "Convolution"
  bottom: "res2a"
  top: "res2b_branch2a"
  convolution_param {
    num_output: 64
    bias_term: false
    pad: 0
    kernel_size: 1
    stride: 1
    weight_filler {
      type: "msra"
    }
  }
}
layer {
  name: "bn2b_branch2a"
  type: "BatchNorm"
  bottom: "res2b_branch2a"
  top: "res2b_branch2a"
  batch_norm_param {
    use_global_stats: false
  }
}
layer {
  name: "scale2b_branch2a"
  type: "Scale"
  bottom: "res2b_branch2a"
  top: "res2b_branch2a"
  scale_param {
    bias_term: true
  }
}
layer {
  name: "res2b_branch2a_relu"
  type: "ReLU"
  bottom: "res2b_branch2a"
  top: "res2b_branch2a"
}
layer {
  name: "res2b_branch2b"
  type: "Convolution"
  bottom: "res2b_branch2a"
  top: "res2b_branch2b"
  convolution_param {
    num_output: 64
    bias_term: false
    pad: 1
    kernel_size: 3
    stride: 1
    weight_filler {
      type: "msra"
    }
  }
}
layer {
  name: "bn2b_branch2b"
  type: "BatchNorm"
  bottom: "res2b_branch2b"
  top: "res2b_branch2b"
  batch_norm_param {
    use_global_stats: false
  }
}
layer {
  name: "scale2b_branch2b"
  type: "Scale"
  bottom: "res2b_branch2b"
  top: "res2b_branch2b"
  scale_param {
    bias_term: true
  }
}
layer {
  name: "res2b_branch2b_relu"
  type: "ReLU"
  bottom: "res2b_branch2b"
  top: "res2b_branch2b"
}
layer {
  name: "res2b_branch2c"
  type: "Convolution"
  bottom: "res2b_branch2b"
  top: "res2b_branch2c"
  convolution_param {
    num_output: 256
    bias_term: false
    pad: 0
    kernel_size: 1
    stride: 1
    weight_filler {
      type: "msra"
    }
  }
}
layer {
  name: "bn2b_branch2c"
  type: "BatchNorm"
  bottom: "res2b_branch2c"
  top: "res2b_branch2c"
  batch_norm_param {
    use_global_stats: false
  }
}
layer {
  name: "scale2b_branch2c"
  type: "Scale"
  bottom: "res2b_branch2c"
  top: "res2b_branch2c"
  scale_param {
    bias_term: true
  }
}
layer {
  name: "res2b"
  type: "Eltwise"
  bottom: "res2a"
  bottom: "res2b_branch2c"
  top: "res2b"
  eltwise_param {
    operation: SUM
  }
}
layer {
  name: "res2b_relu"
  type: "ReLU"
  bottom: "res2b"
  top: "res2b"
}
layer {
  name: "res2c_branch2a"
  type: "Convolution"
  bottom: "res2b"
  top: "res2c_branch2a"
  convolution_param {
    num_output: 64
    bias_term: false
    pad: 0
    kernel_size: 1
    stride: 1
    weight_filler {
      type: "msra"
    }
  }
}
layer {
  name: "bn2c_branch2a"
  type: "BatchNorm"
  bottom: "res2c_branch2a"
  top: "res2c_branch2a"
  batch_norm_param {
    use_global_stats: false
  }
}
layer {
  name: "scale2c_branch2a"
  type: "Scale"
  bottom: "res2c_branch2a"
  top: "res2c_branch2a"
  scale_param {
    bias_term: true
  }
}
layer {
  name: "res2c_branch2a_relu"
  type: "ReLU"
  bottom: "res2c_branch2a"
  top: "res2c_branch2a"
}
layer {
  name: "res2c_branch2b"
  type: "Convolution"
  bottom: "res2c_branch2a"
  top: "res2c_branch2b"
  convolution_param {
    num_output: 64
    bias_term: false
    pad: 1
    kernel_size: 3
    stride: 1
    weight_filler {
      type: "msra"
    }
  }
}
layer {
  name: "bn2c_branch2b"
  type: "BatchNorm"
  bottom: "res2c_branch2b"
  top: "res2c_branch2b"
  batch_norm_param {
    use_global_stats: false
  }
}
layer {
  name: "scale2c_branch2b"
  type: "Scale"
  bottom: "res2c_branch2b"
  top: "res2c_branch2b"
  scale_param {
    bias_term: true
  }
}
layer {
  name: "res2c_branch2b_relu"
  type: "ReLU"
  bottom: "res2c_branch2b"
  top: "res2c_branch2b"
}
layer {
  name: "res2c_branch2c"
  type: "Convolution"
  bottom: "res2c_branch2b"
  top: "res2c_branch2c"
  convolution_param {
    num_output: 256
    bias_term: false
    pad: 0
    kernel_size: 1
    stride: 1
    weight_filler {
      type: "msra"
    }
  }
}
layer {
  name: "bn2c_branch2c"
  type: "BatchNorm"
  bottom: "res2c_branch2c"
  top: "res2c_branch2c"
  batch_norm_param {
    use_global_stats: false
  }
}
layer {
  name: "scale2c_branch2c"
  type: "Scale"
  bottom: "res2c_branch2c"
  top: "res2c_branch2c"
  scale_param {
    bias_term: true
  }
}
layer {
  name: "res2c"
  type: "Eltwise"
  bottom: "res2b"
  bottom: "res2c_branch2c"
  top: "res2c"
  eltwise_param {
    operation: SUM
  }
}
layer {
  name: "res2c_relu"
  type: "ReLU"
  bottom: "res2c"
  top: "res2c"
}
layer {
  name: "res3a_branch1"
  type: "Convolution"
  bottom: "res2c"
  top: "res3a_branch1"
  convolution_param {
    num_output: 512
    bias_term: false
    pad: 0
    kernel_size: 1
    stride: 2
    weight_filler {
      type: "msra"
    }
  }
}
layer {
  name: "bn3a_branch1"
  type: "BatchNorm"
  bottom: "res3a_branch1"
  top: "res3a_branch1"
  batch_norm_param {
    use_global_stats: false
  }
}
layer {
  name: "scale3a_branch1"
  type: "Scale"
  bottom: "res3a_branch1"
  top: "res3a_branch1"
  scale_param {
    bias_term: true
  }
}
layer {
  name: "res3a_branch2a"
  type: "Convolution"
  bottom: "res2c"
  top: "res3a_branch2a"
  convolution_param {
    num_output: 128
    bias_term: false
    pad: 0
    kernel_size: 1
    stride: 2
    weight_filler {
      type: "msra"
    }
  }
}
layer {
  name: "bn3a_branch2a"
  type: "BatchNorm"
  bottom: "res3a_branch2a"
  top: "res3a_branch2a"
  batch_norm_param {
    use_global_stats: false
  }
}
layer {
  name: "scale3a_branch2a"
  type: "Scale"
  bottom: "res3a_branch2a"
  top: "res3a_branch2a"
  scale_param {
    bias_term: true
  }
}
layer {
  name: "res3a_branch2a_relu"
  type: "ReLU"
  bottom: "res3a_branch2a"
  top: "res3a_branch2a"
}
layer {
  name: "res3a_branch2b"
  type: "Convolution"
  bottom: "res3a_branch2a"
  top: "res3a_branch2b"
  convolution_param {
    num_output: 128
    bias_term: false
    pad: 1
    kernel_size: 3
    stride: 1
    weight_filler {
      type: "msra"
    }
  }
}
layer {
  name: "bn3a_branch2b"
  type: "BatchNorm"
  bottom: "res3a_branch2b"
  top: "res3a_branch2b"
  batch_norm_param {
    use_global_stats: false
  }
}
layer {
  name: "scale3a_branch2b"
  type: "Scale"
  bottom: "res3a_branch2b"
  top: "res3a_branch2b"
  scale_param {
    bias_term: true
  }
}
layer {
  name: "res3a_branch2b_relu"
  type: "ReLU"
  bottom: "res3a_branch2b"
  top: "res3a_branch2b"
}
layer {
  name: "res3a_branch2c"
  type: "Convolution"
  bottom: "res3a_branch2b"
  top: "res3a_branch2c"
  convolution_param {
    num_output: 512
    bias_term: false
    pad: 0
    kernel_size: 1
    stride: 1
    weight_filler {
      type: "msra"
    }
  }
}
layer {
  name: "bn3a_branch2c"
  type: "BatchNorm"
  bottom: "res3a_branch2c"
  top: "res3a_branch2c"
  batch_norm_param {
    use_global_stats: false
  }
}
layer {
  name: "scale3a_branch2c"
  type: "Scale"
  bottom: "res3a_branch2c"
  top: "res3a_branch2c"
  scale_param {
    bias_term: true
  }
}
layer {
  name: "res3a"
  type: "Eltwise"
  bottom: "res3a_branch1"
  bottom: "res3a_branch2c"
  top: "res3a"
  eltwise_param {
    operation: SUM
  }
}
layer {
  name: "res3a_relu"
  type: "ReLU"
  bottom: "res3a"
  top: "res3a"
}
layer {
  name: "res3b_branch2a"
  type: "Convolution"
  bottom: "res3a"
  top: "res3b_branch2a"
  convolution_param {
    num_output: 128
    bias_term: false
    pad: 0
    kernel_size: 1
    stride: 1
    weight_filler {
      type: "msra"
    }
  }
}
layer {
  name: "bn3b_branch2a"
  type: "BatchNorm"
  bottom: "res3b_branch2a"
  top: "res3b_branch2a"
  batch_norm_param {
    use_global_stats: false
  }
}
layer {
  name: "scale3b_branch2a"
  type: "Scale"
  bottom: "res3b_branch2a"
  top: "res3b_branch2a"
  scale_param {
    bias_term: true
  }
}
layer {
  name: "res3b_branch2a_relu"
  type: "ReLU"
  bottom: "res3b_branch2a"
  top: "res3b_branch2a"
}
layer {
  name: "res3b_branch2b"
  type: "Convolution"
  bottom: "res3b_branch2a"
  top: "res3b_branch2b"
  convolution_param {
    num_output: 128
    bias_term: false
    pad: 1
    kernel_size: 3
    stride: 1
    weight_filler {
      type: "msra"
    }
  }
}
layer {
  name: "bn3b_branch2b"
  type: "BatchNorm"
  bottom: "res3b_branch2b"
  top: "res3b_branch2b"
  batch_norm_param {
    use_global_stats: false
  }
}
layer {
  name: "scale3b_branch2b"
  type: "Scale"
  bottom: "res3b_branch2b"
  top: "res3b_branch2b"
  scale_param {
    bias_term: true
  }
}
layer {
  name: "res3b_branch2b_relu"
  type: "ReLU"
  bottom: "res3b_branch2b"
  top: "res3b_branch2b"
}
layer {
  name: "res3b_branch2c"
  type: "Convolution"
  bottom: "res3b_branch2b"
  top: "res3b_branch2c"
  convolution_param {
    num_output: 512
    bias_term: false
    pad: 0
    kernel_size: 1
    stride: 1
    weight_filler {
      type: "msra"
    }
  }
}
layer {
  name: "bn3b_branch2c"
  type: "BatchNorm"
  bottom: "res3b_branch2c"
  top: "res3b_branch2c"
  batch_norm_param {
    use_global_stats: false
  }
}
layer {
  name: "scale3b_branch2c"
  type: "Scale"
  bottom: "res3b_branch2c"
  top: "res3b_branch2c"
  scale_param {
    bias_term: true
  }
}
layer {
  name: "res3b"
  type: "Eltwise"
  bottom: "res3a"
  bottom: "res3b_branch2c"
  top: "res3b"
  eltwise_param {
    operation: SUM
  }
}
layer {
  name: "res3b_relu"
  type: "ReLU"
  bottom: "res3b"
  top: "res3b"
}
layer {
  name: "res3c_branch2a"
  type: "Convolution"
  bottom: "res3b"
  top: "res3c_branch2a"
  convolution_param {
    num_output: 128
    bias_term: false
    pad: 0
    kernel_size: 1
    stride: 1
    weight_filler {
      type: "msra"
    }
  }
}
layer {
  name: "bn3c_branch2a"
  type: "BatchNorm"
  bottom: "res3c_branch2a"
  top: "res3c_branch2a"
  batch_norm_param {
    use_global_stats: false
  }
}
layer {
  name: "scale3c_branch2a"
  type: "Scale"
  bottom: "res3c_branch2a"
  top: "res3c_branch2a"
  scale_param {
    bias_term: true
  }
}
layer {
  name: "res3c_branch2a_relu"
  type: "ReLU"
  bottom: "res3c_branch2a"
  top: "res3c_branch2a"
}
layer {
  name: "res3c_branch2b"
  type: "Convolution"
  bottom: "res3c_branch2a"
  top: "res3c_branch2b"
  convolution_param {
    num_output: 128
    bias_term: false
    pad: 1
    kernel_size: 3
    stride: 1
    weight_filler {
      type: "msra"
    }
  }
}
layer {
  name: "bn3c_branch2b"
  type: "BatchNorm"
  bottom: "res3c_branch2b"
  top: "res3c_branch2b"
  batch_norm_param {
    use_global_stats: false
  }
}
layer {
  name: "scale3c_branch2b"
  type: "Scale"
  bottom: "res3c_branch2b"
  top: "res3c_branch2b"
  scale_param {
    bias_term: true
  }
}
layer {
  name: "res3c_branch2b_relu"
  type: "ReLU"
  bottom: "res3c_branch2b"
  top: "res3c_branch2b"
}
layer {
  name: "res3c_branch2c"
  type: "Convolution"
  bottom: "res3c_branch2b"
  top: "res3c_branch2c"
  convolution_param {
    num_output: 512
    bias_term: false
    pad: 0
    kernel_size: 1
    stride: 1
    weight_filler {
      type: "msra"
    }
  }
}
layer {
  name: "bn3c_branch2c"
  type: "BatchNorm"
  bottom: "res3c_branch2c"
  top: "res3c_branch2c"
  batch_norm_param {
    use_global_stats: false
  }
}
layer {
  name: "scale3c_branch2c"
  type: "Scale"
  bottom: "res3c_branch2c"
  top: "res3c_branch2c"
  scale_param {
    bias_term: true
  }
}
layer {
  name: "res3c"
  type: "Eltwise"
  bottom: "res3b"
  bottom: "res3c_branch2c"
  top: "res3c"
  eltwise_param {
    operation: SUM
  }
}
layer {
  name: "res3c_relu"
  type: "ReLU"
  bottom: "res3c"
  top: "res3c"
}
layer {
  name: "res3d_branch2a"
  type: "Convolution"
  bottom: "res3c"
  top: "res3d_branch2a"
  convolution_param {
    num_output: 128
    bias_term: false
    pad: 0
    kernel_size: 1
    stride: 1
    weight_filler {
      type: "msra"
    }
  }
}
layer {
  name: "bn3d_branch2a"
  type: "BatchNorm"
  bottom: "res3d_branch2a"
  top: "res3d_branch2a"
  batch_norm_param {
    use_global_stats: false
  }
}
layer {
  name: "scale3d_branch2a"
  type: "Scale"
  bottom: "res3d_branch2a"
  top: "res3d_branch2a"
  scale_param {
    bias_term: true
  }
}
layer {
  name: "res3d_branch2a_relu"
  type: "ReLU"
  bottom: "res3d_branch2a"
  top: "res3d_branch2a"
}
layer {
  name: "res3d_branch2b"
  type: "Convolution"
  bottom: "res3d_branch2a"
  top: "res3d_branch2b"
  convolution_param {
    num_output: 128
    bias_term: false
    pad: 1
    kernel_size: 3
    stride: 1
    weight_filler {
      type: "msra"
    }
  }
}
layer {
  name: "bn3d_branch2b"
  type: "BatchNorm"
  bottom: "res3d_branch2b"
  top: "res3d_branch2b"
  batch_norm_param {
    use_global_stats: false
  }
}
layer {
  name: "scale3d_branch2b"
  type: "Scale"
  bottom: "res3d_branch2b"
  top: "res3d_branch2b"
  scale_param {
    bias_term: true
  }
}
layer {
  name: "res3d_branch2b_relu"
  type: "ReLU"
  bottom: "res3d_branch2b"
  top: "res3d_branch2b"
}
layer {
  name: "res3d_branch2c"
  type: "Convolution"
  bottom: "res3d_branch2b"
  top: "res3d_branch2c"
  convolution_param {
    num_output: 512
    bias_term: false
    pad: 0
    kernel_size: 1
    stride: 1
    weight_filler {
      type: "msra"
    }
  }
}
layer {
  name: "bn3d_branch2c"
  type: "BatchNorm"
  bottom: "res3d_branch2c"
  top: "res3d_branch2c"
  batch_norm_param {
    use_global_stats: false
  }
}
layer {
  name: "scale3d_branch2c"
  type: "Scale"
  bottom: "res3d_branch2c"
  top: "res3d_branch2c"
  scale_param {
    bias_term: true
  }
}
layer {
  name: "res3d"
  type: "Eltwise"
  bottom: "res3c"
  bottom: "res3d_branch2c"
  top: "res3d"
  eltwise_param {
    operation: SUM
  }
}
layer {
  name: "res3d_relu"
  type: "ReLU"
  bottom: "res3d"
  top: "res3d"
}
layer {
  name: "res4a_branch1"
  type: "Convolution"
  bottom: "res3d"
  top: "res4a_branch1"
  convolution_param {
    num_output: 1024
    bias_term: false
    pad: 0
    kernel_size: 1
    stride: 2
    weight_filler {
      type: "msra"
    }
  }
}
layer {
  name: "bn4a_branch1"
  type: "BatchNorm"
  bottom: "res4a_branch1"
  top: "res4a_branch1"
  batch_norm_param {
    use_global_stats: false
  }
}
layer {
  name: "scale4a_branch1"
  type: "Scale"
  bottom: "res4a_branch1"
  top: "res4a_branch1"
  scale_param {
    bias_term: true
  }
}
layer {
  name: "res4a_branch2a"
  type: "Convolution"
  bottom: "res3d"
  top: "res4a_branch2a"
  convolution_param {
    num_output: 256
    bias_term: false
    pad: 0
    kernel_size: 1
    stride: 2
    weight_filler {
      type: "msra"
    }
  }
}
layer {
  name: "bn4a_branch2a"
  type: "BatchNorm"
  bottom: "res4a_branch2a"
  top: "res4a_branch2a"
  batch_norm_param {
    use_global_stats: false
  }
}
layer {
  name: "scale4a_branch2a"
  type: "Scale"
  bottom: "res4a_branch2a"
  top: "res4a_branch2a"
  scale_param {
    bias_term: true
  }
}
layer {
  name: "res4a_branch2a_relu"
  type: "ReLU"
  bottom: "res4a_branch2a"
  top: "res4a_branch2a"
}
layer {
  name: "res4a_branch2b"
  type: "Convolution"
  bottom: "res4a_branch2a"
  top: "res4a_branch2b"
  convolution_param {
    num_output: 256
    bias_term: false
    pad: 1
    kernel_size: 3
    stride: 1
    weight_filler {
      type: "msra"
    }
  }
}
layer {
  name: "bn4a_branch2b"
  type: "BatchNorm"
  bottom: "res4a_branch2b"
  top: "res4a_branch2b"
  batch_norm_param {
    use_global_stats: false
  }
}
layer {
  name: "scale4a_branch2b"
  type: "Scale"
  bottom: "res4a_branch2b"
  top: "res4a_branch2b"
  scale_param {
    bias_term: true
  }
}
layer {
  name: "res4a_branch2b_relu"
  type: "ReLU"
  bottom: "res4a_branch2b"
  top: "res4a_branch2b"
}
layer {
  name: "res4a_branch2c"
  type: "Convolution"
  bottom: "res4a_branch2b"
  top: "res4a_branch2c"
  convolution_param {
    num_output: 1024
    bias_term: false
    pad: 0
    kernel_size: 1
    stride: 1
    weight_filler {
      type: "msra"
    }
  }
}
layer {
  name: "bn4a_branch2c"
  type: "BatchNorm"
  bottom: "res4a_branch2c"
  top: "res4a_branch2c"
  batch_norm_param {
    use_global_stats: false
  }
}
layer {
  name: "scale4a_branch2c"
  type: "Scale"
  bottom: "res4a_branch2c"
  top: "res4a_branch2c"
  scale_param {
    bias_term: true
  }
}
layer {
  name: "res4a"
  type: "Eltwise"
  bottom: "res4a_branch1"
  bottom: "res4a_branch2c"
  top: "res4a"
  eltwise_param {
    operation: SUM
  }
}
layer {
  name: "res4a_relu"
  type: "ReLU"
  bottom: "res4a"
  top: "res4a"
}
layer {
  name: "res4b_branch2a"
  type: "Convolution"
  bottom: "res4a"
  top: "res4b_branch2a"
  convolution_param {
    num_output: 256
    bias_term: false
    pad: 0
    kernel_size: 1
    stride: 1
    weight_filler {
      type: "msra"
    }
  }
}
layer {
  name: "bn4b_branch2a"
  type: "BatchNorm"
  bottom: "res4b_branch2a"
  top: "res4b_branch2a"
  batch_norm_param {
    use_global_stats: false
  }
}
layer {
  name: "scale4b_branch2a"
  type: "Scale"
  bottom: "res4b_branch2a"
  top: "res4b_branch2a"
  scale_param {
    bias_term: true
  }
}
layer {
  name: "res4b_branch2a_relu"
  type: "ReLU"
  bottom: "res4b_branch2a"
  top: "res4b_branch2a"
}
layer {
  name: "res4b_branch2b"
  type: "Convolution"
  bottom: "res4b_branch2a"
  top: "res4b_branch2b"
  convolution_param {
    num_output: 256
    bias_term: false
    pad: 1
    kernel_size: 3
    stride: 1
    weight_filler {
      type: "msra"
    }
  }
}
layer {
  name: "bn4b_branch2b"
  type: "BatchNorm"
  bottom: "res4b_branch2b"
  top: "res4b_branch2b"
  batch_norm_param {
    use_global_stats: false
  }
}
layer {
  name: "scale4b_branch2b"
  type: "Scale"
  bottom: "res4b_branch2b"
  top: "res4b_branch2b"
  scale_param {
    bias_term: true
  }
}
layer {
  name: "res4b_branch2b_relu"
  type: "ReLU"
  bottom: "res4b_branch2b"
  top: "res4b_branch2b"
}
layer {
  name: "res4b_branch2c"
  type: "Convolution"
  bottom: "res4b_branch2b"
  top: "res4b_branch2c"
  convolution_param {
    num_output: 1024
    bias_term: false
    pad: 0
    kernel_size: 1
    stride: 1
    weight_filler {
      type: "msra"
    }
  }
}
layer {
  name: "bn4b_branch2c"
  type: "BatchNorm"
  bottom: "res4b_branch2c"
  top: "res4b_branch2c"
  batch_norm_param {
    use_global_stats: false
  }
}
layer {
  name: "scale4b_branch2c"
  type: "Scale"
  bottom: "res4b_branch2c"
  top: "res4b_branch2c"
  scale_param {
    bias_term: true
  }
}
layer {
  name: "res4b"
  type: "Eltwise"
  bottom: "res4a"
  bottom: "res4b_branch2c"
  top: "res4b"
  eltwise_param {
    operation: SUM
  }
}
layer {
  name: "res4b_relu"
  type: "ReLU"
  bottom: "res4b"
  top: "res4b"
}
layer {
  name: "res4c_branch2a"
  type: "Convolution"
  bottom: "res4b"
  top: "res4c_branch2a"
  convolution_param {
    num_output: 256
    bias_term: false
    pad: 0
    kernel_size: 1
    stride: 1
    weight_filler {
      type: "msra"
    }
  }
}
layer {
  name: "bn4c_branch2a"
  type: "BatchNorm"
  bottom: "res4c_branch2a"
  top: "res4c_branch2a"
  batch_norm_param {
    use_global_stats: false
  }
}
layer {
  name: "scale4c_branch2a"
  type: "Scale"
  bottom: "res4c_branch2a"
  top: "res4c_branch2a"
  scale_param {
    bias_term: true
  }
}
layer {
  name: "res4c_branch2a_relu"
  type: "ReLU"
  bottom: "res4c_branch2a"
  top: "res4c_branch2a"
}
layer {
  name: "res4c_branch2b"
  type: "Convolution"
  bottom: "res4c_branch2a"
  top: "res4c_branch2b"
  convolution_param {
    num_output: 256
    bias_term: false
    pad: 1
    kernel_size: 3
    stride: 1
    weight_filler {
      type: "msra"
    }
  }
}
layer {
  name: "bn4c_branch2b"
  type: "BatchNorm"
  bottom: "res4c_branch2b"
  top: "res4c_branch2b"
  batch_norm_param {
    use_global_stats: false
  }
}
layer {
  name: "scale4c_branch2b"
  type: "Scale"
  bottom: "res4c_branch2b"
  top: "res4c_branch2b"
  scale_param {
    bias_term: true
  }
}
layer {
  name: "res4c_branch2b_relu"
  type: "ReLU"
  bottom: "res4c_branch2b"
  top: "res4c_branch2b"
}
layer {
  name: "res4c_branch2c"
  type: "Convolution"
  bottom: "res4c_branch2b"
  top: "res4c_branch2c"
  convolution_param {
    num_output: 1024
    bias_term: false
    pad: 0
    kernel_size: 1
    stride: 1
    weight_filler {
      type: "msra"
    }
  }
}
layer {
  name: "bn4c_branch2c"
  type: "BatchNorm"
  bottom: "res4c_branch2c"
  top: "res4c_branch2c"
  batch_norm_param {
    use_global_stats: false
  }
}
layer {
  name: "scale4c_branch2c"
  type: "Scale"
  bottom: "res4c_branch2c"
  top: "res4c_branch2c"
  scale_param {
    bias_term: true
  }
}
layer {
  name: "res4c"
  type: "Eltwise"
  bottom: "res4b"
  bottom: "res4c_branch2c"
  top: "res4c"
  eltwise_param {
    operation: SUM
  }
}
layer {
  name: "res4c_relu"
  type: "ReLU"
  bottom: "res4c"
  top: "res4c"
}
layer {
  name: "res4d_branch2a"
  type: "Convolution"
  bottom: "res4c"
  top: "res4d_branch2a"
  convolution_param {
    num_output: 256
    bias_term: false
    pad: 0
    kernel_size: 1
    stride: 1
    weight_filler {
      type: "msra"
    }
  }
}
layer {
  name: "bn4d_branch2a"
  type: "BatchNorm"
  bottom: "res4d_branch2a"
  top: "res4d_branch2a"
  batch_norm_param {
    use_global_stats: false
  }
}
layer {
  name: "scale4d_branch2a"
  type: "Scale"
  bottom: "res4d_branch2a"
  top: "res4d_branch2a"
  scale_param {
    bias_term: true
  }
}
layer {
  name: "res4d_branch2a_relu"
  type: "ReLU"
  bottom: "res4d_branch2a"
  top: "res4d_branch2a"
}
layer {
  name: "res4d_branch2b"
  type: "Convolution"
  bottom: "res4d_branch2a"
  top: "res4d_branch2b"
  convolution_param {
    num_output: 256
    bias_term: false
    pad: 1
    kernel_size: 3
    stride: 1
    weight_filler {
      type: "msra"
    }
  }
}
layer {
  name: "bn4d_branch2b"
  type: "BatchNorm"
  bottom: "res4d_branch2b"
  top: "res4d_branch2b"
  batch_norm_param {
    use_global_stats: false
  }
}
layer {
  name: "scale4d_branch2b"
  type: "Scale"
  bottom: "res4d_branch2b"
  top: "res4d_branch2b"
  scale_param {
    bias_term: true
  }
}
layer {
  name: "res4d_branch2b_relu"
  type: "ReLU"
  bottom: "res4d_branch2b"
  top: "res4d_branch2b"
}
layer {
  name: "res4d_branch2c"
  type: "Convolution"
  bottom: "res4d_branch2b"
  top: "res4d_branch2c"
  convolution_param {
    num_output: 1024
    bias_term: false
    pad: 0
    kernel_size: 1
    stride: 1
    weight_filler {
      type: "msra"
    }
  }
}
layer {
  name: "bn4d_branch2c"
  type: "BatchNorm"
  bottom: "res4d_branch2c"
  top: "res4d_branch2c"
  batch_norm_param {
    use_global_stats: false
  }
}
layer {
  name: "scale4d_branch2c"
  type: "Scale"
  bottom: "res4d_branch2c"
  top: "res4d_branch2c"
  scale_param {
    bias_term: true
  }
}
layer {
  name: "res4d"
  type: "Eltwise"
  bottom: "res4c"
  bottom: "res4d_branch2c"
  top: "res4d"
  eltwise_param {
    operation: SUM
  }
}
layer {
  name: "res4d_relu"
  type: "ReLU"
  bottom: "res4d"
  top: "res4d"
}
layer {
  name: "res4e_branch2a"
  type: "Convolution"
  bottom: "res4d"
  top: "res4e_branch2a"
  convolution_param {
    num_output: 256
    bias_term: false
    pad: 0
    kernel_size: 1
    stride: 1
    weight_filler {
      type: "msra"
    }
  }
}
layer {
  name: "bn4e_branch2a"
  type: "BatchNorm"
  bottom: "res4e_branch2a"
  top: "res4e_branch2a"
  batch_norm_param {
    use_global_stats: false
  }
}
layer {
  name: "scale4e_branch2a"
  type: "Scale"
  bottom: "res4e_branch2a"
  top: "res4e_branch2a"
  scale_param {
    bias_term: true
  }
}
layer {
  name: "res4e_branch2a_relu"
  type: "ReLU"
  bottom: "res4e_branch2a"
  top: "res4e_branch2a"
}
layer {
  name: "res4e_branch2b"
  type: "Convolution"
  bottom: "res4e_branch2a"
  top: "res4e_branch2b"
  convolution_param {
    num_output: 256
    bias_term: false
    pad: 1
    kernel_size: 3
    stride: 1
    weight_filler {
      type: "msra"
    }
  }
}
layer {
  name: "bn4e_branch2b"
  type: "BatchNorm"
  bottom: "res4e_branch2b"
  top: "res4e_branch2b"
  batch_norm_param {
    use_global_stats: false
  }
}
layer {
  name: "scale4e_branch2b"
  type: "Scale"
  bottom: "res4e_branch2b"
  top: "res4e_branch2b"
  scale_param {
    bias_term: true
  }
}
layer {
  name: "res4e_branch2b_relu"
  type: "ReLU"
  bottom: "res4e_branch2b"
  top: "res4e_branch2b"
}
layer {
  name: "res4e_branch2c"
  type: "Convolution"
  bottom: "res4e_branch2b"
  top: "res4e_branch2c"
  convolution_param {
    num_output: 1024
    bias_term: false
    pad: 0
    kernel_size: 1
    stride: 1
    weight_filler {
      type: "msra"
    }
  }
}
layer {
  name: "bn4e_branch2c"
  type: "BatchNorm"
  bottom: "res4e_branch2c"
  top: "res4e_branch2c"
  batch_norm_param {
    use_global_stats: false
  }
}
layer {
  name: "scale4e_branch2c"
  type: "Scale"
  bottom: "res4e_branch2c"
  top: "res4e_branch2c"
  scale_param {
    bias_term: true
  }
}
layer {
  name: "res4e"
  type: "Eltwise"
  bottom: "res4d"
  bottom: "res4e_branch2c"
  top: "res4e"
  eltwise_param {
    operation: SUM
  }
}
layer {
  name: "res4e_relu"
  type: "ReLU"
  bottom: "res4e"
  top: "res4e"
}
layer {
  name: "res4f_branch2a"
  type: "Convolution"
  bottom: "res4e"
  top: "res4f_branch2a"
  convolution_param {
    num_output: 256
    bias_term: false
    pad: 0
    kernel_size: 1
    stride: 1
    weight_filler {
      type: "msra"
    }
  }
}
layer {
  name: "bn4f_branch2a"
  type: "BatchNorm"
  bottom: "res4f_branch2a"
  top: "res4f_branch2a"
  batch_norm_param {
    use_global_stats: false
  }
}
layer {
  name: "scale4f_branch2a"
  type: "Scale"
  bottom: "res4f_branch2a"
  top: "res4f_branch2a"
  scale_param {
    bias_term: true
  }
}
layer {
  name: "res4f_branch2a_relu"
  type: "ReLU"
  bottom: "res4f_branch2a"
  top: "res4f_branch2a"
}
layer {
  name: "res4f_branch2b"
  type: "Convolution"
  bottom: "res4f_branch2a"
  top: "res4f_branch2b"
  convolution_param {
    num_output: 256
    bias_term: false
    pad: 1
    kernel_size: 3
    stride: 1
    weight_filler {
      type: "msra"
    }
  }
}
layer {
  name: "bn4f_branch2b"
  type: "BatchNorm"
  bottom: "res4f_branch2b"
  top: "res4f_branch2b"
  batch_norm_param {
    use_global_stats: false
  }
}
layer {
  name: "scale4f_branch2b"
  type: "Scale"
  bottom: "res4f_branch2b"
  top: "res4f_branch2b"
  scale_param {
    bias_term: true
  }
}
layer {
  name: "res4f_branch2b_relu"
  type: "ReLU"
  bottom: "res4f_branch2b"
  top: "res4f_branch2b"
}
layer {
  name: "res4f_branch2c"
  type: "Convolution"
  bottom: "res4f_branch2b"
  top: "res4f_branch2c"
  convolution_param {
    num_output: 1024
    bias_term: false
    pad: 0
    kernel_size: 1
    stride: 1
    weight_filler {
      type: "ms
I1202 19:58:28.565451 93725 layer_factory.hpp:77] Creating layer data
I1202 19:58:29.154273 93725 net.cpp:84] Creating Layer data
I1202 19:58:29.154316 93725 net.cpp:380] data -> data
I1202 19:58:29.154340 93725 net.cpp:380] data -> label
I1202 19:58:29.983999 93725 net.cpp:122] Setting up data
I1202 19:58:29.984047 93725 net.cpp:129] Top shape: 18 3 240 240 (3110400)
I1202 19:58:29.984055 93725 net.cpp:129] Top shape: 18 1 (18)
I1202 19:58:29.984058 93725 net.cpp:137] Memory required for data: 12441672
I1202 19:58:29.984071 93725 layer_factory.hpp:77] Creating layer conv1
I1202 19:58:29.984102 93725 net.cpp:84] Creating Layer conv1
I1202 19:58:29.984109 93725 net.cpp:406] conv1 <- data
I1202 19:58:29.984124 93725 net.cpp:380] conv1 -> conv1
I1202 19:58:29.985255 93725 net.cpp:122] Setting up conv1
I1202 19:58:29.985268 93725 net.cpp:129] Top shape: 18 64 120 120 (16588800)
I1202 19:58:29.985272 93725 net.cpp:137] Memory required for data: 78796872
I1202 19:58:29.985292 93725 layer_factory.hpp:77] Creating layer bn_conv1
I1202 19:58:29.985301 93725 net.cpp:84] Creating Layer bn_conv1
I1202 19:58:29.985306 93725 net.cpp:406] bn_conv1 <- conv1
I1202 19:58:29.985312 93725 net.cpp:367] bn_conv1 -> conv1 (in-place)
I1202 19:58:29.985457 93725 net.cpp:122] Setting up bn_conv1
I1202 19:58:29.985465 93725 net.cpp:129] Top shape: 18 64 120 120 (16588800)
I1202 19:58:29.985467 93725 net.cpp:137] Memory required for data: 145152072
I1202 19:58:29.985476 93725 layer_factory.hpp:77] Creating layer scale_conv1
I1202 19:58:29.985494 93725 net.cpp:84] Creating Layer scale_conv1
I1202 19:58:29.985498 93725 net.cpp:406] scale_conv1 <- conv1
I1202 19:58:29.985517 93725 net.cpp:367] scale_conv1 -> conv1 (in-place)
I1202 19:58:29.985553 93725 layer_factory.hpp:77] Creating layer scale_conv1
I1202 19:58:29.985663 93725 net.cpp:122] Setting up scale_conv1
I1202 19:58:29.985671 93725 net.cpp:129] Top shape: 18 64 120 120 (16588800)
I1202 19:58:29.985673 93725 net.cpp:137] Memory required for data: 211507272
I1202 19:58:29.985680 93725 layer_factory.hpp:77] Creating layer conv1_relu
I1202 19:58:29.985688 93725 net.cpp:84] Creating Layer conv1_relu
I1202 19:58:29.985692 93725 net.cpp:406] conv1_relu <- conv1
I1202 19:58:29.985697 93725 net.cpp:367] conv1_relu -> conv1 (in-place)
I1202 19:58:29.985703 93725 net.cpp:122] Setting up conv1_relu
I1202 19:58:29.985707 93725 net.cpp:129] Top shape: 18 64 120 120 (16588800)
I1202 19:58:29.985710 93725 net.cpp:137] Memory required for data: 277862472
I1202 19:58:29.985713 93725 layer_factory.hpp:77] Creating layer pool1
I1202 19:58:29.985720 93725 net.cpp:84] Creating Layer pool1
I1202 19:58:29.985723 93725 net.cpp:406] pool1 <- conv1
I1202 19:58:29.985728 93725 net.cpp:380] pool1 -> pool1
I1202 19:58:29.985765 93725 net.cpp:122] Setting up pool1
I1202 19:58:29.985772 93725 net.cpp:129] Top shape: 18 64 60 60 (4147200)
I1202 19:58:29.985775 93725 net.cpp:137] Memory required for data: 294451272
I1202 19:58:29.985779 93725 layer_factory.hpp:77] Creating layer pool1_pool1_0_split
I1202 19:58:29.985783 93725 net.cpp:84] Creating Layer pool1_pool1_0_split
I1202 19:58:29.985787 93725 net.cpp:406] pool1_pool1_0_split <- pool1
I1202 19:58:29.985792 93725 net.cpp:380] pool1_pool1_0_split -> pool1_pool1_0_split_0
I1202 19:58:29.985800 93725 net.cpp:380] pool1_pool1_0_split -> pool1_pool1_0_split_1
I1202 19:58:29.985823 93725 net.cpp:122] Setting up pool1_pool1_0_split
I1202 19:58:29.985829 93725 net.cpp:129] Top shape: 18 64 60 60 (4147200)
I1202 19:58:29.985833 93725 net.cpp:129] Top shape: 18 64 60 60 (4147200)
I1202 19:58:29.985836 93725 net.cpp:137] Memory required for data: 327628872
I1202 19:58:29.985839 93725 layer_factory.hpp:77] Creating layer res2a_branch1
I1202 19:58:29.985846 93725 net.cpp:84] Creating Layer res2a_branch1
I1202 19:58:29.985849 93725 net.cpp:406] res2a_branch1 <- pool1_pool1_0_split_0
I1202 19:58:29.985854 93725 net.cpp:380] res2a_branch1 -> res2a_branch1
I1202 19:58:29.986109 93725 net.cpp:122] Setting up res2a_branch1
I1202 19:58:29.986115 93725 net.cpp:129] Top shape: 18 256 60 60 (16588800)
I1202 19:58:29.986119 93725 net.cpp:137] Memory required for data: 393984072
I1202 19:58:29.986124 93725 layer_factory.hpp:77] Creating layer bn2a_branch1
I1202 19:58:29.986131 93725 net.cpp:84] Creating Layer bn2a_branch1
I1202 19:58:29.986135 93725 net.cpp:406] bn2a_branch1 <- res2a_branch1
I1202 19:58:29.986140 93725 net.cpp:367] bn2a_branch1 -> res2a_branch1 (in-place)
I1202 19:58:29.986786 93725 net.cpp:122] Setting up bn2a_branch1
I1202 19:58:29.986798 93725 net.cpp:129] Top shape: 18 256 60 60 (16588800)
I1202 19:58:29.986800 93725 net.cpp:137] Memory required for data: 460339272
I1202 19:58:29.986810 93725 layer_factory.hpp:77] Creating layer scale2a_branch1
I1202 19:58:29.986816 93725 net.cpp:84] Creating Layer scale2a_branch1
I1202 19:58:29.986819 93725 net.cpp:406] scale2a_branch1 <- res2a_branch1
I1202 19:58:29.986824 93725 net.cpp:367] scale2a_branch1 -> res2a_branch1 (in-place)
I1202 19:58:29.986855 93725 layer_factory.hpp:77] Creating layer scale2a_branch1
I1202 19:58:29.986938 93725 net.cpp:122] Setting up scale2a_branch1
I1202 19:58:29.986945 93725 net.cpp:129] Top shape: 18 256 60 60 (16588800)
I1202 19:58:29.986948 93725 net.cpp:137] Memory required for data: 526694472
I1202 19:58:29.986953 93725 layer_factory.hpp:77] Creating layer res2a_branch2a
I1202 19:58:29.986961 93725 net.cpp:84] Creating Layer res2a_branch2a
I1202 19:58:29.986964 93725 net.cpp:406] res2a_branch2a <- pool1_pool1_0_split_1
I1202 19:58:29.986974 93725 net.cpp:380] res2a_branch2a -> res2a_branch2a
I1202 19:58:29.987133 93725 net.cpp:122] Setting up res2a_branch2a
I1202 19:58:29.987139 93725 net.cpp:129] Top shape: 18 64 60 60 (4147200)
I1202 19:58:29.987148 93725 net.cpp:137] Memory required for data: 543283272
I1202 19:58:29.987152 93725 layer_factory.hpp:77] Creating layer bn2a_branch2a
I1202 19:58:29.987157 93725 net.cpp:84] Creating Layer bn2a_branch2a
I1202 19:58:29.987160 93725 net.cpp:406] bn2a_branch2a <- res2a_branch2a
I1202 19:58:29.987164 93725 net.cpp:367] bn2a_branch2a -> res2a_branch2a (in-place)
I1202 19:58:29.987288 93725 net.cpp:122] Setting up bn2a_branch2a
I1202 19:58:29.987294 93725 net.cpp:129] Top shape: 18 64 60 60 (4147200)
I1202 19:58:29.987298 93725 net.cpp:137] Memory required for data: 559872072
I1202 19:58:29.987306 93725 layer_factory.hpp:77] Creating layer scale2a_branch2a
I1202 19:58:29.987313 93725 net.cpp:84] Creating Layer scale2a_branch2a
I1202 19:58:29.987315 93725 net.cpp:406] scale2a_branch2a <- res2a_branch2a
I1202 19:58:29.987321 93725 net.cpp:367] scale2a_branch2a -> res2a_branch2a (in-place)
I1202 19:58:29.987367 93725 layer_factory.hpp:77] Creating layer scale2a_branch2a
I1202 19:58:29.987455 93725 net.cpp:122] Setting up scale2a_branch2a
I1202 19:58:29.987462 93725 net.cpp:129] Top shape: 18 64 60 60 (4147200)
I1202 19:58:29.987464 93725 net.cpp:137] Memory required for data: 576460872
I1202 19:58:29.987469 93725 layer_factory.hpp:77] Creating layer res2a_branch2a_relu
I1202 19:58:29.987475 93725 net.cpp:84] Creating Layer res2a_branch2a_relu
I1202 19:58:29.987478 93725 net.cpp:406] res2a_branch2a_relu <- res2a_branch2a
I1202 19:58:29.987483 93725 net.cpp:367] res2a_branch2a_relu -> res2a_branch2a (in-place)
I1202 19:58:29.987488 93725 net.cpp:122] Setting up res2a_branch2a_relu
I1202 19:58:29.987493 93725 net.cpp:129] Top shape: 18 64 60 60 (4147200)
I1202 19:58:29.987495 93725 net.cpp:137] Memory required for data: 593049672
I1202 19:58:29.987498 93725 layer_factory.hpp:77] Creating layer res2a_branch2b
I1202 19:58:29.987505 93725 net.cpp:84] Creating Layer res2a_branch2b
I1202 19:58:29.987509 93725 net.cpp:406] res2a_branch2b <- res2a_branch2a
I1202 19:58:29.987515 93725 net.cpp:380] res2a_branch2b -> res2a_branch2b
I1202 19:58:29.988454 93725 net.cpp:122] Setting up res2a_branch2b
I1202 19:58:29.988466 93725 net.cpp:129] Top shape: 18 64 60 60 (4147200)
I1202 19:58:29.988469 93725 net.cpp:137] Memory required for data: 609638472
I1202 19:58:29.988473 93725 layer_factory.hpp:77] Creating layer bn2a_branch2b
I1202 19:58:29.988479 93725 net.cpp:84] Creating Layer bn2a_branch2b
I1202 19:58:29.988482 93725 net.cpp:406] bn2a_branch2b <- res2a_branch2b
I1202 19:58:29.988487 93725 net.cpp:367] bn2a_branch2b -> res2a_branch2b (in-place)
I1202 19:58:29.988626 93725 net.cpp:122] Setting up bn2a_branch2b
I1202 19:58:29.988632 93725 net.cpp:129] Top shape: 18 64 60 60 (4147200)
I1202 19:58:29.988636 93725 net.cpp:137] Memory required for data: 626227272
I1202 19:58:29.988643 93725 layer_factory.hpp:77] Creating layer scale2a_branch2b
I1202 19:58:29.988651 93725 net.cpp:84] Creating Layer scale2a_branch2b
I1202 19:58:29.988653 93725 net.cpp:406] scale2a_branch2b <- res2a_branch2b
I1202 19:58:29.988657 93725 net.cpp:367] scale2a_branch2b -> res2a_branch2b (in-place)
I1202 19:58:29.988690 93725 layer_factory.hpp:77] Creating layer scale2a_branch2b
I1202 19:58:29.988776 93725 net.cpp:122] Setting up scale2a_branch2b
I1202 19:58:29.988783 93725 net.cpp:129] Top shape: 18 64 60 60 (4147200)
I1202 19:58:29.988786 93725 net.cpp:137] Memory required for data: 642816072
I1202 19:58:29.988791 93725 layer_factory.hpp:77] Creating layer res2a_branch2b_relu
I1202 19:58:29.988796 93725 net.cpp:84] Creating Layer res2a_branch2b_relu
I1202 19:58:29.988800 93725 net.cpp:406] res2a_branch2b_relu <- res2a_branch2b
I1202 19:58:29.988802 93725 net.cpp:367] res2a_branch2b_relu -> res2a_branch2b (in-place)
I1202 19:58:29.988807 93725 net.cpp:122] Setting up res2a_branch2b_relu
I1202 19:58:29.988811 93725 net.cpp:129] Top shape: 18 64 60 60 (4147200)
I1202 19:58:29.988814 93725 net.cpp:137] Memory required for data: 659404872
I1202 19:58:29.988821 93725 layer_factory.hpp:77] Creating layer res2a_branch2c
I1202 19:58:29.988834 93725 net.cpp:84] Creating Layer res2a_branch2c
I1202 19:58:29.988838 93725 net.cpp:406] res2a_branch2c <- res2a_branch2b
I1202 19:58:29.988844 93725 net.cpp:380] res2a_branch2c -> res2a_branch2c
I1202 19:58:29.989101 93725 net.cpp:122] Setting up res2a_branch2c
I1202 19:58:29.989109 93725 net.cpp:129] Top shape: 18 256 60 60 (16588800)
I1202 19:58:29.989111 93725 net.cpp:137] Memory required for data: 725760072
I1202 19:58:29.989114 93725 layer_factory.hpp:77] Creating layer bn2a_branch2c
I1202 19:58:29.989120 93725 net.cpp:84] Creating Layer bn2a_branch2c
I1202 19:58:29.989123 93725 net.cpp:406] bn2a_branch2c <- res2a_branch2c
I1202 19:58:29.989127 93725 net.cpp:367] bn2a_branch2c -> res2a_branch2c (in-place)
I1202 19:58:29.989255 93725 net.cpp:122] Setting up bn2a_branch2c
I1202 19:58:29.989261 93725 net.cpp:129] Top shape: 18 256 60 60 (16588800)
I1202 19:58:29.989265 93725 net.cpp:137] Memory required for data: 792115272
I1202 19:58:29.989271 93725 layer_factory.hpp:77] Creating layer scale2a_branch2c
I1202 19:58:29.989279 93725 net.cpp:84] Creating Layer scale2a_branch2c
I1202 19:58:29.989281 93725 net.cpp:406] scale2a_branch2c <- res2a_branch2c
I1202 19:58:29.989285 93725 net.cpp:367] scale2a_branch2c -> res2a_branch2c (in-place)
I1202 19:58:29.989312 93725 layer_factory.hpp:77] Creating layer scale2a_branch2c
I1202 19:58:29.989392 93725 net.cpp:122] Setting up scale2a_branch2c
I1202 19:58:29.989397 93725 net.cpp:129] Top shape: 18 256 60 60 (16588800)
I1202 19:58:29.989400 93725 net.cpp:137] Memory required for data: 858470472
I1202 19:58:29.989404 93725 layer_factory.hpp:77] Creating layer res2a
I1202 19:58:29.989410 93725 net.cpp:84] Creating Layer res2a
I1202 19:58:29.989413 93725 net.cpp:406] res2a <- res2a_branch1
I1202 19:58:29.989418 93725 net.cpp:406] res2a <- res2a_branch2c
I1202 19:58:29.989423 93725 net.cpp:380] res2a -> res2a
I1202 19:58:29.989445 93725 net.cpp:122] Setting up res2a
I1202 19:58:29.989451 93725 net.cpp:129] Top shape: 18 256 60 60 (16588800)
I1202 19:58:29.989454 93725 net.cpp:137] Memory required for data: 924825672
I1202 19:58:29.989457 93725 layer_factory.hpp:77] Creating layer res2a_relu
I1202 19:58:29.989462 93725 net.cpp:84] Creating Layer res2a_relu
I1202 19:58:29.989464 93725 net.cpp:406] res2a_relu <- res2a
I1202 19:58:29.989470 93725 net.cpp:367] res2a_relu -> res2a (in-place)
I1202 19:58:29.989475 93725 net.cpp:122] Setting up res2a_relu
I1202 19:58:29.989480 93725 net.cpp:129] Top shape: 18 256 60 60 (16588800)
I1202 19:58:29.989481 93725 net.cpp:137] Memory required for data: 991180872
I1202 19:58:29.989485 93725 layer_factory.hpp:77] Creating layer res2a_res2a_relu_0_split
I1202 19:58:29.989491 93725 net.cpp:84] Creating Layer res2a_res2a_relu_0_split
I1202 19:58:29.989495 93725 net.cpp:406] res2a_res2a_relu_0_split <- res2a
I1202 19:58:29.989498 93725 net.cpp:380] res2a_res2a_relu_0_split -> res2a_res2a_relu_0_split_0
I1202 19:58:29.989504 93725 net.cpp:380] res2a_res2a_relu_0_split -> res2a_res2a_relu_0_split_1
I1202 19:58:29.989528 93725 net.cpp:122] Setting up res2a_res2a_relu_0_split
I1202 19:58:29.989533 93725 net.cpp:129] Top shape: 18 256 60 60 (16588800)
I1202 19:58:29.989537 93725 net.cpp:129] Top shape: 18 256 60 60 (16588800)
I1202 19:58:29.989540 93725 net.cpp:137] Memory required for data: 1123891272
I1202 19:58:29.989545 93725 layer_factory.hpp:77] Creating layer res2b_branch2a
I1202 19:58:29.989552 93725 net.cpp:84] Creating Layer res2b_branch2a
I1202 19:58:29.989554 93725 net.cpp:406] res2b_branch2a <- res2a_res2a_relu_0_split_0
I1202 19:58:29.989560 93725 net.cpp:380] res2b_branch2a -> res2b_branch2a
I1202 19:58:29.989814 93725 net.cpp:122] Setting up res2b_branch2a
I1202 19:58:29.989820 93725 net.cpp:129] Top shape: 18 64 60 60 (4147200)
I1202 19:58:29.989823 93725 net.cpp:137] Memory required for data: 1140480072
I1202 19:58:29.989828 93725 layer_factory.hpp:77] Creating layer bn2b_branch2a
I1202 19:58:29.989835 93725 net.cpp:84] Creating Layer bn2b_branch2a
I1202 19:58:29.989841 93725 net.cpp:406] bn2b_branch2a <- res2b_branch2a
I1202 19:58:29.989851 93725 net.cpp:367] bn2b_branch2a -> res2b_branch2a (in-place)
I1202 19:58:29.989986 93725 net.cpp:122] Setting up bn2b_branch2a
I1202 19:58:29.989992 93725 net.cpp:129] Top shape: 18 64 60 60 (4147200)
I1202 19:58:29.989995 93725 net.cpp:137] Memory required for data: 1157068872
I1202 19:58:29.990006 93725 layer_factory.hpp:77] Creating layer scale2b_branch2a
I1202 19:58:29.990011 93725 net.cpp:84] Creating Layer scale2b_branch2a
I1202 19:58:29.990015 93725 net.cpp:406] scale2b_branch2a <- res2b_branch2a
I1202 19:58:29.990020 93725 net.cpp:367] scale2b_branch2a -> res2b_branch2a (in-place)
I1202 19:58:29.990051 93725 layer_factory.hpp:77] Creating layer scale2b_branch2a
I1202 19:58:29.990134 93725 net.cpp:122] Setting up scale2b_branch2a
I1202 19:58:29.990144 93725 net.cpp:129] Top shape: 18 64 60 60 (4147200)
I1202 19:58:29.990146 93725 net.cpp:137] Memory required for data: 1173657672
I1202 19:58:29.990151 93725 layer_factory.hpp:77] Creating layer res2b_branch2a_relu
I1202 19:58:29.990157 93725 net.cpp:84] Creating Layer res2b_branch2a_relu
I1202 19:58:29.990160 93725 net.cpp:406] res2b_branch2a_relu <- res2b_branch2a
I1202 19:58:29.990164 93725 net.cpp:367] res2b_branch2a_relu -> res2b_branch2a (in-place)
I1202 19:58:29.990169 93725 net.cpp:122] Setting up res2b_branch2a_relu
I1202 19:58:29.990173 93725 net.cpp:129] Top shape: 18 64 60 60 (4147200)
I1202 19:58:29.990175 93725 net.cpp:137] Memory required for data: 1190246472
I1202 19:58:29.990180 93725 layer_factory.hpp:77] Creating layer res2b_branch2b
I1202 19:58:29.990186 93725 net.cpp:84] Creating Layer res2b_branch2b
I1202 19:58:29.990190 93725 net.cpp:406] res2b_branch2b <- res2b_branch2a
I1202 19:58:29.990195 93725 net.cpp:380] res2b_branch2b -> res2b_branch2b
I1202 19:58:29.990612 93725 net.cpp:122] Setting up res2b_branch2b
I1202 19:58:29.990619 93725 net.cpp:129] Top shape: 18 64 60 60 (4147200)
I1202 19:58:29.990622 93725 net.cpp:137] Memory required for data: 1206835272
I1202 19:58:29.990627 93725 layer_factory.hpp:77] Creating layer bn2b_branch2b
I1202 19:58:29.990630 93725 net.cpp:84] Creating Layer bn2b_branch2b
I1202 19:58:29.990633 93725 net.cpp:406] bn2b_branch2b <- res2b_branch2b
I1202 19:58:29.990638 93725 net.cpp:367] bn2b_branch2b -> res2b_branch2b (in-place)
I1202 19:58:29.990773 93725 net.cpp:122] Setting up bn2b_branch2b
I1202 19:58:29.990778 93725 net.cpp:129] Top shape: 18 64 60 60 (4147200)
I1202 19:58:29.990782 93725 net.cpp:137] Memory required for data: 1223424072
I1202 19:58:29.990787 93725 layer_factory.hpp:77] Creating layer scale2b_branch2b
I1202 19:58:29.990792 93725 net.cpp:84] Creating Layer scale2b_branch2b
I1202 19:58:29.990795 93725 net.cpp:406] scale2b_branch2b <- res2b_branch2b
I1202 19:58:29.990799 93725 net.cpp:367] scale2b_branch2b -> res2b_branch2b (in-place)
I1202 19:58:29.990828 93725 layer_factory.hpp:77] Creating layer scale2b_branch2b
I1202 19:58:29.990913 93725 net.cpp:122] Setting up scale2b_branch2b
I1202 19:58:29.990919 93725 net.cpp:129] Top shape: 18 64 60 60 (4147200)
I1202 19:58:29.990921 93725 net.cpp:137] Memory required for data: 1240012872
I1202 19:58:29.990926 93725 layer_factory.hpp:77] Creating layer res2b_branch2b_relu
I1202 19:58:29.990933 93725 net.cpp:84] Creating Layer res2b_branch2b_relu
I1202 19:58:29.990936 93725 net.cpp:406] res2b_branch2b_relu <- res2b_branch2b
I1202 19:58:29.990941 93725 net.cpp:367] res2b_branch2b_relu -> res2b_branch2b (in-place)
I1202 19:58:29.990945 93725 net.cpp:122] Setting up res2b_branch2b_relu
I1202 19:58:29.990949 93725 net.cpp:129] Top shape: 18 64 60 60 (4147200)
I1202 19:58:29.990952 93725 net.cpp:137] Memory required for data: 1256601672
I1202 19:58:29.990955 93725 layer_factory.hpp:77] Creating layer res2b_branch2c
I1202 19:58:29.990969 93725 net.cpp:84] Creating Layer res2b_branch2c
I1202 19:58:29.990973 93725 net.cpp:406] res2b_branch2c <- res2b_branch2b
I1202 19:58:29.990978 93725 net.cpp:380] res2b_branch2c -> res2b_branch2c
I1202 19:58:29.991238 93725 net.cpp:122] Setting up res2b_branch2c
I1202 19:58:29.991246 93725 net.cpp:129] Top shape: 18 256 60 60 (16588800)
I1202 19:58:29.991255 93725 net.cpp:137] Memory required for data: 1322956872
I1202 19:58:29.991258 93725 layer_factory.hpp:77] Creating layer bn2b_branch2c
I1202 19:58:29.991263 93725 net.cpp:84] Creating Layer bn2b_branch2c
I1202 19:58:29.991266 93725 net.cpp:406] bn2b_branch2c <- res2b_branch2c
I1202 19:58:29.991272 93725 net.cpp:367] bn2b_branch2c -> res2b_branch2c (in-place)
I1202 19:58:29.991420 93725 net.cpp:122] Setting up bn2b_branch2c
I1202 19:58:29.991428 93725 net.cpp:129] Top shape: 18 256 60 60 (16588800)
I1202 19:58:29.991431 93725 net.cpp:137] Memory required for data: 1389312072
I1202 19:58:29.991437 93725 layer_factory.hpp:77] Creating layer scale2b_branch2c
I1202 19:58:29.991442 93725 net.cpp:84] Creating Layer scale2b_branch2c
I1202 19:58:29.991446 93725 net.cpp:406] scale2b_branch2c <- res2b_branch2c
I1202 19:58:29.991451 93725 net.cpp:367] scale2b_branch2c -> res2b_branch2c (in-place)
I1202 19:58:29.991478 93725 layer_factory.hpp:77] Creating layer scale2b_branch2c
I1202 19:58:29.991559 93725 net.cpp:122] Setting up scale2b_branch2c
I1202 19:58:29.991564 93725 net.cpp:129] Top shape: 18 256 60 60 (16588800)
I1202 19:58:29.991567 93725 net.cpp:137] Memory required for data: 1455667272
I1202 19:58:29.991572 93725 layer_factory.hpp:77] Creating layer res2b
I1202 19:58:29.991578 93725 net.cpp:84] Creating Layer res2b
I1202 19:58:29.991582 93725 net.cpp:406] res2b <- res2a_res2a_relu_0_split_1
I1202 19:58:29.991586 93725 net.cpp:406] res2b <- res2b_branch2c
I1202 19:58:29.991591 93725 net.cpp:380] res2b -> res2b
I1202 19:58:29.991611 93725 net.cpp:122] Setting up res2b
I1202 19:58:29.991617 93725 net.cpp:129] Top shape: 18 256 60 60 (16588800)
I1202 19:58:29.991621 93725 net.cpp:137] Memory required for data: 1522022472
I1202 19:58:29.991624 93725 layer_factory.hpp:77] Creating layer res2b_relu
I1202 19:58:29.991628 93725 net.cpp:84] Creating Layer res2b_relu
I1202 19:58:29.991631 93725 net.cpp:406] res2b_relu <- res2b
I1202 19:58:29.991636 93725 net.cpp:367] res2b_relu -> res2b (in-place)
I1202 19:58:29.991641 93725 net.cpp:122] Setting up res2b_relu
I1202 19:58:29.991644 93725 net.cpp:129] Top shape: 18 256 60 60 (16588800)
I1202 19:58:29.991647 93725 net.cpp:137] Memory required for data: 1588377672
I1202 19:58:29.991650 93725 layer_factory.hpp:77] Creating layer res2b_res2b_relu_0_split
I1202 19:58:29.991654 93725 net.cpp:84] Creating Layer res2b_res2b_relu_0_split
I1202 19:58:29.991657 93725 net.cpp:406] res2b_res2b_relu_0_split <- res2b
I1202 19:58:29.991662 93725 net.cpp:380] res2b_res2b_relu_0_split -> res2b_res2b_relu_0_split_0
I1202 19:58:29.991667 93725 net.cpp:380] res2b_res2b_relu_0_split -> res2b_res2b_relu_0_split_1
I1202 19:58:29.991691 93725 net.cpp:122] Setting up res2b_res2b_relu_0_split
I1202 19:58:29.991696 93725 net.cpp:129] Top shape: 18 256 60 60 (16588800)
I1202 19:58:29.991700 93725 net.cpp:129] Top shape: 18 256 60 60 (16588800)
I1202 19:58:29.991703 93725 net.cpp:137] Memory required for data: 1721088072
I1202 19:58:29.991706 93725 layer_factory.hpp:77] Creating layer res2c_branch2a
I1202 19:58:29.991714 93725 net.cpp:84] Creating Layer res2c_branch2a
I1202 19:58:29.991716 93725 net.cpp:406] res2c_branch2a <- res2b_res2b_relu_0_split_0
I1202 19:58:29.991721 93725 net.cpp:380] res2c_branch2a -> res2c_branch2a
I1202 19:58:29.991976 93725 net.cpp:122] Setting up res2c_branch2a
I1202 19:58:29.991981 93725 net.cpp:129] Top shape: 18 64 60 60 (4147200)
I1202 19:58:29.991984 93725 net.cpp:137] Memory required for data: 1737676872
I1202 19:58:29.991988 93725 layer_factory.hpp:77] Creating layer bn2c_branch2a
I1202 19:58:29.991993 93725 net.cpp:84] Creating Layer bn2c_branch2a
I1202 19:58:29.991997 93725 net.cpp:406] bn2c_branch2a <- res2c_branch2a
I1202 19:58:29.992000 93725 net.cpp:367] bn2c_branch2a -> res2c_branch2a (in-place)
I1202 19:58:29.992139 93725 net.cpp:122] Setting up bn2c_branch2a
I1202 19:58:29.992146 93725 net.cpp:129] Top shape: 18 64 60 60 (4147200)
I1202 19:58:29.992156 93725 net.cpp:137] Memory required for data: 1754265672
I1202 19:58:29.992169 93725 layer_factory.hpp:77] Creating layer scale2c_branch2a
I1202 19:58:29.992175 93725 net.cpp:84] Creating Layer scale2c_branch2a
I1202 19:58:29.992178 93725 net.cpp:406] scale2c_branch2a <- res2c_branch2a
I1202 19:58:29.992182 93725 net.cpp:367] scale2c_branch2a -> res2c_branch2a (in-place)
I1202 19:58:29.992213 93725 layer_factory.hpp:77] Creating layer scale2c_branch2a
I1202 19:58:29.992300 93725 net.cpp:122] Setting up scale2c_branch2a
I1202 19:58:29.992305 93725 net.cpp:129] Top shape: 18 64 60 60 (4147200)
I1202 19:58:29.992308 93725 net.cpp:137] Memory required for data: 1770854472
I1202 19:58:29.992313 93725 layer_factory.hpp:77] Creating layer res2c_branch2a_relu
I1202 19:58:29.992322 93725 net.cpp:84] Creating Layer res2c_branch2a_relu
I1202 19:58:29.992326 93725 net.cpp:406] res2c_branch2a_relu <- res2c_branch2a
I1202 19:58:29.992329 93725 net.cpp:367] res2c_branch2a_relu -> res2c_branch2a (in-place)
I1202 19:58:29.992333 93725 net.cpp:122] Setting up res2c_branch2a_relu
I1202 19:58:29.992338 93725 net.cpp:129] Top shape: 18 64 60 60 (4147200)
I1202 19:58:29.992341 93725 net.cpp:137] Memory required for data: 1787443272
I1202 19:58:29.992343 93725 layer_factory.hpp:77] Creating layer res2c_branch2b
I1202 19:58:29.992352 93725 net.cpp:84] Creating Layer res2c_branch2b
I1202 19:58:29.992354 93725 net.cpp:406] res2c_branch2b <- res2c_branch2a
I1202 19:58:29.992359 93725 net.cpp:380] res2c_branch2b -> res2c_branch2b
I1202 19:58:29.992785 93725 net.cpp:122] Setting up res2c_branch2b
I1202 19:58:29.992792 93725 net.cpp:129] Top shape: 18 64 60 60 (4147200)
I1202 19:58:29.992795 93725 net.cpp:137] Memory required for data: 1804032072
I1202 19:58:29.992799 93725 layer_factory.hpp:77] Creating layer bn2c_branch2b
I1202 19:58:29.992805 93725 net.cpp:84] Creating Layer bn2c_branch2b
I1202 19:58:29.992807 93725 net.cpp:406] bn2c_branch2b <- res2c_branch2b
I1202 19:58:29.992812 93725 net.cpp:367] bn2c_branch2b -> res2c_branch2b (in-place)
I1202 19:58:29.992946 93725 net.cpp:122] Setting up bn2c_branch2b
I1202 19:58:29.992954 93725 net.cpp:129] Top shape: 18 64 60 60 (4147200)
I1202 19:58:29.992956 93725 net.cpp:137] Memory required for data: 1820620872
I1202 19:58:29.992964 93725 layer_factory.hpp:77] Creating layer scale2c_branch2b
I1202 19:58:29.992969 93725 net.cpp:84] Creating Layer scale2c_branch2b
I1202 19:58:29.992971 93725 net.cpp:406] scale2c_branch2b <- res2c_branch2b
I1202 19:58:29.992974 93725 net.cpp:367] scale2c_branch2b -> res2c_branch2b (in-place)
I1202 19:58:29.993003 93725 layer_factory.hpp:77] Creating layer scale2c_branch2b
I1202 19:58:29.993090 93725 net.cpp:122] Setting up scale2c_branch2b
I1202 19:58:29.993096 93725 net.cpp:129] Top shape: 18 64 60 60 (4147200)
I1202 19:58:29.993098 93725 net.cpp:137] Memory required for data: 1837209672
I1202 19:58:29.993104 93725 layer_factory.hpp:77] Creating layer res2c_branch2b_relu
I1202 19:58:29.993108 93725 net.cpp:84] Creating Layer res2c_branch2b_relu
I1202 19:58:29.993111 93725 net.cpp:406] res2c_branch2b_relu <- res2c_branch2b
I1202 19:58:29.993116 93725 net.cpp:367] res2c_branch2b_relu -> res2c_branch2b (in-place)
I1202 19:58:29.993121 93725 net.cpp:122] Setting up res2c_branch2b_relu
I1202 19:58:29.993125 93725 net.cpp:129] Top shape: 18 64 60 60 (4147200)
I1202 19:58:29.993127 93725 net.cpp:137] Memory required for data: 1853798472
I1202 19:58:29.993130 93725 layer_factory.hpp:77] Creating layer res2c_branch2c
I1202 19:58:29.993136 93725 net.cpp:84] Creating Layer res2c_branch2c
I1202 19:58:29.993139 93725 net.cpp:406] res2c_branch2c <- res2c_branch2b
I1202 19:58:29.993144 93725 net.cpp:380] res2c_branch2c -> res2c_branch2c
I1202 19:58:29.993402 93725 net.cpp:122] Setting up res2c_branch2c
I1202 19:58:29.993408 93725 net.cpp:129] Top shape: 18 256 60 60 (16588800)
I1202 19:58:29.993410 93725 net.cpp:137] Memory required for data: 1920153672
I1202 19:58:29.993414 93725 layer_factory.hpp:77] Creating layer bn2c_branch2c
I1202 19:58:29.993422 93725 net.cpp:84] Creating Layer bn2c_branch2c
I1202 19:58:29.993428 93725 net.cpp:406] bn2c_branch2c <- res2c_branch2c
I1202 19:58:29.993438 93725 net.cpp:367] bn2c_branch2c -> res2c_branch2c (in-place)
I1202 19:58:29.993571 93725 net.cpp:122] Setting up bn2c_branch2c
I1202 19:58:29.993577 93725 net.cpp:129] Top shape: 18 256 60 60 (16588800)
I1202 19:58:29.993582 93725 net.cpp:137] Memory required for data: 1986508872
I1202 19:58:29.993594 93725 layer_factory.hpp:77] Creating layer scale2c_branch2c
I1202 19:58:29.993599 93725 net.cpp:84] Creating Layer scale2c_branch2c
I1202 19:58:29.993602 93725 net.cpp:406] scale2c_branch2c <- res2c_branch2c
I1202 19:58:29.993608 93725 net.cpp:367] scale2c_branch2c -> res2c_branch2c (in-place)
I1202 19:58:29.993638 93725 layer_factory.hpp:77] Creating layer scale2c_branch2c
I1202 19:58:29.993717 93725 net.cpp:122] Setting up scale2c_branch2c
I1202 19:58:29.993723 93725 net.cpp:129] Top shape: 18 256 60 60 (16588800)
I1202 19:58:29.993727 93725 net.cpp:137] Memory required for data: 2052864072
I1202 19:58:29.993731 93725 layer_factory.hpp:77] Creating layer res2c
I1202 19:58:29.993736 93725 net.cpp:84] Creating Layer res2c
I1202 19:58:29.993739 93725 net.cpp:406] res2c <- res2b_res2b_relu_0_split_1
I1202 19:58:29.993743 93725 net.cpp:406] res2c <- res2c_branch2c
I1202 19:58:29.993751 93725 net.cpp:380] res2c -> res2c
I1202 19:58:29.993767 93725 net.cpp:122] Setting up res2c
I1202 19:58:29.993772 93725 net.cpp:129] Top shape: 18 256 60 60 (16588800)
I1202 19:58:29.993774 93725 net.cpp:137] Memory required for data: 2119219272
I1202 19:58:29.993777 93725 layer_factory.hpp:77] Creating layer res2c_relu
I1202 19:58:29.993782 93725 net.cpp:84] Creating Layer res2c_relu
I1202 19:58:29.993784 93725 net.cpp:406] res2c_relu <- res2c
I1202 19:58:29.993788 93725 net.cpp:367] res2c_relu -> res2c (in-place)
I1202 19:58:29.993793 93725 net.cpp:122] Setting up res2c_relu
I1202 19:58:29.993796 93725 net.cpp:129] Top shape: 18 256 60 60 (16588800)
I1202 19:58:29.993799 93725 net.cpp:137] Memory required for data: 2185574472
I1202 19:58:29.993803 93725 layer_factory.hpp:77] Creating layer res2c_res2c_relu_0_split
I1202 19:58:29.993809 93725 net.cpp:84] Creating Layer res2c_res2c_relu_0_split
I1202 19:58:29.993813 93725 net.cpp:406] res2c_res2c_relu_0_split <- res2c
I1202 19:58:29.993816 93725 net.cpp:380] res2c_res2c_relu_0_split -> res2c_res2c_relu_0_split_0
I1202 19:58:29.993822 93725 net.cpp:380] res2c_res2c_relu_0_split -> res2c_res2c_relu_0_split_1
I1202 19:58:29.993845 93725 net.cpp:122] Setting up res2c_res2c_relu_0_split
I1202 19:58:29.993850 93725 net.cpp:129] Top shape: 18 256 60 60 (16588800)
I1202 19:58:29.993854 93725 net.cpp:129] Top shape: 18 256 60 60 (16588800)
I1202 19:58:29.993857 93725 net.cpp:137] Memory required for data: 2318284872
I1202 19:58:29.993861 93725 layer_factory.hpp:77] Creating layer res3a_branch1
I1202 19:58:29.993867 93725 net.cpp:84] Creating Layer res3a_branch1
I1202 19:58:29.993870 93725 net.cpp:406] res3a_branch1 <- res2c_res2c_relu_0_split_0
I1202 19:58:29.993877 93725 net.cpp:380] res3a_branch1 -> res3a_branch1
I1202 19:58:29.995586 93725 net.cpp:122] Setting up res3a_branch1
I1202 19:58:29.995599 93725 net.cpp:129] Top shape: 18 512 30 30 (8294400)
I1202 19:58:29.995601 93725 net.cpp:137] Memory required for data: 2351462472
I1202 19:58:29.995606 93725 layer_factory.hpp:77] Creating layer bn3a_branch1
I1202 19:58:29.995612 93725 net.cpp:84] Creating Layer bn3a_branch1
I1202 19:58:29.995615 93725 net.cpp:406] bn3a_branch1 <- res3a_branch1
I1202 19:58:29.995620 93725 net.cpp:367] bn3a_branch1 -> res3a_branch1 (in-place)
I1202 19:58:29.996268 93725 net.cpp:122] Setting up bn3a_branch1
I1202 19:58:29.996279 93725 net.cpp:129] Top shape: 18 512 30 30 (8294400)
I1202 19:58:29.996281 93725 net.cpp:137] Memory required for data: 2384640072
I1202 19:58:29.996287 93725 layer_factory.hpp:77] Creating layer scale3a_branch1
I1202 19:58:29.996294 93725 net.cpp:84] Creating Layer scale3a_branch1
I1202 19:58:29.996296 93725 net.cpp:406] scale3a_branch1 <- res3a_branch1
I1202 19:58:29.996305 93725 net.cpp:367] scale3a_branch1 -> res3a_branch1 (in-place)
I1202 19:58:29.996345 93725 layer_factory.hpp:77] Creating layer scale3a_branch1
I1202 19:58:29.996425 93725 net.cpp:122] Setting up scale3a_branch1
I1202 19:58:29.996431 93725 net.cpp:129] Top shape: 18 512 30 30 (8294400)
I1202 19:58:29.996433 93725 net.cpp:137] Memory required for data: 2417817672
I1202 19:58:29.996438 93725 layer_factory.hpp:77] Creating layer res3a_branch2a
I1202 19:58:29.996448 93725 net.cpp:84] Creating Layer res3a_branch2a
I1202 19:58:29.996451 93725 net.cpp:406] res3a_branch2a <- res2c_res2c_relu_0_split_1
I1202 19:58:29.996456 93725 net.cpp:380] res3a_branch2a -> res3a_branch2a
I1202 19:58:29.996855 93725 net.cpp:122] Setting up res3a_branch2a
I1202 19:58:29.996862 93725 net.cpp:129] Top shape: 18 128 30 30 (2073600)
I1202 19:58:29.996865 93725 net.cpp:137] Memory required for data: 2426112072
I1202 19:58:29.996870 93725 layer_factory.hpp:77] Creating layer bn3a_branch2a
I1202 19:58:29.996875 93725 net.cpp:84] Creating Layer bn3a_branch2a
I1202 19:58:29.996878 93725 net.cpp:406] bn3a_branch2a <- res3a_branch2a
I1202 19:58:29.996883 93725 net.cpp:367] bn3a_branch2a -> res3a_branch2a (in-place)
I1202 19:58:29.997015 93725 net.cpp:122] Setting up bn3a_branch2a
I1202 19:58:29.997021 93725 net.cpp:129] Top shape: 18 128 30 30 (2073600)
I1202 19:58:29.997025 93725 net.cpp:137] Memory required for data: 2434406472
I1202 19:58:29.997030 93725 layer_factory.hpp:77] Creating layer scale3a_branch2a
I1202 19:58:29.997035 93725 net.cpp:84] Creating Layer scale3a_branch2a
I1202 19:58:29.997037 93725 net.cpp:406] scale3a_branch2a <- res3a_branch2a
I1202 19:58:29.997042 93725 net.cpp:367] scale3a_branch2a -> res3a_branch2a (in-place)
I1202 19:58:29.997072 93725 layer_factory.hpp:77] Creating layer scale3a_branch2a
I1202 19:58:29.997149 93725 net.cpp:122] Setting up scale3a_branch2a
I1202 19:58:29.997155 93725 net.cpp:129] Top shape: 18 128 30 30 (2073600)
I1202 19:58:29.997159 93725 net.cpp:137] Memory required for data: 2442700872
I1202 19:58:29.997164 93725 layer_factory.hpp:77] Creating layer res3a_branch2a_relu
I1202 19:58:29.997169 93725 net.cpp:84] Creating Layer res3a_branch2a_relu
I1202 19:58:29.997171 93725 net.cpp:406] res3a_branch2a_relu <- res3a_branch2a
I1202 19:58:29.997176 93725 net.cpp:367] res3a_branch2a_relu -> res3a_branch2a (in-place)
I1202 19:58:29.997181 93725 net.cpp:122] Setting up res3a_branch2a_relu
I1202 19:58:29.997185 93725 net.cpp:129] Top shape: 18 128 30 30 (2073600)
I1202 19:58:29.997187 93725 net.cpp:137] Memory required for data: 2450995272
I1202 19:58:29.997192 93725 layer_factory.hpp:77] Creating layer res3a_branch2b
I1202 19:58:29.997198 93725 net.cpp:84] Creating Layer res3a_branch2b
I1202 19:58:29.997201 93725 net.cpp:406] res3a_branch2b <- res3a_branch2a
I1202 19:58:29.997207 93725 net.cpp:380] res3a_branch2b -> res3a_branch2b
I1202 19:58:29.999037 93725 net.cpp:122] Setting up res3a_branch2b
I1202 19:58:29.999047 93725 net.cpp:129] Top shape: 18 128 30 30 (2073600)
I1202 19:58:29.999050 93725 net.cpp:137] Memory required for data: 2459289672
I1202 19:58:29.999054 93725 layer_factory.hpp:77] Creating layer bn3a_branch2b
I1202 19:58:29.999060 93725 net.cpp:84] Creating Layer bn3a_branch2b
I1202 19:58:29.999063 93725 net.cpp:406] bn3a_branch2b <- res3a_branch2b
I1202 19:58:29.999070 93725 net.cpp:367] bn3a_branch2b -> res3a_branch2b (in-place)
I1202 19:58:29.999203 93725 net.cpp:122] Setting up bn3a_branch2b
I1202 19:58:29.999209 93725 net.cpp:129] Top shape: 18 128 30 30 (2073600)
I1202 19:58:29.999212 93725 net.cpp:137] Memory required for data: 2467584072
I1202 19:58:29.999217 93725 layer_factory.hpp:77] Creating layer scale3a_branch2b
I1202 19:58:29.999222 93725 net.cpp:84] Creating Layer scale3a_branch2b
I1202 19:58:29.999227 93725 net.cpp:406] scale3a_branch2b <- res3a_branch2b
I1202 19:58:29.999230 93725 net.cpp:367] scale3a_branch2b -> res3a_branch2b (in-place)
I1202 19:58:29.999259 93725 layer_factory.hpp:77] Creating layer scale3a_branch2b
I1202 19:58:29.999349 93725 net.cpp:122] Setting up scale3a_branch2b
I1202 19:58:29.999361 93725 net.cpp:129] Top shape: 18 128 30 30 (2073600)
I1202 19:58:29.999369 93725 net.cpp:137] Memory required for data: 2475878472
I1202 19:58:29.999374 93725 layer_factory.hpp:77] Creating layer res3a_branch2b_relu
I1202 19:58:29.999380 93725 net.cpp:84] Creating Layer res3a_branch2b_relu
I1202 19:58:29.999384 93725 net.cpp:406] res3a_branch2b_relu <- res3a_branch2b
I1202 19:58:29.999392 93725 net.cpp:367] res3a_branch2b_relu -> res3a_branch2b (in-place)
I1202 19:58:29.999397 93725 net.cpp:122] Setting up res3a_branch2b_relu
I1202 19:58:29.999400 93725 net.cpp:129] Top shape: 18 128 30 30 (2073600)
I1202 19:58:29.999403 93725 net.cpp:137] Memory required for data: 2484172872
I1202 19:58:29.999408 93725 layer_factory.hpp:77] Creating layer res3a_branch2c
I1202 19:58:29.999413 93725 net.cpp:84] Creating Layer res3a_branch2c
I1202 19:58:29.999416 93725 net.cpp:406] res3a_branch2c <- res3a_branch2b
I1202 19:58:29.999423 93725 net.cpp:380] res3a_branch2c -> res3a_branch2c
I1202 19:58:30.000088 93725 net.cpp:122] Setting up res3a_branch2c
I1202 19:58:30.000095 93725 net.cpp:129] Top shape: 18 512 30 30 (8294400)
I1202 19:58:30.000098 93725 net.cpp:137] Memory required for data: 2517350472
I1202 19:58:30.000102 93725 layer_factory.hpp:77] Creating layer bn3a_branch2c
I1202 19:58:30.000114 93725 net.cpp:84] Creating Layer bn3a_branch2c
I1202 19:58:30.000118 93725 net.cpp:406] bn3a_branch2c <- res3a_branch2c
I1202 19:58:30.000123 93725 net.cpp:367] bn3a_branch2c -> res3a_branch2c (in-place)
I1202 19:58:30.000255 93725 net.cpp:122] Setting up bn3a_branch2c
I1202 19:58:30.000262 93725 net.cpp:129] Top shape: 18 512 30 30 (8294400)
I1202 19:58:30.000264 93725 net.cpp:137] Memory required for data: 2550528072
I1202 19:58:30.000270 93725 layer_factory.hpp:77] Creating layer scale3a_branch2c
I1202 19:58:30.000277 93725 net.cpp:84] Creating Layer scale3a_branch2c
I1202 19:58:30.000280 93725 net.cpp:406] scale3a_branch2c <- res3a_branch2c
I1202 19:58:30.000284 93725 net.cpp:367] scale3a_branch2c -> res3a_branch2c (in-place)
I1202 19:58:30.000314 93725 layer_factory.hpp:77] Creating layer scale3a_branch2c
I1202 19:58:30.000394 93725 net.cpp:122] Setting up scale3a_branch2c
I1202 19:58:30.000401 93725 net.cpp:129] Top shape: 18 512 30 30 (8294400)
I1202 19:58:30.000403 93725 net.cpp:137] Memory required for data: 2583705672
I1202 19:58:30.000408 93725 layer_factory.hpp:77] Creating layer res3a
I1202 19:58:30.000413 93725 net.cpp:84] Creating Layer res3a
I1202 19:58:30.000416 93725 net.cpp:406] res3a <- res3a_branch1
I1202 19:58:30.000421 93725 net.cpp:406] res3a <- res3a_branch2c
I1202 19:58:30.000427 93725 net.cpp:380] res3a -> res3a
I1202 19:58:30.000443 93725 net.cpp:122] Setting up res3a
I1202 19:58:30.000448 93725 net.cpp:129] Top shape: 18 512 30 30 (8294400)
I1202 19:58:30.000450 93725 net.cpp:137] Memory required for data: 2616883272
I1202 19:58:30.000455 93725 layer_factory.hpp:77] Creating layer res3a_relu
I1202 19:58:30.000463 93725 net.cpp:84] Creating Layer res3a_relu
I1202 19:58:30.000465 93725 net.cpp:406] res3a_relu <- res3a
I1202 19:58:30.000469 93725 net.cpp:367] res3a_relu -> res3a (in-place)
I1202 19:58:30.000474 93725 net.cpp:122] Setting up res3a_relu
I1202 19:58:30.000478 93725 net.cpp:129] Top shape: 18 512 30 30 (8294400)
I1202 19:58:30.000481 93725 net.cpp:137] Memory required for data: 2650060872
I1202 19:58:30.000483 93725 layer_factory.hpp:77] Creating layer res3a_res3a_relu_0_split
I1202 19:58:30.000490 93725 net.cpp:84] Creating Layer res3a_res3a_relu_0_split
I1202 19:58:30.000494 93725 net.cpp:406] res3a_res3a_relu_0_split <- res3a
I1202 19:58:30.000497 93725 net.cpp:380] res3a_res3a_relu_0_split -> res3a_res3a_relu_0_split_0
I1202 19:58:30.000504 93725 net.cpp:380] res3a_res3a_relu_0_split -> res3a_res3a_relu_0_split_1
I1202 19:58:30.000527 93725 net.cpp:122] Setting up res3a_res3a_relu_0_split
I1202 19:58:30.000533 93725 net.cpp:129] Top shape: 18 512 30 30 (8294400)
I1202 19:58:30.000536 93725 net.cpp:129] Top shape: 18 512 30 30 (8294400)
I1202 19:58:30.000540 93725 net.cpp:137] Memory required for data: 2716416072
I1202 19:58:30.000546 93725 layer_factory.hpp:77] Creating layer res3b_branch2a
I1202 19:58:30.000560 93725 net.cpp:84] Creating Layer res3b_branch2a
I1202 19:58:30.000562 93725 net.cpp:406] res3b_branch2a <- res3a_res3a_relu_0_split_0
I1202 19:58:30.000567 93725 net.cpp:380] res3b_branch2a -> res3b_branch2a
I1202 19:58:30.001742 93725 net.cpp:122] Setting up res3b_branch2a
I1202 19:58:30.001754 93725 net.cpp:129] Top shape: 18 128 30 30 (2073600)
I1202 19:58:30.001756 93725 net.cpp:137] Memory required for data: 2724710472
I1202 19:58:30.001761 93725 layer_factory.hpp:77] Creating layer bn3b_branch2a
I1202 19:58:30.001768 93725 net.cpp:84] Creating Layer bn3b_branch2a
I1202 19:58:30.001772 93725 net.cpp:406] bn3b_branch2a <- res3b_branch2a
I1202 19:58:30.001776 93725 net.cpp:367] bn3b_branch2a -> res3b_branch2a (in-place)
I1202 19:58:30.001909 93725 net.cpp:122] Setting up bn3b_branch2a
I1202 19:58:30.001915 93725 net.cpp:129] Top shape: 18 128 30 30 (2073600)
I1202 19:58:30.001919 93725 net.cpp:137] Memory required for data: 2733004872
I1202 19:58:30.001925 93725 layer_factory.hpp:77] Creating layer scale3b_branch2a
I1202 19:58:30.001932 93725 net.cpp:84] Creating Layer scale3b_branch2a
I1202 19:58:30.001935 93725 net.cpp:406] scale3b_branch2a <- res3b_branch2a
I1202 19:58:30.001940 93725 net.cpp:367] scale3b_branch2a -> res3b_branch2a (in-place)
I1202 19:58:30.001968 93725 layer_factory.hpp:77] Creating layer scale3b_branch2a
I1202 19:58:30.002053 93725 net.cpp:122] Setting up scale3b_branch2a
I1202 19:58:30.002058 93725 net.cpp:129] Top shape: 18 128 30 30 (2073600)
I1202 19:58:30.002061 93725 net.cpp:137] Memory required for data: 2741299272
I1202 19:58:30.002066 93725 layer_factory.hpp:77] Creating layer res3b_branch2a_relu
I1202 19:58:30.002070 93725 net.cpp:84] Creating Layer res3b_branch2a_relu
I1202 19:58:30.002074 93725 net.cpp:406] res3b_branch2a_relu <- res3b_branch2a
I1202 19:58:30.002079 93725 net.cpp:367] res3b_branch2a_relu -> res3b_branch2a (in-place)
I1202 19:58:30.002082 93725 net.cpp:122] Setting up res3b_branch2a_relu
I1202 19:58:30.002086 93725 net.cpp:129] Top shape: 18 128 30 30 (2073600)
I1202 19:58:30.002089 93725 net.cpp:137] Memory required for data: 2749593672
I1202 19:58:30.002092 93725 layer_factory.hpp:77] Creating layer res3b_branch2b
I1202 19:58:30.002100 93725 net.cpp:84] Creating Layer res3b_branch2b
I1202 19:58:30.002104 93725 net.cpp:406] res3b_branch2b <- res3b_branch2a
I1202 19:58:30.002110 93725 net.cpp:380] res3b_branch2b -> res3b_branch2b
I1202 19:58:30.003943 93725 net.cpp:122] Setting up res3b_branch2b
I1202 19:58:30.003954 93725 net.cpp:129] Top shape: 18 128 30 30 (2073600)
I1202 19:58:30.003957 93725 net.cpp:137] Memory required for data: 2757888072
I1202 19:58:30.003962 93725 layer_factory.hpp:77] Creating layer bn3b_branch2b
I1202 19:58:30.003969 93725 net.cpp:84] Creating Layer bn3b_branch2b
I1202 19:58:30.003973 93725 net.cpp:406] bn3b_branch2b <- res3b_branch2b
I1202 19:58:30.003978 93725 net.cpp:367] bn3b_branch2b -> res3b_branch2b (in-place)
I1202 19:58:30.004112 93725 net.cpp:122] Setting up bn3b_branch2b
I1202 19:58:30.004118 93725 net.cpp:129] Top shape: 18 128 30 30 (2073600)
I1202 19:58:30.004122 93725 net.cpp:137] Memory required for data: 2766182472
I1202 19:58:30.004128 93725 layer_factory.hpp:77] Creating layer scale3b_branch2b
I1202 19:58:30.004133 93725 net.cpp:84] Creating Layer scale3b_branch2b
I1202 19:58:30.004137 93725 net.cpp:406] scale3b_branch2b <- res3b_branch2b
I1202 19:58:30.004142 93725 net.cpp:367] scale3b_branch2b -> res3b_branch2b (in-place)
I1202 19:58:30.004170 93725 layer_factory.hpp:77] Creating layer scale3b_branch2b
I1202 19:58:30.004251 93725 net.cpp:122] Setting up scale3b_branch2b
I1202 19:58:30.004258 93725 net.cpp:129] Top shape: 18 128 30 30 (2073600)
I1202 19:58:30.004261 93725 net.cpp:137] Memory required for data: 2774476872
I1202 19:58:30.004266 93725 layer_factory.hpp:77] Creating layer res3b_branch2b_relu
I1202 19:58:30.004271 93725 net.cpp:84] Creating Layer res3b_branch2b_relu
I1202 19:58:30.004277 93725 net.cpp:406] res3b_branch2b_relu <- res3b_branch2b
I1202 19:58:30.004287 93725 net.cpp:367] res3b_branch2b_relu -> res3b_branch2b (in-place)
I1202 19:58:30.004292 93725 net.cpp:122] Setting up res3b_branch2b_relu
I1202 19:58:30.004295 93725 net.cpp:129] Top shape: 18 128 30 30 (2073600)
I1202 19:58:30.004299 93725 net.cpp:137] Memory required for data: 2782771272
I1202 19:58:30.004302 93725 layer_factory.hpp:77] Creating layer res3b_branch2c
I1202 19:58:30.004309 93725 net.cpp:84] Creating Layer res3b_branch2c
I1202 19:58:30.004312 93725 net.cpp:406] res3b_branch2c <- res3b_branch2b
I1202 19:58:30.004320 93725 net.cpp:380] res3b_branch2c -> res3b_branch2c
I1202 19:58:30.004984 93725 net.cpp:122] Setting up res3b_branch2c
I1202 19:58:30.004990 93725 net.cpp:129] Top shape: 18 512 30 30 (8294400)
I1202 19:58:30.004993 93725 net.cpp:137] Memory required for data: 2815948872
I1202 19:58:30.004998 93725 layer_factory.hpp:77] Creating layer bn3b_branch2c
I1202 19:58:30.005002 93725 net.cpp:84] Creating Layer bn3b_branch2c
I1202 19:58:30.005005 93725 net.cpp:406] bn3b_branch2c <- res3b_branch2c
I1202 19:58:30.005009 93725 net.cpp:367] bn3b_branch2c -> res3b_branch2c (in-place)
I1202 19:58:30.005146 93725 net.cpp:122] Setting up bn3b_branch2c
I1202 19:58:30.005152 93725 net.cpp:129] Top shape: 18 512 30 30 (8294400)
I1202 19:58:30.005156 93725 net.cpp:137] Memory required for data: 2849126472
I1202 19:58:30.005162 93725 layer_factory.hpp:77] Creating layer scale3b_branch2c
I1202 19:58:30.005170 93725 net.cpp:84] Creating Layer scale3b_branch2c
I1202 19:58:30.005174 93725 net.cpp:406] scale3b_branch2c <- res3b_branch2c
I1202 19:58:30.005178 93725 net.cpp:367] scale3b_branch2c -> res3b_branch2c (in-place)
I1202 19:58:30.005209 93725 layer_factory.hpp:77] Creating layer scale3b_branch2c
I1202 19:58:30.005291 93725 net.cpp:122] Setting up scale3b_branch2c
I1202 19:58:30.005297 93725 net.cpp:129] Top shape: 18 512 30 30 (8294400)
I1202 19:58:30.005300 93725 net.cpp:137] Memory required for data: 2882304072
I1202 19:58:30.005306 93725 layer_factory.hpp:77] Creating layer res3b
I1202 19:58:30.005311 93725 net.cpp:84] Creating Layer res3b
I1202 19:58:30.005313 93725 net.cpp:406] res3b <- res3a_res3a_relu_0_split_1
I1202 19:58:30.005317 93725 net.cpp:406] res3b <- res3b_branch2c
I1202 19:58:30.005323 93725 net.cpp:380] res3b -> res3b
I1202 19:58:30.005342 93725 net.cpp:122] Setting up res3b
I1202 19:58:30.005347 93725 net.cpp:129] Top shape: 18 512 30 30 (8294400)
I1202 19:58:30.005350 93725 net.cpp:137] Memory required for data: 2915481672
I1202 19:58:30.005353 93725 layer_factory.hpp:77] Creating layer res3b_relu
I1202 19:58:30.005358 93725 net.cpp:84] Creating Layer res3b_relu
I1202 19:58:30.005360 93725 net.cpp:406] res3b_relu <- res3b
I1202 19:58:30.005364 93725 net.cpp:367] res3b_relu -> res3b (in-place)
I1202 19:58:30.005368 93725 net.cpp:122] Setting up res3b_relu
I1202 19:58:30.005373 93725 net.cpp:129] Top shape: 18 512 30 30 (8294400)
I1202 19:58:30.005376 93725 net.cpp:137] Memory required for data: 2948659272
I1202 19:58:30.005378 93725 layer_factory.hpp:77] Creating layer res3b_res3b_relu_0_split
I1202 19:58:30.005385 93725 net.cpp:84] Creating Layer res3b_res3b_relu_0_split
I1202 19:58:30.005389 93725 net.cpp:406] res3b_res3b_relu_0_split <- res3b
I1202 19:58:30.005393 93725 net.cpp:380] res3b_res3b_relu_0_split -> res3b_res3b_relu_0_split_0
I1202 19:58:30.005398 93725 net.cpp:380] res3b_res3b_relu_0_split -> res3b_res3b_relu_0_split_1
I1202 19:58:30.005424 93725 net.cpp:122] Setting up res3b_res3b_relu_0_split
I1202 19:58:30.005429 93725 net.cpp:129] Top shape: 18 512 30 30 (8294400)
I1202 19:58:30.005432 93725 net.cpp:129] Top shape: 18 512 30 30 (8294400)
I1202 19:58:30.005435 93725 net.cpp:137] Memory required for data: 3015014472
I1202 19:58:30.005439 93725 layer_factory.hpp:77] Creating layer res3c_branch2a
I1202 19:58:30.005446 93725 net.cpp:84] Creating Layer res3c_branch2a
I1202 19:58:30.005450 93725 net.cpp:406] res3c_branch2a <- res3b_res3b_relu_0_split_0
I1202 19:58:30.005455 93725 net.cpp:380] res3c_branch2a -> res3c_branch2a
I1202 19:58:30.006117 93725 net.cpp:122] Setting up res3c_branch2a
I1202 19:58:30.006129 93725 net.cpp:129] Top shape: 18 128 30 30 (2073600)
I1202 19:58:30.006132 93725 net.cpp:137] Memory required for data: 3023308872
I1202 19:58:30.006136 93725 layer_factory.hpp:77] Creating layer bn3c_branch2a
I1202 19:58:30.006142 93725 net.cpp:84] Creating Layer bn3c_branch2a
I1202 19:58:30.006146 93725 net.cpp:406] bn3c_branch2a <- res3c_branch2a
I1202 19:58:30.006150 93725 net.cpp:367] bn3c_branch2a -> res3c_branch2a (in-place)
I1202 19:58:30.006283 93725 net.cpp:122] Setting up bn3c_branch2a
I1202 19:58:30.006289 93725 net.cpp:129] Top shape: 18 128 30 30 (2073600)
I1202 19:58:30.006292 93725 net.cpp:137] Memory required for data: 3031603272
I1202 19:58:30.006299 93725 layer_factory.hpp:77] Creating layer scale3c_branch2a
I1202 19:58:30.006302 93725 net.cpp:84] Creating Layer scale3c_branch2a
I1202 19:58:30.006305 93725 net.cpp:406] scale3c_branch2a <- res3c_branch2a
I1202 19:58:30.006310 93725 net.cpp:367] scale3c_branch2a -> res3c_branch2a (in-place)
I1202 19:58:30.006338 93725 layer_factory.hpp:77] Creating layer scale3c_branch2a
I1202 19:58:30.006418 93725 net.cpp:122] Setting up scale3c_branch2a
I1202 19:58:30.006424 93725 net.cpp:129] Top shape: 18 128 30 30 (2073600)
I1202 19:58:30.006428 93725 net.cpp:137] Memory required for data: 3039897672
I1202 19:58:30.006433 93725 layer_factory.hpp:77] Creating layer res3c_branch2a_relu
I1202 19:58:30.006438 93725 net.cpp:84] Creating Layer res3c_branch2a_relu
I1202 19:58:30.006441 93725 net.cpp:406] res3c_branch2a_relu <- res3c_branch2a
I1202 19:58:30.006445 93725 net.cpp:367] res3c_branch2a_relu -> res3c_branch2a (in-place)
I1202 19:58:30.006449 93725 net.cpp:122] Setting up res3c_branch2a_relu
I1202 19:58:30.006453 93725 net.cpp:129] Top shape: 18 128 30 30 (2073600)
I1202 19:58:30.006456 93725 net.cpp:137] Memory required for data: 3048192072
I1202 19:58:30.006461 93725 layer_factory.hpp:77] Creating layer res3c_branch2b
I1202 19:58:30.006469 93725 net.cpp:84] Creating Layer res3c_branch2b
I1202 19:58:30.006474 93725 net.cpp:406] res3c_branch2b <- res3c_branch2a
I1202 19:58:30.006477 93725 net.cpp:380] res3c_branch2b -> res3c_branch2b
I1202 19:58:30.008317 93725 net.cpp:122] Setting up res3c_branch2b
I1202 19:58:30.008328 93725 net.cpp:129] Top shape: 18 128 30 30 (2073600)
I1202 19:58:30.008332 93725 net.cpp:137] Memory required for data: 3056486472
I1202 19:58:30.008335 93725 layer_factory.hpp:77] Creating layer bn3c_branch2b
I1202 19:58:30.008342 93725 net.cpp:84] Creating Layer bn3c_branch2b
I1202 19:58:30.008344 93725 net.cpp:406] bn3c_branch2b <- res3c_branch2b
I1202 19:58:30.008352 93725 net.cpp:367] bn3c_branch2b -> res3c_branch2b (in-place)
I1202 19:58:30.008488 93725 net.cpp:122] Setting up bn3c_branch2b
I1202 19:58:30.008496 93725 net.cpp:129] Top shape: 18 128 30 30 (2073600)
I1202 19:58:30.008497 93725 net.cpp:137] Memory required for data: 3064780872
I1202 19:58:30.008503 93725 layer_factory.hpp:77] Creating layer scale3c_branch2b
I1202 19:58:30.008508 93725 net.cpp:84] Creating Layer scale3c_branch2b
I1202 19:58:30.008512 93725 net.cpp:406] scale3c_branch2b <- res3c_branch2b
I1202 19:58:30.008515 93725 net.cpp:367] scale3c_branch2b -> res3c_branch2b (in-place)
I1202 19:58:30.008545 93725 layer_factory.hpp:77] Creating layer scale3c_branch2b
I1202 19:58:30.008625 93725 net.cpp:122] Setting up scale3c_branch2b
I1202 19:58:30.008631 93725 net.cpp:129] Top shape: 18 128 30 30 (2073600)
I1202 19:58:30.008635 93725 net.cpp:137] Memory required for data: 3073075272
I1202 19:58:30.008639 93725 layer_factory.hpp:77] Creating layer res3c_branch2b_relu
I1202 19:58:30.008643 93725 net.cpp:84] Creating Layer res3c_branch2b_relu
I1202 19:58:30.008647 93725 net.cpp:406] res3c_branch2b_relu <- res3c_branch2b
I1202 19:58:30.008669 93725 net.cpp:367] res3c_branch2b_relu -> res3c_branch2b (in-place)
I1202 19:58:30.008673 93725 net.cpp:122] Setting up res3c_branch2b_relu
I1202 19:58:30.008677 93725 net.cpp:129] Top shape: 18 128 30 30 (2073600)
I1202 19:58:30.008684 93725 net.cpp:137] Memory required for data: 3081369672
I1202 19:58:30.008695 93725 layer_factory.hpp:77] Creating layer res3c_branch2c
I1202 19:58:30.008702 93725 net.cpp:84] Creating Layer res3c_branch2c
I1202 19:58:30.008705 93725 net.cpp:406] res3c_branch2c <- res3c_branch2b
I1202 19:58:30.008711 93725 net.cpp:380] res3c_branch2c -> res3c_branch2c
I1202 19:58:30.009398 93725 net.cpp:122] Setting up res3c_branch2c
I1202 19:58:30.009405 93725 net.cpp:129] Top shape: 18 512 30 30 (8294400)
I1202 19:58:30.009408 93725 net.cpp:137] Memory required for data: 3114547272
I1202 19:58:30.009413 93725 layer_factory.hpp:77] Creating layer bn3c_branch2c
I1202 19:58:30.009418 93725 net.cpp:84] Creating Layer bn3c_branch2c
I1202 19:58:30.009420 93725 net.cpp:406] bn3c_branch2c <- res3c_branch2c
I1202 19:58:30.009426 93725 net.cpp:367] bn3c_branch2c -> res3c_branch2c (in-place)
I1202 19:58:30.009558 93725 net.cpp:122] Setting up bn3c_branch2c
I1202 19:58:30.009563 93725 net.cpp:129] Top shape: 18 512 30 30 (8294400)
I1202 19:58:30.009567 93725 net.cpp:137] Memory required for data: 3147724872
I1202 19:58:30.009572 93725 layer_factory.hpp:77] Creating layer scale3c_branch2c
I1202 19:58:30.009577 93725 net.cpp:84] Creating Layer scale3c_branch2c
I1202 19:58:30.009580 93725 net.cpp:406] scale3c_branch2c <- res3c_branch2c
I1202 19:58:30.009583 93725 net.cpp:367] scale3c_branch2c -> res3c_branch2c (in-place)
I1202 19:58:30.009613 93725 layer_factory.hpp:77] Creating layer scale3c_branch2c
I1202 19:58:30.009690 93725 net.cpp:122] Setting up scale3c_branch2c
I1202 19:58:30.009696 93725 net.cpp:129] Top shape: 18 512 30 30 (8294400)
I1202 19:58:30.009698 93725 net.cpp:137] Memory required for data: 3180902472
I1202 19:58:30.009703 93725 layer_factory.hpp:77] Creating layer res3c
I1202 19:58:30.009711 93725 net.cpp:84] Creating Layer res3c
I1202 19:58:30.009714 93725 net.cpp:406] res3c <- res3b_res3b_relu_0_split_1
I1202 19:58:30.009717 93725 net.cpp:406] res3c <- res3c_branch2c
I1202 19:58:30.009721 93725 net.cpp:380] res3c -> res3c
I1202 19:58:30.009740 93725 net.cpp:122] Setting up res3c
I1202 19:58:30.009745 93725 net.cpp:129] Top shape: 18 512 30 30 (8294400)
I1202 19:58:30.009748 93725 net.cpp:137] Memory required for data: 3214080072
I1202 19:58:30.009752 93725 layer_factory.hpp:77] Creating layer res3c_relu
I1202 19:58:30.009757 93725 net.cpp:84] Creating Layer res3c_relu
I1202 19:58:30.009760 93725 net.cpp:406] res3c_relu <- res3c
I1202 19:58:30.009766 93725 net.cpp:367] res3c_relu -> res3c (in-place)
I1202 19:58:30.009770 93725 net.cpp:122] Setting up res3c_relu
I1202 19:58:30.009774 93725 net.cpp:129] Top shape: 18 512 30 30 (8294400)
I1202 19:58:30.009778 93725 net.cpp:137] Memory required for data: 3247257672
I1202 19:58:30.009780 93725 layer_factory.hpp:77] Creating layer res3c_res3c_relu_0_split
I1202 19:58:30.009784 93725 net.cpp:84] Creating Layer res3c_res3c_relu_0_split
I1202 19:58:30.009788 93725 net.cpp:406] res3c_res3c_relu_0_split <- res3c
I1202 19:58:30.009791 93725 net.cpp:380] res3c_res3c_relu_0_split -> res3c_res3c_relu_0_split_0
I1202 19:58:30.009796 93725 net.cpp:380] res3c_res3c_relu_0_split -> res3c_res3c_relu_0_split_1
I1202 19:58:30.009822 93725 net.cpp:122] Setting up res3c_res3c_relu_0_split
I1202 19:58:30.009829 93725 net.cpp:129] Top shape: 18 512 30 30 (8294400)
I1202 19:58:30.009832 93725 net.cpp:129] Top shape: 18 512 30 30 (8294400)
I1202 19:58:30.009835 93725 net.cpp:137] Memory required for data: 3313612872
I1202 19:58:30.009837 93725 layer_factory.hpp:77] Creating layer res3d_branch2a
I1202 19:58:30.009845 93725 net.cpp:84] Creating Layer res3d_branch2a
I1202 19:58:30.009848 93725 net.cpp:406] res3d_branch2a <- res3c_res3c_relu_0_split_0
I1202 19:58:30.009853 93725 net.cpp:380] res3d_branch2a -> res3d_branch2a
I1202 19:58:30.011031 93725 net.cpp:122] Setting up res3d_branch2a
I1202 19:58:30.011042 93725 net.cpp:129] Top shape: 18 128 30 30 (2073600)
I1202 19:58:30.011045 93725 net.cpp:137] Memory required for data: 3321907272
I1202 19:58:30.011050 93725 layer_factory.hpp:77] Creating layer bn3d_branch2a
I1202 19:58:30.011060 93725 net.cpp:84] Creating Layer bn3d_branch2a
I1202 19:58:30.011070 93725 net.cpp:406] bn3d_branch2a <- res3d_branch2a
I1202 19:58:30.011075 93725 net.cpp:367] bn3d_branch2a -> res3d_branch2a (in-place)
I1202 19:58:30.011211 93725 net.cpp:122] Setting up bn3d_branch2a
I1202 19:58:30.011219 93725 net.cpp:129] Top shape: 18 128 30 30 (2073600)
I1202 19:58:30.011221 93725 net.cpp:137] Memory required for data: 3330201672
I1202 19:58:30.011240 93725 layer_factory.hpp:77] Creating layer scale3d_branch2a
I1202 19:58:30.011245 93725 net.cpp:84] Creating Layer scale3d_branch2a
I1202 19:58:30.011248 93725 net.cpp:406] scale3d_branch2a <- res3d_branch2a
I1202 19:58:30.011253 93725 net.cpp:367] scale3d_branch2a -> res3d_branch2a (in-place)
I1202 19:58:30.011286 93725 layer_factory.hpp:77] Creating layer scale3d_branch2a
I1202 19:58:30.011371 93725 net.cpp:122] Setting up scale3d_branch2a
I1202 19:58:30.011379 93725 net.cpp:129] Top shape: 18 128 30 30 (2073600)
I1202 19:58:30.011382 93725 net.cpp:137] Memory required for data: 3338496072
I1202 19:58:30.011387 93725 layer_factory.hpp:77] Creating layer res3d_branch2a_relu
I1202 19:58:30.011394 93725 net.cpp:84] Creating Layer res3d_branch2a_relu
I1202 19:58:30.011397 93725 net.cpp:406] res3d_branch2a_relu <- res3d_branch2a
I1202 19:58:30.011402 93725 net.cpp:367] res3d_branch2a_relu -> res3d_branch2a (in-place)
I1202 19:58:30.011406 93725 net.cpp:122] Setting up res3d_branch2a_relu
I1202 19:58:30.011410 93725 net.cpp:129] Top shape: 18 128 30 30 (2073600)
I1202 19:58:30.011413 93725 net.cpp:137] Memory required for data: 3346790472
I1202 19:58:30.011416 93725 layer_factory.hpp:77] Creating layer res3d_branch2b
I1202 19:58:30.011423 93725 net.cpp:84] Creating Layer res3d_branch2b
I1202 19:58:30.011426 93725 net.cpp:406] res3d_branch2b <- res3d_branch2a
I1202 19:58:30.011431 93725 net.cpp:380] res3d_branch2b -> res3d_branch2b
I1202 19:58:30.013264 93725 net.cpp:122] Setting up res3d_branch2b
I1202 19:58:30.013275 93725 net.cpp:129] Top shape: 18 128 30 30 (2073600)
I1202 19:58:30.013278 93725 net.cpp:137] Memory required for data: 3355084872
I1202 19:58:30.013283 93725 layer_factory.hpp:77] Creating layer bn3d_branch2b
I1202 19:58:30.013288 93725 net.cpp:84] Creating Layer bn3d_branch2b
I1202 19:58:30.013293 93725 net.cpp:406] bn3d_branch2b <- res3d_branch2b
I1202 19:58:30.013296 93725 net.cpp:367] bn3d_branch2b -> res3d_branch2b (in-place)
I1202 19:58:30.013433 93725 net.cpp:122] Setting up bn3d_branch2b
I1202 19:58:30.013439 93725 net.cpp:129] Top shape: 18 128 30 30 (2073600)
I1202 19:58:30.013442 93725 net.cpp:137] Memory required for data: 3363379272
I1202 19:58:30.013449 93725 layer_factory.hpp:77] Creating layer scale3d_branch2b
I1202 19:58:30.013455 93725 net.cpp:84] Creating Layer scale3d_branch2b
I1202 19:58:30.013459 93725 net.cpp:406] scale3d_branch2b <- res3d_branch2b
I1202 19:58:30.013463 93725 net.cpp:367] scale3d_branch2b -> res3d_branch2b (in-place)
I1202 19:58:30.013494 93725 layer_factory.hpp:77] Creating layer scale3d_branch2b
I1202 19:58:30.013578 93725 net.cpp:122] Setting up scale3d_branch2b
I1202 19:58:30.013586 93725 net.cpp:129] Top shape: 18 128 30 30 (2073600)
I1202 19:58:30.013587 93725 net.cpp:137] Memory required for data: 3371673672
I1202 19:58:30.013592 93725 layer_factory.hpp:77] Creating layer res3d_branch2b_relu
I1202 19:58:30.013597 93725 net.cpp:84] Creating Layer res3d_branch2b_relu
I1202 19:58:30.013600 93725 net.cpp:406] res3d_branch2b_relu <- res3d_branch2b
I1202 19:58:30.013605 93725 net.cpp:367] res3d_branch2b_relu -> res3d_branch2b (in-place)
I1202 19:58:30.013610 93725 net.cpp:122] Setting up res3d_branch2b_relu
I1202 19:58:30.013614 93725 net.cpp:129] Top shape: 18 128 30 30 (2073600)
I1202 19:58:30.013617 93725 net.cpp:137] Memory required for data: 3379968072
I1202 19:58:30.013620 93725 layer_factory.hpp:77] Creating layer res3d_branch2c
I1202 19:58:30.013628 93725 net.cpp:84] Creating Layer res3d_branch2c
I1202 19:58:30.013630 93725 net.cpp:406] res3d_branch2c <- res3d_branch2b
I1202 19:58:30.013639 93725 net.cpp:380] res3d_branch2c -> res3d_branch2c
I1202 19:58:30.014308 93725 net.cpp:122] Setting up res3d_branch2c
I1202 19:58:30.014315 93725 net.cpp:129] Top shape: 18 512 30 30 (8294400)
I1202 19:58:30.014318 93725 net.cpp:137] Memory required for data: 3413145672
I1202 19:58:30.014323 93725 layer_factory.hpp:77] Creating layer bn3d_branch2c
I1202 19:58:30.014328 93725 net.cpp:84] Creating Layer bn3d_branch2c
I1202 19:58:30.014330 93725 net.cpp:406] bn3d_branch2c <- res3d_branch2c
I1202 19:58:30.014335 93725 net.cpp:367] bn3d_branch2c -> res3d_branch2c (in-place)
I1202 19:58:30.014474 93725 net.cpp:122] Setting up bn3d_branch2c
I1202 19:58:30.014480 93725 net.cpp:129] Top shape: 18 512 30 30 (8294400)
I1202 19:58:30.014483 93725 net.cpp:137] Memory required for data: 3446323272
I1202 19:58:30.014490 93725 layer_factory.hpp:77] Creating layer scale3d_branch2c
I1202 19:58:30.014495 93725 net.cpp:84] Creating Layer scale3d_branch2c
I1202 19:58:30.014498 93725 net.cpp:406] scale3d_branch2c <- res3d_branch2c
I1202 19:58:30.014503 93725 net.cpp:367] scale3d_branch2c -> res3d_branch2c (in-place)
I1202 19:58:30.014534 93725 layer_factory.hpp:77] Creating layer scale3d_branch2c
I1202 19:58:30.014617 93725 net.cpp:122] Setting up scale3d_branch2c
I1202 19:58:30.014623 93725 net.cpp:129] Top shape: 18 512 30 30 (8294400)
I1202 19:58:30.014626 93725 net.cpp:137] Memory required for data: 3479500872
I1202 19:58:30.014631 93725 layer_factory.hpp:77] Creating layer res3d
I1202 19:58:30.014637 93725 net.cpp:84] Creating Layer res3d
I1202 19:58:30.014642 93725 net.cpp:406] res3d <- res3c_res3c_relu_0_split_1
I1202 19:58:30.014647 93725 net.cpp:406] res3d <- res3d_branch2c
I1202 19:58:30.014652 93725 net.cpp:380] res3d -> res3d
I1202 19:58:30.014683 93725 net.cpp:122] Setting up res3d
I1202 19:58:30.014688 93725 net.cpp:129] Top shape: 18 512 30 30 (8294400)
I1202 19:58:30.014690 93725 net.cpp:137] Memory required for data: 3512678472
I1202 19:58:30.014693 93725 layer_factory.hpp:77] Creating layer res3d_relu
I1202 19:58:30.014698 93725 net.cpp:84] Creating Layer res3d_relu
I1202 19:58:30.014701 93725 net.cpp:406] res3d_relu <- res3d
I1202 19:58:30.014708 93725 net.cpp:367] res3d_relu -> res3d (in-place)
I1202 19:58:30.014713 93725 net.cpp:122] Setting up res3d_relu
I1202 19:58:30.014716 93725 net.cpp:129] Top shape: 18 512 30 30 (8294400)
I1202 19:58:30.014719 93725 net.cpp:137] Memory required for data: 3545856072
I1202 19:58:30.014722 93725 layer_factory.hpp:77] Creating layer res3d_res3d_relu_0_split
I1202 19:58:30.014727 93725 net.cpp:84] Creating Layer res3d_res3d_relu_0_split
I1202 19:58:30.014730 93725 net.cpp:406] res3d_res3d_relu_0_split <- res3d
I1202 19:58:30.014734 93725 net.cpp:380] res3d_res3d_relu_0_split -> res3d_res3d_relu_0_split_0
I1202 19:58:30.014739 93725 net.cpp:380] res3d_res3d_relu_0_split -> res3d_res3d_relu_0_split_1
I1202 19:58:30.014765 93725 net.cpp:122] Setting up res3d_res3d_relu_0_split
I1202 19:58:30.014771 93725 net.cpp:129] Top shape: 18 512 30 30 (8294400)
I1202 19:58:30.014775 93725 net.cpp:129] Top shape: 18 512 30 30 (8294400)
I1202 19:58:30.014777 93725 net.cpp:137] Memory required for data: 3612211272
I1202 19:58:30.014781 93725 layer_factory.hpp:77] Creating layer res4a_branch1
I1202 19:58:30.014789 93725 net.cpp:84] Creating Layer res4a_branch1
I1202 19:58:30.014792 93725 net.cpp:406] res4a_branch1 <- res3d_res3d_relu_0_split_0
I1202 19:58:30.014797 93725 net.cpp:380] res4a_branch1 -> res4a_branch1
I1202 19:58:30.020071 93725 net.cpp:122] Setting up res4a_branch1
I1202 19:58:30.020083 93725 net.cpp:129] Top shape: 18 1024 15 15 (4147200)
I1202 19:58:30.020087 93725 net.cpp:137] Memory required for data: 3628800072
I1202 19:58:30.020092 93725 layer_factory.hpp:77] Creating layer bn4a_branch1
I1202 19:58:30.020097 93725 net.cpp:84] Creating Layer bn4a_branch1
I1202 19:58:30.020100 93725 net.cpp:406] bn4a_branch1 <- res4a_branch1
I1202 19:58:30.020107 93725 net.cpp:367] bn4a_branch1 -> res4a_branch1 (in-place)
I1202 19:58:30.020257 93725 net.cpp:122] Setting up bn4a_branch1
I1202 19:58:30.020268 93725 net.cpp:129] Top shape: 18 1024 15 15 (4147200)
I1202 19:58:30.020277 93725 net.cpp:137] Memory required for data: 3645388872
I1202 19:58:30.020282 93725 layer_factory.hpp:77] Creating layer scale4a_branch1
I1202 19:58:30.020287 93725 net.cpp:84] Creating Layer scale4a_branch1
I1202 19:58:30.020290 93725 net.cpp:406] scale4a_branch1 <- res4a_branch1
I1202 19:58:30.020295 93725 net.cpp:367] scale4a_branch1 -> res4a_branch1 (in-place)
I1202 19:58:30.020324 93725 layer_factory.hpp:77] Creating layer scale4a_branch1
I1202 19:58:30.020406 93725 net.cpp:122] Setting up scale4a_branch1
I1202 19:58:30.020413 93725 net.cpp:129] Top shape: 18 1024 15 15 (4147200)
I1202 19:58:30.020416 93725 net.cpp:137] Memory required for data: 3661977672
I1202 19:58:30.020421 93725 layer_factory.hpp:77] Creating layer res4a_branch2a
I1202 19:58:30.020429 93725 net.cpp:84] Creating Layer res4a_branch2a
I1202 19:58:30.020432 93725 net.cpp:406] res4a_branch2a <- res3d_res3d_relu_0_split_1
I1202 19:58:30.020438 93725 net.cpp:380] res4a_branch2a -> res4a_branch2a
I1202 19:58:30.021627 93725 net.cpp:122] Setting up res4a_branch2a
I1202 19:58:30.021636 93725 net.cpp:129] Top shape: 18 256 15 15 (1036800)
I1202 19:58:30.021639 93725 net.cpp:137] Memory required for data: 3666124872
I1202 19:58:30.021644 93725 layer_factory.hpp:77] Creating layer bn4a_branch2a
I1202 19:58:30.021648 93725 net.cpp:84] Creating Layer bn4a_branch2a
I1202 19:58:30.021652 93725 net.cpp:406] bn4a_branch2a <- res4a_branch2a
I1202 19:58:30.021656 93725 net.cpp:367] bn4a_branch2a -> res4a_branch2a (in-place)
I1202 19:58:30.021790 93725 net.cpp:122] Setting up bn4a_branch2a
I1202 19:58:30.021795 93725 net.cpp:129] Top shape: 18 256 15 15 (1036800)
I1202 19:58:30.021798 93725 net.cpp:137] Memory required for data: 3670272072
I1202 19:58:30.021803 93725 layer_factory.hpp:77] Creating layer scale4a_branch2a
I1202 19:58:30.021808 93725 net.cpp:84] Creating Layer scale4a_branch2a
I1202 19:58:30.021811 93725 net.cpp:406] scale4a_branch2a <- res4a_branch2a
I1202 19:58:30.021816 93725 net.cpp:367] scale4a_branch2a -> res4a_branch2a (in-place)
I1202 19:58:30.021845 93725 layer_factory.hpp:77] Creating layer scale4a_branch2a
I1202 19:58:30.021922 93725 net.cpp:122] Setting up scale4a_branch2a
I1202 19:58:30.021929 93725 net.cpp:129] Top shape: 18 256 15 15 (1036800)
I1202 19:58:30.021930 93725 net.cpp:137] Memory required for data: 3674419272
I1202 19:58:30.021935 93725 layer_factory.hpp:77] Creating layer res4a_branch2a_relu
I1202 19:58:30.021942 93725 net.cpp:84] Creating Layer res4a_branch2a_relu
I1202 19:58:30.021945 93725 net.cpp:406] res4a_branch2a_relu <- res4a_branch2a
I1202 19:58:30.021950 93725 net.cpp:367] res4a_branch2a_relu -> res4a_branch2a (in-place)
I1202 19:58:30.021953 93725 net.cpp:122] Setting up res4a_branch2a_relu
I1202 19:58:30.021958 93725 net.cpp:129] Top shape: 18 256 15 15 (1036800)
I1202 19:58:30.021960 93725 net.cpp:137] Memory required for data: 3678566472
I1202 19:58:30.021965 93725 layer_factory.hpp:77] Creating layer res4a_branch2b
I1202 19:58:30.021973 93725 net.cpp:84] Creating Layer res4a_branch2b
I1202 19:58:30.021977 93725 net.cpp:406] res4a_branch2b <- res4a_branch2a
I1202 19:58:30.021983 93725 net.cpp:380] res4a_branch2b -> res4a_branch2b
I1202 19:58:30.027832 93725 net.cpp:122] Setting up res4a_branch2b
I1202 19:58:30.027843 93725 net.cpp:129] Top shape: 18 256 15 15 (1036800)
I1202 19:58:30.027846 93725 net.cpp:137] Memory required for data: 3682713672
I1202 19:58:30.027850 93725 layer_factory.hpp:77] Creating layer bn4a_branch2b
I1202 19:58:30.027856 93725 net.cpp:84] Creating Layer bn4a_branch2b
I1202 19:58:30.027859 93725 net.cpp:406] bn4a_branch2b <- res4a_branch2b
I1202 19:58:30.027864 93725 net.cpp:367] bn4a_branch2b -> res4a_branch2b (in-place)
I1202 19:58:30.028002 93725 net.cpp:122] Setting up bn4a_branch2b
I1202 19:58:30.028008 93725 net.cpp:129] Top shape: 18 256 15 15 (1036800)
I1202 19:58:30.028012 93725 net.cpp:137] Memory required for data: 3686860872
I1202 19:58:30.028017 93725 layer_factory.hpp:77] Creating layer scale4a_branch2b
I1202 19:58:30.028028 93725 net.cpp:84] Creating Layer scale4a_branch2b
I1202 19:58:30.028038 93725 net.cpp:406] scale4a_branch2b <- res4a_branch2b
I1202 19:58:30.028043 93725 net.cpp:367] scale4a_branch2b -> res4a_branch2b (in-place)
I1202 19:58:30.028075 93725 layer_factory.hpp:77] Creating layer scale4a_branch2b
I1202 19:58:30.028156 93725 net.cpp:122] Setting up scale4a_branch2b
I1202 19:58:30.028162 93725 net.cpp:129] Top shape: 18 256 15 15 (1036800)
I1202 19:58:30.028165 93725 net.cpp:137] Memory required for data: 3691008072
I1202 19:58:30.028170 93725 layer_factory.hpp:77] Creating layer res4a_branch2b_relu
I1202 19:58:30.028174 93725 net.cpp:84] Creating Layer res4a_branch2b_relu
I1202 19:58:30.028177 93725 net.cpp:406] res4a_branch2b_relu <- res4a_branch2b
I1202 19:58:30.028183 93725 net.cpp:367] res4a_branch2b_relu -> res4a_branch2b (in-place)
I1202 19:58:30.028188 93725 net.cpp:122] Setting up res4a_branch2b_relu
I1202 19:58:30.028192 93725 net.cpp:129] Top shape: 18 256 15 15 (1036800)
I1202 19:58:30.028195 93725 net.cpp:137] Memory required for data: 3695155272
I1202 19:58:30.028199 93725 layer_factory.hpp:77] Creating layer res4a_branch2c
I1202 19:58:30.028206 93725 net.cpp:84] Creating Layer res4a_branch2c
I1202 19:58:30.028210 93725 net.cpp:406] res4a_branch2c <- res4a_branch2b
I1202 19:58:30.028215 93725 net.cpp:380] res4a_branch2c -> res4a_branch2c
I1202 19:58:30.030962 93725 net.cpp:122] Setting up res4a_branch2c
I1202 19:58:30.030973 93725 net.cpp:129] Top shape: 18 1024 15 15 (4147200)
I1202 19:58:30.030977 93725 net.cpp:137] Memory required for data: 3711744072
I1202 19:58:30.030982 93725 layer_factory.hpp:77] Creating layer bn4a_branch2c
I1202 19:58:30.030987 93725 net.cpp:84] Creating Layer bn4a_branch2c
I1202 19:58:30.030992 93725 net.cpp:406] bn4a_branch2c <- res4a_branch2c
I1202 19:58:30.030997 93725 net.cpp:367] bn4a_branch2c -> res4a_branch2c (in-place)
I1202 19:58:30.031137 93725 net.cpp:122] Setting up bn4a_branch2c
I1202 19:58:30.031143 93725 net.cpp:129] Top shape: 18 1024 15 15 (4147200)
I1202 19:58:30.031147 93725 net.cpp:137] Memory required for data: 3728332872
I1202 19:58:30.031152 93725 layer_factory.hpp:77] Creating layer scale4a_branch2c
I1202 19:58:30.031157 93725 net.cpp:84] Creating Layer scale4a_branch2c
I1202 19:58:30.031160 93725 net.cpp:406] scale4a_branch2c <- res4a_branch2c
I1202 19:58:30.031167 93725 net.cpp:367] scale4a_branch2c -> res4a_branch2c (in-place)
I1202 19:58:30.031194 93725 layer_factory.hpp:77] Creating layer scale4a_branch2c
I1202 19:58:30.031282 93725 net.cpp:122] Setting up scale4a_branch2c
I1202 19:58:30.031288 93725 net.cpp:129] Top shape: 18 1024 15 15 (4147200)
I1202 19:58:30.031291 93725 net.cpp:137] Memory required for data: 3744921672
I1202 19:58:30.031296 93725 layer_factory.hpp:77] Creating layer res4a
I1202 19:58:30.031302 93725 net.cpp:84] Creating Layer res4a
I1202 19:58:30.031306 93725 net.cpp:406] res4a <- res4a_branch1
I1202 19:58:30.031311 93725 net.cpp:406] res4a <- res4a_branch2c
I1202 19:58:30.031314 93725 net.cpp:380] res4a -> res4a
I1202 19:58:30.031338 93725 net.cpp:122] Setting up res4a
I1202 19:58:30.031345 93725 net.cpp:129] Top shape: 18 1024 15 15 (4147200)
I1202 19:58:30.031348 93725 net.cpp:137] Memory required for data: 3761510472
I1202 19:58:30.031352 93725 layer_factory.hpp:77] Creating layer res4a_relu
I1202 19:58:30.031358 93725 net.cpp:84] Creating Layer res4a_relu
I1202 19:58:30.031360 93725 net.cpp:406] res4a_relu <- res4a
I1202 19:58:30.031366 93725 net.cpp:367] res4a_relu -> res4a (in-place)
I1202 19:58:30.031371 93725 net.cpp:122] Setting up res4a_relu
I1202 19:58:30.031374 93725 net.cpp:129] Top shape: 18 1024 15 15 (4147200)
I1202 19:58:30.031378 93725 net.cpp:137] Memory required for data: 3778099272
I1202 19:58:30.031381 93725 layer_factory.hpp:77] Creating layer res4a_res4a_relu_0_split
I1202 19:58:30.031385 93725 net.cpp:84] Creating Layer res4a_res4a_relu_0_split
I1202 19:58:30.031388 93725 net.cpp:406] res4a_res4a_relu_0_split <- res4a
I1202 19:58:30.031392 93725 net.cpp:380] res4a_res4a_relu_0_split -> res4a_res4a_relu_0_split_0
I1202 19:58:30.031409 93725 net.cpp:380] res4a_res4a_relu_0_split -> res4a_res4a_relu_0_split_1
I1202 19:58:30.031435 93725 net.cpp:122] Setting up res4a_res4a_relu_0_split
I1202 19:58:30.031440 93725 net.cpp:129] Top shape: 18 1024 15 15 (4147200)
I1202 19:58:30.031443 93725 net.cpp:129] Top shape: 18 1024 15 15 (4147200)
I1202 19:58:30.031446 93725 net.cpp:137] Memory required for data: 3811276872
I1202 19:58:30.031450 93725 layer_factory.hpp:77] Creating layer res4b_branch2a
I1202 19:58:30.031469 93725 net.cpp:84] Creating Layer res4b_branch2a
I1202 19:58:30.031474 93725 net.cpp:406] res4b_branch2a <- res4a_res4a_relu_0_split_0
I1202 19:58:30.031479 93725 net.cpp:380] res4b_branch2a -> res4b_branch2a
I1202 19:58:30.034236 93725 net.cpp:122] Setting up res4b_branch2a
I1202 19:58:30.034247 93725 net.cpp:129] Top shape: 18 256 15 15 (1036800)
I1202 19:58:30.034250 93725 net.cpp:137] Memory required for data: 3815424072
I1202 19:58:30.034256 93725 layer_factory.hpp:77] Creating layer bn4b_branch2a
I1202 19:58:30.034263 93725 net.cpp:84] Creating Layer bn4b_branch2a
I1202 19:58:30.034266 93725 net.cpp:406] bn4b_branch2a <- res4b_branch2a
I1202 19:58:30.034271 93725 net.cpp:367] bn4b_branch2a -> res4b_branch2a (in-place)
I1202 19:58:30.034411 93725 net.cpp:122] Setting up bn4b_branch2a
I1202 19:58:30.034417 93725 net.cpp:129] Top shape: 18 256 15 15 (1036800)
I1202 19:58:30.034420 93725 net.cpp:137] Memory required for data: 3819571272
I1202 19:58:30.034427 93725 layer_factory.hpp:77] Creating layer scale4b_branch2a
I1202 19:58:30.034435 93725 net.cpp:84] Creating Layer scale4b_branch2a
I1202 19:58:30.034438 93725 net.cpp:406] scale4b_branch2a <- res4b_branch2a
I1202 19:58:30.034442 93725 net.cpp:367] scale4b_branch2a -> res4b_branch2a (in-place)
I1202 19:58:30.034473 93725 layer_factory.hpp:77] Creating layer scale4b_branch2a
I1202 19:58:30.034555 93725 net.cpp:122] Setting up scale4b_branch2a
I1202 19:58:30.034562 93725 net.cpp:129] Top shape: 18 256 15 15 (1036800)
I1202 19:58:30.034564 93725 net.cpp:137] Memory required for data: 3823718472
I1202 19:58:30.034569 93725 layer_factory.hpp:77] Creating layer res4b_branch2a_relu
I1202 19:58:30.034574 93725 net.cpp:84] Creating Layer res4b_branch2a_relu
I1202 19:58:30.034577 93725 net.cpp:406] res4b_branch2a_relu <- res4b_branch2a
I1202 19:58:30.034582 93725 net.cpp:367] res4b_branch2a_relu -> res4b_branch2a (in-place)
I1202 19:58:30.034586 93725 net.cpp:122] Setting up res4b_branch2a_relu
I1202 19:58:30.034591 93725 net.cpp:129] Top shape: 18 256 15 15 (1036800)
I1202 19:58:30.034593 93725 net.cpp:137] Memory required for data: 3827865672
I1202 19:58:30.034596 93725 layer_factory.hpp:77] Creating layer res4b_branch2b
I1202 19:58:30.034605 93725 net.cpp:84] Creating Layer res4b_branch2b
I1202 19:58:30.034607 93725 net.cpp:406] res4b_branch2b <- res4b_branch2a
I1202 19:58:30.034612 93725 net.cpp:380] res4b_branch2b -> res4b_branch2b
I1202 19:58:30.040439 93725 net.cpp:122] Setting up res4b_branch2b
I1202 19:58:30.040452 93725 net.cpp:129] Top shape: 18 256 15 15 (1036800)
I1202 19:58:30.040454 93725 net.cpp:137] Memory required for data: 3832012872
I1202 19:58:30.040459 93725 layer_factory.hpp:77] Creating layer bn4b_branch2b
I1202 19:58:30.040465 93725 net.cpp:84] Creating Layer bn4b_branch2b
I1202 19:58:30.040469 93725 net.cpp:406] bn4b_branch2b <- res4b_branch2b
I1202 19:58:30.040474 93725 net.cpp:367] bn4b_branch2b -> res4b_branch2b (in-place)
I1202 19:58:30.040614 93725 net.cpp:122] Setting up bn4b_branch2b
I1202 19:58:30.040621 93725 net.cpp:129] Top shape: 18 256 15 15 (1036800)
I1202 19:58:30.040623 93725 net.cpp:137] Memory required for data: 3836160072
I1202 19:58:30.040630 93725 layer_factory.hpp:77] Creating layer scale4b_branch2b
I1202 19:58:30.040635 93725 net.cpp:84] Creating Layer scale4b_branch2b
I1202 19:58:30.040638 93725 net.cpp:406] scale4b_branch2b <- res4b_branch2b
I1202 19:58:30.040644 93725 net.cpp:367] scale4b_branch2b -> res4b_branch2b (in-place)
I1202 19:58:30.040673 93725 layer_factory.hpp:77] Creating layer scale4b_branch2b
I1202 19:58:30.040756 93725 net.cpp:122] Setting up scale4b_branch2b
I1202 19:58:30.040771 93725 net.cpp:129] Top shape: 18 256 15 15 (1036800)
I1202 19:58:30.040773 93725 net.cpp:137] Memory required for data: 3840307272
I1202 19:58:30.040778 93725 layer_factory.hpp:77] Creating layer res4b_branch2b_relu
I1202 19:58:30.040782 93725 net.cpp:84] Creating Layer res4b_branch2b_relu
I1202 19:58:30.040786 93725 net.cpp:406] res4b_branch2b_relu <- res4b_branch2b
I1202 19:58:30.040789 93725 net.cpp:367] res4b_branch2b_relu -> res4b_branch2b (in-place)
I1202 19:58:30.040794 93725 net.cpp:122] Setting up res4b_branch2b_relu
I1202 19:58:30.040798 93725 net.cpp:129] Top shape: 18 256 15 15 (1036800)
I1202 19:58:30.040802 93725 net.cpp:137] Memory required for data: 3844454472
I1202 19:58:30.040804 93725 layer_factory.hpp:77] Creating layer res4b_branch2c
I1202 19:58:30.040812 93725 net.cpp:84] Creating Layer res4b_branch2c
I1202 19:58:30.040815 93725 net.cpp:406] res4b_branch2c <- res4b_branch2b
I1202 19:58:30.040822 93725 net.cpp:380] res4b_branch2c -> res4b_branch2c
I1202 19:58:30.043572 93725 net.cpp:122] Setting up res4b_branch2c
I1202 19:58:30.043584 93725 net.cpp:129] Top shape: 18 1024 15 15 (4147200)
I1202 19:58:30.043586 93725 net.cpp:137] Memory required for data: 3861043272
I1202 19:58:30.043591 93725 layer_factory.hpp:77] Creating layer bn4b_branch2c
I1202 19:58:30.043596 93725 net.cpp:84] Creating Layer bn4b_branch2c
I1202 19:58:30.043601 93725 net.cpp:406] bn4b_branch2c <- res4b_branch2c
I1202 19:58:30.043606 93725 net.cpp:367] bn4b_branch2c -> res4b_branch2c (in-place)
I1202 19:58:30.043751 93725 net.cpp:122] Setting up bn4b_branch2c
I1202 19:58:30.043757 93725 net.cpp:129] Top shape: 18 1024 15 15 (4147200)
I1202 19:58:30.043761 93725 net.cpp:137] Memory required for data: 3877632072
I1202 19:58:30.043767 93725 layer_factory.hpp:77] Creating layer scale4b_branch2c
I1202 19:58:30.043772 93725 net.cpp:84] Creating Layer scale4b_branch2c
I1202 19:58:30.043776 93725 net.cpp:406] scale4b_branch2c <- res4b_branch2c
I1202 19:58:30.043781 93725 net.cpp:367] scale4b_branch2c -> res4b_branch2c (in-place)
I1202 19:58:30.043810 93725 layer_factory.hpp:77] Creating layer scale4b_branch2c
I1202 19:58:30.043897 93725 net.cpp:122] Setting up scale4b_branch2c
I1202 19:58:30.043903 93725 net.cpp:129] Top shape: 18 1024 15 15 (4147200)
I1202 19:58:30.043907 93725 net.cpp:137] Memory required for data: 3894220872
I1202 19:58:30.043911 93725 layer_factory.hpp:77] Creating layer res4b
I1202 19:58:30.043916 93725 net.cpp:84] Creating Layer res4b
I1202 19:58:30.043920 93725 net.cpp:406] res4b <- res4a_res4a_relu_0_split_1
I1202 19:58:30.043925 93725 net.cpp:406] res4b <- res4b_branch2c
I1202 19:58:30.043931 93725 net.cpp:380] res4b -> res4b
I1202 19:58:30.043947 93725 net.cpp:122] Setting up res4b
I1202 19:58:30.043952 93725 net.cpp:129] Top shape: 18 1024 15 15 (4147200)
I1202 19:58:30.043956 93725 net.cpp:137] Memory required for data: 3910809672
I1202 19:58:30.043958 93725 layer_factory.hpp:77] Creating layer res4b_relu
I1202 19:58:30.043964 93725 net.cpp:84] Creating Layer res4b_relu
I1202 19:58:30.043967 93725 net.cpp:406] res4b_relu <- res4b
I1202 19:58:30.043972 93725 net.cpp:367] res4b_relu -> res4b (in-place)
I1202 19:58:30.043977 93725 net.cpp:122] Setting up res4b_relu
I1202 19:58:30.043980 93725 net.cpp:129] Top shape: 18 1024 15 15 (4147200)
I1202 19:58:30.043983 93725 net.cpp:137] Memory required for data: 3927398472
I1202 19:58:30.043987 93725 layer_factory.hpp:77] Creating layer res4b_res4b_relu_0_split
I1202 19:58:30.043992 93725 net.cpp:84] Creating Layer res4b_res4b_relu_0_split
I1202 19:58:30.043995 93725 net.cpp:406] res4b_res4b_relu_0_split <- res4b
I1202 19:58:30.043999 93725 net.cpp:380] res4b_res4b_relu_0_split -> res4b_res4b_relu_0_split_0
I1202 19:58:30.044005 93725 net.cpp:380] res4b_res4b_relu_0_split -> res4b_res4b_relu_0_split_1
I1202 19:58:30.044033 93725 net.cpp:122] Setting up res4b_res4b_relu_0_split
I1202 19:58:30.044037 93725 net.cpp:129] Top shape: 18 1024 15 15 (4147200)
I1202 19:58:30.044044 93725 net.cpp:129] Top shape: 18 1024 15 15 (4147200)
I1202 19:58:30.044054 93725 net.cpp:137] Memory required for data: 3960576072
I1202 19:58:30.044057 93725 layer_factory.hpp:77] Creating layer res4c_branch2a
I1202 19:58:30.044065 93725 net.cpp:84] Creating Layer res4c_branch2a
I1202 19:58:30.044070 93725 net.cpp:406] res4c_branch2a <- res4b_res4b_relu_0_split_0
I1202 19:58:30.044075 93725 net.cpp:380] res4c_branch2a -> res4c_branch2a
I1202 19:58:30.046819 93725 net.cpp:122] Setting up res4c_branch2a
I1202 19:58:30.046830 93725 net.cpp:129] Top shape: 18 256 15 15 (1036800)
I1202 19:58:30.046833 93725 net.cpp:137] Memory required for data: 3964723272
I1202 19:58:30.046838 93725 layer_factory.hpp:77] Creating layer bn4c_branch2a
I1202 19:58:30.046844 93725 net.cpp:84] Creating Layer bn4c_branch2a
I1202 19:58:30.046846 93725 net.cpp:406] bn4c_branch2a <- res4c_branch2a
I1202 19:58:30.046851 93725 net.cpp:367] bn4c_branch2a -> res4c_branch2a (in-place)
I1202 19:58:30.046996 93725 net.cpp:122] Setting up bn4c_branch2a
I1202 19:58:30.047003 93725 net.cpp:129] Top shape: 18 256 15 15 (1036800)
I1202 19:58:30.047004 93725 net.cpp:137] Memory required for data: 3968870472
I1202 19:58:30.047010 93725 layer_factory.hpp:77] Creating layer scale4c_branch2a
I1202 19:58:30.047015 93725 net.cpp:84] Creating Layer scale4c_branch2a
I1202 19:58:30.047019 93725 net.cpp:406] scale4c_branch2a <- res4c_branch2a
I1202 19:58:30.047022 93725 net.cpp:367] scale4c_branch2a -> res4c_branch2a (in-place)
I1202 19:58:30.047055 93725 layer_factory.hpp:77] Creating layer scale4c_branch2a
I1202 19:58:30.047135 93725 net.cpp:122] Setting up scale4c_branch2a
I1202 19:58:30.047142 93725 net.cpp:129] Top shape: 18 256 15 15 (1036800)
I1202 19:58:30.047143 93725 net.cpp:137] Memory required for data: 3973017672
I1202 19:58:30.047148 93725 layer_factory.hpp:77] Creating layer res4c_branch2a_relu
I1202 19:58:30.047158 93725 net.cpp:84] Creating Layer res4c_branch2a_relu
I1202 19:58:30.047160 93725 net.cpp:406] res4c_branch2a_relu <- res4c_branch2a
I1202 19:58:30.047164 93725 net.cpp:367] res4c_branch2a_relu -> res4c_branch2a (in-place)
I1202 19:58:30.047170 93725 net.cpp:122] Setting up res4c_branch2a_relu
I1202 19:58:30.047175 93725 net.cpp:129] Top shape: 18 256 15 15 (1036800)
I1202 19:58:30.047178 93725 net.cpp:137] Memory required for data: 3977164872
I1202 19:58:30.047183 93725 layer_factory.hpp:77] Creating layer res4c_branch2b
I1202 19:58:30.047188 93725 net.cpp:84] Creating Layer res4c_branch2b
I1202 19:58:30.047193 93725 net.cpp:406] res4c_branch2b <- res4c_branch2a
I1202 19:58:30.047197 93725 net.cpp:380] res4c_branch2b -> res4c_branch2b
I1202 19:58:30.055162 93725 net.cpp:122] Setting up res4c_branch2b
I1202 19:58:30.055178 93725 net.cpp:129] Top shape: 18 256 15 15 (1036800)
I1202 19:58:30.055182 93725 net.cpp:137] Memory required for data: 3981312072
I1202 19:58:30.055188 93725 layer_factory.hpp:77] Creating layer bn4c_branch2b
I1202 19:58:30.055200 93725 net.cpp:84] Creating Layer bn4c_branch2b
I1202 19:58:30.055204 93725 net.cpp:406] bn4c_branch2b <- res4c_branch2b
I1202 19:58:30.055210 93725 net.cpp:367] bn4c_branch2b -> res4c_branch2b (in-place)
I1202 19:58:30.055379 93725 net.cpp:122] Setting up bn4c_branch2b
I1202 19:58:30.055387 93725 net.cpp:129] Top shape: 18 256 15 15 (1036800)
I1202 19:58:30.055389 93725 net.cpp:137] Memory required for data: 3985459272
I1202 19:58:30.055397 93725 layer_factory.hpp:77] Creating layer scale4c_branch2b
I1202 19:58:30.055403 93725 net.cpp:84] Creating Layer scale4c_branch2b
I1202 19:58:30.055407 93725 net.cpp:406] scale4c_branch2b <- res4c_branch2b
I1202 19:58:30.055413 93725 net.cpp:367] scale4c_branch2b -> res4c_branch2b (in-place)
I1202 19:58:30.055449 93725 layer_factory.hpp:77] Creating layer scale4c_branch2b
I1202 19:58:30.055531 93725 net.cpp:122] Setting up scale4c_branch2b
I1202 19:58:30.055536 93725 net.cpp:129] Top shape: 18 256 15 15 (1036800)
I1202 19:58:30.055539 93725 net.cpp:137] Memory required for data: 3989606472
I1202 19:58:30.055544 93725 layer_factory.hpp:77] Creating layer res4c_branch2b_relu
I1202 19:58:30.055554 93725 net.cpp:84] Creating Layer res4c_branch2b_relu
I1202 19:58:30.055562 93725 net.cpp:406] res4c_branch2b_relu <- res4c_branch2b
I1202 19:58:30.055567 93725 net.cpp:367] res4c_branch2b_relu -> res4c_branch2b (in-place)
I1202 19:58:30.055572 93725 net.cpp:122] Setting up res4c_branch2b_relu
I1202 19:58:30.055577 93725 net.cpp:129] Top shape: 18 256 15 15 (1036800)
I1202 19:58:30.055578 93725 net.cpp:137] Memory required for data: 3993753672
I1202 19:58:30.055583 93725 layer_factory.hpp:77] Creating layer res4c_branch2c
I1202 19:58:30.055591 93725 net.cpp:84] Creating Layer res4c_branch2c
I1202 19:58:30.055594 93725 net.cpp:406] res4c_branch2c <- res4c_branch2b
I1202 19:58:30.055600 93725 net.cpp:380] res4c_branch2c -> res4c_branch2c
I1202 19:58:30.058395 93725 net.cpp:122] Setting up res4c_branch2c
I1202 19:58:30.058406 93725 net.cpp:129] Top shape: 18 1024 15 15 (4147200)
I1202 19:58:30.058409 93725 net.cpp:137] Memory required for data: 4010342472
I1202 19:58:30.058414 93725 layer_factory.hpp:77] Creating layer bn4c_branch2c
I1202 19:58:30.058419 93725 net.cpp:84] Creating Layer bn4c_branch2c
I1202 19:58:30.058423 93725 net.cpp:406] bn4c_branch2c <- res4c_branch2c
I1202 19:58:30.058429 93725 net.cpp:367] bn4c_branch2c -> res4c_branch2c (in-place)
I1202 19:58:30.058580 93725 net.cpp:122] Setting up bn4c_branch2c
I1202 19:58:30.058586 93725 net.cpp:129] Top shape: 18 1024 15 15 (4147200)
I1202 19:58:30.058590 93725 net.cpp:137] Memory required for data: 4026931272
I1202 19:58:30.058595 93725 layer_factory.hpp:77] Creating layer scale4c_branch2c
I1202 19:58:30.058600 93725 net.cpp:84] Creating Layer scale4c_branch2c
I1202 19:58:30.058604 93725 net.cpp:406] scale4c_branch2c <- res4c_branch2c
I1202 19:58:30.058609 93725 net.cpp:367] scale4c_branch2c -> res4c_branch2c (in-place)
I1202 19:58:30.058640 93725 layer_factory.hpp:77] Creating layer scale4c_branch2c
I1202 19:58:30.058727 93725 net.cpp:122] Setting up scale4c_branch2c
I1202 19:58:30.058733 93725 net.cpp:129] Top shape: 18 1024 15 15 (4147200)
I1202 19:58:30.058737 93725 net.cpp:137] Memory required for data: 4043520072
I1202 19:58:30.058742 93725 layer_factory.hpp:77] Creating layer res4c
I1202 19:58:30.058748 93725 net.cpp:84] Creating Layer res4c
I1202 19:58:30.058751 93725 net.cpp:406] res4c <- res4b_res4b_relu_0_split_1
I1202 19:58:30.058755 93725 net.cpp:406] res4c <- res4c_branch2c
I1202 19:58:30.058761 93725 net.cpp:380] res4c -> res4c
I1202 19:58:30.058779 93725 net.cpp:122] Setting up res4c
I1202 19:58:30.058784 93725 net.cpp:129] Top shape: 18 1024 15 15 (4147200)
I1202 19:58:30.058789 93725 net.cpp:137] Memory required for data: 4060108872
I1202 19:58:30.058792 93725 layer_factory.hpp:77] Creating layer res4c_relu
I1202 19:58:30.058799 93725 net.cpp:84] Creating Layer res4c_relu
I1202 19:58:30.058801 93725 net.cpp:406] res4c_relu <- res4c
I1202 19:58:30.058806 93725 net.cpp:367] res4c_relu -> res4c (in-place)
I1202 19:58:30.058810 93725 net.cpp:122] Setting up res4c_relu
I1202 19:58:30.058815 93725 net.cpp:129] Top shape: 18 1024 15 15 (4147200)
I1202 19:58:30.058816 93725 net.cpp:137] Memory required for data: 4076697672
I1202 19:58:30.058820 93725 layer_factory.hpp:77] Creating layer res4c_res4c_relu_0_split
I1202 19:58:30.058826 93725 net.cpp:84] Creating Layer res4c_res4c_relu_0_split
I1202 19:58:30.058830 93725 net.cpp:406] res4c_res4c_relu_0_split <- res4c
I1202 19:58:30.058833 93725 net.cpp:380] res4c_res4c_relu_0_split -> res4c_res4c_relu_0_split_0
I1202 19:58:30.058840 93725 net.cpp:380] res4c_res4c_relu_0_split -> res4c_res4c_relu_0_split_1
I1202 19:58:30.058866 93725 net.cpp:122] Setting up res4c_res4c_relu_0_split
I1202 19:58:30.058871 93725 net.cpp:129] Top shape: 18 1024 15 15 (4147200)
I1202 19:58:30.058876 93725 net.cpp:129] Top shape: 18 1024 15 15 (4147200)
I1202 19:58:30.058878 93725 net.cpp:137] Memory required for data: 4109875272
I1202 19:58:30.058881 93725 layer_factory.hpp:77] Creating layer res4d_branch2a
I1202 19:58:30.058888 93725 net.cpp:84] Creating Layer res4d_branch2a
I1202 19:58:30.058897 93725 net.cpp:406] res4d_branch2a <- res4c_res4c_relu_0_split_0
I1202 19:58:30.058907 93725 net.cpp:380] res4d_branch2a -> res4d_branch2a
I1202 19:58:30.061667 93725 net.cpp:122] Setting up res4d_branch2a
I1202 19:58:30.061679 93725 net.cpp:129] Top shape: 18 256 15 15 (1036800)
I1202 19:58:30.061682 93725 net.cpp:137] Memory required for data: 4114022472
I1202 19:58:30.061687 93725 layer_factory.hpp:77] Creating layer bn4d_branch2a
I1202 19:58:30.061692 93725 net.cpp:84] Creating Layer bn4d_branch2a
I1202 19:58:30.061697 93725 net.cpp:406] bn4d_branch2a <- res4d_branch2a
I1202 19:58:30.061702 93725 net.cpp:367] bn4d_branch2a -> res4d_branch2a (in-place)
I1202 19:58:30.061847 93725 net.cpp:122] Setting up bn4d_branch2a
I1202 19:58:30.061853 93725 net.cpp:129] Top shape: 18 256 15 15 (1036800)
I1202 19:58:30.061856 93725 net.cpp:137] Memory required for data: 4118169672
I1202 19:58:30.061863 93725 layer_factory.hpp:77] Creating layer scale4d_branch2a
I1202 19:58:30.061869 93725 net.cpp:84] Creating Layer scale4d_branch2a
I1202 19:58:30.061872 93725 net.cpp:406] scale4d_branch2a <- res4d_branch2a
I1202 19:58:30.061877 93725 net.cpp:367] scale4d_branch2a -> res4d_branch2a (in-place)
I1202 19:58:30.061906 93725 layer_factory.hpp:77] Creating layer scale4d_branch2a
I1202 19:58:30.061990 93725 net.cpp:122] Setting up scale4d_branch2a
I1202 19:58:30.061996 93725 net.cpp:129] Top shape: 18 256 15 15 (1036800)
I1202 19:58:30.062000 93725 net.cpp:137] Memory required for data: 4122316872
I1202 19:58:30.062003 93725 layer_factory.hpp:77] Creating layer res4d_branch2a_relu
I1202 19:58:30.062008 93725 net.cpp:84] Creating Layer res4d_branch2a_relu
I1202 19:58:30.062011 93725 net.cpp:406] res4d_branch2a_relu <- res4d_branch2a
I1202 19:58:30.062017 93725 net.cpp:367] res4d_branch2a_relu -> res4d_branch2a (in-place)
I1202 19:58:30.062021 93725 net.cpp:122] Setting up res4d_branch2a_relu
I1202 19:58:30.062026 93725 net.cpp:129] Top shape: 18 256 15 15 (1036800)
I1202 19:58:30.062028 93725 net.cpp:137] Memory required for data: 4126464072
I1202 19:58:30.062031 93725 layer_factory.hpp:77] Creating layer res4d_branch2b
I1202 19:58:30.062037 93725 net.cpp:84] Creating Layer res4d_branch2b
I1202 19:58:30.062041 93725 net.cpp:406] res4d_branch2b <- res4d_branch2a
I1202 19:58:30.062047 93725 net.cpp:380] res4d_branch2b -> res4d_branch2b
I1202 19:58:30.067888 93725 net.cpp:122] Setting up res4d_branch2b
I1202 19:58:30.067899 93725 net.cpp:129] Top shape: 18 256 15 15 (1036800)
I1202 19:58:30.067903 93725 net.cpp:137] Memory required for data: 4130611272
I1202 19:58:30.067908 93725 layer_factory.hpp:77] Creating layer bn4d_branch2b
I1202 19:58:30.067914 93725 net.cpp:84] Creating Layer bn4d_branch2b
I1202 19:58:30.067916 93725 net.cpp:406] bn4d_branch2b <- res4d_branch2b
I1202 19:58:30.067922 93725 net.cpp:367] bn4d_branch2b -> res4d_branch2b (in-place)
I1202 19:58:30.068065 93725 net.cpp:122] Setting up bn4d_branch2b
I1202 19:58:30.068071 93725 net.cpp:129] Top shape: 18 256 15 15 (1036800)
I1202 19:58:30.068074 93725 net.cpp:137] Memory required for data: 4134758472
I1202 19:58:30.068081 93725 layer_factory.hpp:77] Creating layer scale4d_branch2b
I1202 19:58:30.068089 93725 net.cpp:84] Creating Layer scale4d_branch2b
I1202 19:58:30.068091 93725 net.cpp:406] scale4d_branch2b <- res4d_branch2b
I1202 19:58:30.068095 93725 net.cpp:367] scale4d_branch2b -> res4d_branch2b (in-place)
I1202 19:58:30.068127 93725 layer_factory.hpp:77] Creating layer scale4d_branch2b
I1202 19:58:30.068210 93725 net.cpp:122] Setting up scale4d_branch2b
I1202 19:58:30.068217 93725 net.cpp:129] Top shape: 18 256 15 15 (1036800)
I1202 19:58:30.068219 93725 net.cpp:137] Memory required for data: 4138905672
I1202 19:58:30.068224 93725 layer_factory.hpp:77] Creating layer res4d_branch2b_relu
I1202 19:58:30.068229 93725 net.cpp:84] Creating Layer res4d_branch2b_relu
I1202 19:58:30.068233 93725 net.cpp:406] res4d_branch2b_relu <- res4d_branch2b
I1202 19:58:30.068238 93725 net.cpp:367] res4d_branch2b_relu -> res4d_branch2b (in-place)
I1202 19:58:30.068246 93725 net.cpp:122] Setting up res4d_branch2b_relu
I1202 19:58:30.068256 93725 net.cpp:129] Top shape: 18 256 15 15 (1036800)
I1202 19:58:30.068259 93725 net.cpp:137] Memory required for data: 4143052872
I1202 19:58:30.068262 93725 layer_factory.hpp:77] Creating layer res4d_branch2c
I1202 19:58:30.068270 93725 net.cpp:84] Creating Layer res4d_branch2c
I1202 19:58:30.068274 93725 net.cpp:406] res4d_branch2c <- res4d_branch2b
I1202 19:58:30.068277 93725 net.cpp:380] res4d_branch2c -> res4d_branch2c
I1202 19:58:30.071027 93725 net.cpp:122] Setting up res4d_branch2c
I1202 19:58:30.071038 93725 net.cpp:129] Top shape: 18 1024 15 15 (4147200)
I1202 19:58:30.071041 93725 net.cpp:137] Memory required for data: 4159641672
I1202 19:58:30.071045 93725 layer_factory.hpp:77] Creating layer bn4d_branch2c
I1202 19:58:30.071053 93725 net.cpp:84] Creating Layer bn4d_branch2c
I1202 19:58:30.071058 93725 net.cpp:406] bn4d_branch2c <- res4d_branch2c
I1202 19:58:30.071061 93725 net.cpp:367] bn4d_branch2c -> res4d_branch2c (in-place)
I1202 19:58:30.071208 93725 net.cpp:122] Setting up bn4d_branch2c
I1202 19:58:30.071215 93725 net.cpp:129] Top shape: 18 1024 15 15 (4147200)
I1202 19:58:30.071218 93725 net.cpp:137] Memory required for data: 4176230472
I1202 19:58:30.071225 93725 layer_factory.hpp:77] Creating layer scale4d_branch2c
I1202 19:58:30.071230 93725 net.cpp:84] Creating Layer scale4d_branch2c
I1202 19:58:30.071233 93725 net.cpp:406] scale4d_branch2c <- res4d_branch2c
I1202 19:58:30.071239 93725 net.cpp:367] scale4d_branch2c -> res4d_branch2c (in-place)
I1202 19:58:30.071269 93725 layer_factory.hpp:77] Creating layer scale4d_branch2c
I1202 19:58:30.071360 93725 net.cpp:122] Setting up scale4d_branch2c
I1202 19:58:30.071369 93725 net.cpp:129] Top shape: 18 1024 15 15 (4147200)
I1202 19:58:30.071372 93725 net.cpp:137] Memory required for data: 4192819272
I1202 19:58:30.071377 93725 layer_factory.hpp:77] Creating layer res4d
I1202 19:58:30.071383 93725 net.cpp:84] Creating Layer res4d
I1202 19:58:30.071386 93725 net.cpp:406] res4d <- res4c_res4c_relu_0_split_1
I1202 19:58:30.071390 93725 net.cpp:406] res4d <- res4d_branch2c
I1202 19:58:30.071395 93725 net.cpp:380] res4d -> res4d
I1202 19:58:30.071414 93725 net.cpp:122] Setting up res4d
I1202 19:58:30.071419 93725 net.cpp:129] Top shape: 18 1024 15 15 (4147200)
I1202 19:58:30.071422 93725 net.cpp:137] Memory required for data: 4209408072
I1202 19:58:30.071425 93725 layer_factory.hpp:77] Creating layer res4d_relu
I1202 19:58:30.071430 93725 net.cpp:84] Creating Layer res4d_relu
I1202 19:58:30.071432 93725 net.cpp:406] res4d_relu <- res4d
I1202 19:58:30.071439 93725 net.cpp:367] res4d_relu -> res4d (in-place)
I1202 19:58:30.071444 93725 net.cpp:122] Setting up res4d_relu
I1202 19:58:30.071446 93725 net.cpp:129] Top shape: 18 1024 15 15 (4147200)
I1202 19:58:30.071449 93725 net.cpp:137] Memory required for data: 4225996872
I1202 19:58:30.071452 93725 layer_factory.hpp:77] Creating layer res4d_res4d_relu_0_split
I1202 19:58:30.071458 93725 net.cpp:84] Creating Layer res4d_res4d_relu_0_split
I1202 19:58:30.071461 93725 net.cpp:406] res4d_res4d_relu_0_split <- res4d
I1202 19:58:30.071466 93725 net.cpp:380] res4d_res4d_relu_0_split -> res4d_res4d_relu_0_split_0
I1202 19:58:30.071472 93725 net.cpp:380] res4d_res4d_relu_0_split -> res4d_res4d_relu_0_split_1
I1202 19:58:30.071497 93725 net.cpp:122] Setting up res4d_res4d_relu_0_split
I1202 19:58:30.071502 93725 net.cpp:129] Top shape: 18 1024 15 15 (4147200)
I1202 19:58:30.071506 93725 net.cpp:129] Top shape: 18 1024 15 15 (4147200)
I1202 19:58:30.071508 93725 net.cpp:137] Memory required for data: 4259174472
I1202 19:58:30.071512 93725 layer_factory.hpp:77] Creating layer res4e_branch2a
I1202 19:58:30.071523 93725 net.cpp:84] Creating Layer res4e_branch2a
I1202 19:58:30.071527 93725 net.cpp:406] res4e_branch2a <- res4d_res4d_relu_0_split_0
I1202 19:58:30.071532 93725 net.cpp:380] res4e_branch2a -> res4e_branch2a
I1202 19:58:30.074285 93725 net.cpp:122] Setting up res4e_branch2a
I1202 19:58:30.074295 93725 net.cpp:129] Top shape: 18 256 15 15 (1036800)
I1202 19:58:30.074302 93725 net.cpp:137] Memory required for data: 4263321672
I1202 19:58:30.074314 93725 layer_factory.hpp:77] Creating layer bn4e_branch2a
I1202 19:58:30.074322 93725 net.cpp:84] Creating Layer bn4e_branch2a
I1202 19:58:30.074326 93725 net.cpp:406] bn4e_branch2a <- res4e_branch2a
I1202 19:58:30.074331 93725 net.cpp:367] bn4e_branch2a -> res4e_branch2a (in-place)
I1202 19:58:30.074476 93725 net.cpp:122] Setting up bn4e_branch2a
I1202 19:58:30.074482 93725 net.cpp:129] Top shape: 18 256 15 15 (1036800)
I1202 19:58:30.074486 93725 net.cpp:137] Memory required for data: 4267468872
I1202 19:58:30.074491 93725 layer_factory.hpp:77] Creating layer scale4e_branch2a
I1202 19:58:30.074496 93725 net.cpp:84] Creating Layer scale4e_branch2a
I1202 19:58:30.074499 93725 net.cpp:406] scale4e_branch2a <- res4e_branch2a
I1202 19:58:30.074506 93725 net.cpp:367] scale4e_branch2a -> res4e_branch2a (in-place)
I1202 19:58:30.074535 93725 layer_factory.hpp:77] Creating layer scale4e_branch2a
I1202 19:58:30.074617 93725 net.cpp:122] Setting up scale4e_branch2a
I1202 19:58:30.074623 93725 net.cpp:129] Top shape: 18 256 15 15 (1036800)
I1202 19:58:30.074626 93725 net.cpp:137] Memory required for data: 4271616072
I1202 19:58:30.074631 93725 layer_factory.hpp:77] Creating layer res4e_branch2a_relu
I1202 19:58:30.074638 93725 net.cpp:84] Creating Layer res4e_branch2a_relu
I1202 19:58:30.074642 93725 net.cpp:406] res4e_branch2a_relu <- res4e_branch2a
I1202 19:58:30.074645 93725 net.cpp:367] res4e_branch2a_relu -> res4e_branch2a (in-place)
I1202 19:58:30.074651 93725 net.cpp:122] Setting up res4e_branch2a_relu
I1202 19:58:30.074654 93725 net.cpp:129] Top shape: 18 256 15 15 (1036800)
I1202 19:58:30.074657 93725 net.cpp:137] Memory required for data: 4275763272
I1202 19:58:30.074661 93725 layer_factory.hpp:77] Creating layer res4e_branch2b
I1202 19:58:30.074668 93725 net.cpp:84] Creating Layer res4e_branch2b
I1202 19:58:30.074672 93725 net.cpp:406] res4e_branch2b <- res4e_branch2a
I1202 19:58:30.074677 93725 net.cpp:380] res4e_branch2b -> res4e_branch2b
I1202 19:58:30.080528 93725 net.cpp:122] Setting up res4e_branch2b
I1202 19:58:30.080539 93725 net.cpp:129] Top shape: 18 256 15 15 (1036800)
I1202 19:58:30.080543 93725 net.cpp:137] Memory required for data: 4279910472
I1202 19:58:30.080546 93725 layer_factory.hpp:77] Creating layer bn4e_branch2b
I1202 19:58:30.080552 93725 net.cpp:84] Creating Layer bn4e_branch2b
I1202 19:58:30.080555 93725 net.cpp:406] bn4e_branch2b <- res4e_branch2b
I1202 19:58:30.080560 93725 net.cpp:367] bn4e_branch2b -> res4e_branch2b (in-place)
I1202 19:58:30.080710 93725 net.cpp:122] Setting up bn4e_branch2b
I1202 19:58:30.080716 93725 net.cpp:129] Top shape: 18 256 15 15 (1036800)
I1202 19:58:30.080719 93725 net.cpp:137] Memory required for data: 4284057672
I1202 19:58:30.080725 93725 layer_factory.hpp:77] Creating layer scale4e_branch2b
I1202 19:58:30.080730 93725 net.cpp:84] Creating Layer scale4e_branch2b
I1202 19:58:30.080734 93725 net.cpp:406] scale4e_branch2b <- res4e_branch2b
I1202 19:58:30.080737 93725 net.cpp:367] scale4e_branch2b -> res4e_branch2b (in-place)
I1202 19:58:30.080772 93725 layer_factory.hpp:77] Creating layer scale4e_branch2b
I1202 19:58:30.080858 93725 net.cpp:122] Setting up scale4e_branch2b
I1202 19:58:30.080864 93725 net.cpp:129] Top shape: 18 256 15 15 (1036800)
I1202 19:58:30.080868 93725 net.cpp:137] Memory required for data: 4288204872
I1202 19:58:30.080873 93725 layer_factory.hpp:77] Creating layer res4e_branch2b_relu
I1202 19:58:30.080879 93725 net.cpp:84] Creating Layer res4e_branch2b_relu
I1202 19:58:30.080883 93725 net.cpp:406] res4e_branch2b_relu <- res4e_branch2b
I1202 19:58:30.080886 93725 net.cpp:367] res4e_branch2b_relu -> res4e_branch2b (in-place)
I1202 19:58:30.080893 93725 net.cpp:122] Setting up res4e_branch2b_relu
I1202 19:58:30.080898 93725 net.cpp:129] Top shape: 18 256 15 15 (1036800)
I1202 19:58:30.080899 93725 net.cpp:137] Memory required for data: 4292352072
I1202 19:58:30.080904 93725 layer_factory.hpp:77] Creating layer res4e_branch2c
I1202 19:58:30.080914 93725 net.cpp:84] Creating Layer res4e_branch2c
I1202 19:58:30.080924 93725 net.cpp:406] res4e_branch2c <- res4e_branch2b
I1202 19:58:30.080930 93725 net.cpp:380] res4e_branch2c -> res4e_branch2c
I1202 19:58:30.083696 93725 net.cpp:122] Setting up res4e_branch2c
I1202 19:58:30.083709 93725 net.cpp:129] Top shape: 18 1024 15 15 (4147200)
I1202 19:58:30.083711 93725 net.cpp:137] Memory required for data: 4308940872
I1202 19:58:30.083715 93725 layer_factory.hpp:77] Creating layer bn4e_branch2c
I1202 19:58:30.083721 93725 net.cpp:84] Creating Layer bn4e_branch2c
I1202 19:58:30.083725 93725 net.cpp:406] bn4e_branch2c <- res4e_branch2c
I1202 19:58:30.083729 93725 net.cpp:367] bn4e_branch2c -> res4e_branch2c (in-place)
I1202 19:58:30.083878 93725 net.cpp:122] Setting up bn4e_branch2c
I1202 19:58:30.083884 93725 net.cpp:129] Top shape: 18 1024 15 15 (4147200)
I1202 19:58:30.083889 93725 net.cpp:137] Memory required for data: 4325529672
I1202 19:58:30.083894 93725 layer_factory.hpp:77] Creating layer scale4e_branch2c
I1202 19:58:30.083900 93725 net.cpp:84] Creating Layer scale4e_branch2c
I1202 19:58:30.083904 93725 net.cpp:406] scale4e_branch2c <- res4e_branch2c
I1202 19:58:30.083909 93725 net.cpp:367] scale4e_branch2c -> res4e_branch2c (in-place)
I1202 19:58:30.083940 93725 layer_factory.hpp:77] Creating layer scale4e_branch2c
I1202 19:58:30.084029 93725 net.cpp:122] Setting up scale4e_branch2c
I1202 19:58:30.084035 93725 net.cpp:129] Top shape: 18 1024 15 15 (4147200)
I1202 19:58:30.084039 93725 net.cpp:137] Memory required for data: 4342118472
I1202 19:58:30.084043 93725 layer_factory.hpp:77] Creating layer res4e
I1202 19:58:30.084049 93725 net.cpp:84] Creating Layer res4e
I1202 19:58:30.084053 93725 net.cpp:406] res4e <- res4d_res4d_relu_0_split_1
I1202 19:58:30.084058 93725 net.cpp:406] res4e <- res4e_branch2c
I1202 19:58:30.084064 93725 net.cpp:380] res4e -> res4e
I1202 19:58:30.084084 93725 net.cpp:122] Setting up res4e
I1202 19:58:30.084089 93725 net.cpp:129] Top shape: 18 1024 15 15 (4147200)
I1202 19:58:30.084091 93725 net.cpp:137] Memory required for data: 4358707272
I1202 19:58:30.084095 93725 layer_factory.hpp:77] Creating layer res4e_relu
I1202 19:58:30.084100 93725 net.cpp:84] Creating Layer res4e_relu
I1202 19:58:30.084102 93725 net.cpp:406] res4e_relu <- res4e
I1202 19:58:30.084107 93725 net.cpp:367] res4e_relu -> res4e (in-place)
I1202 19:58:30.084112 93725 net.cpp:122] Setting up res4e_relu
I1202 19:58:30.084116 93725 net.cpp:129] Top shape: 18 1024 15 15 (4147200)
I1202 19:58:30.084118 93725 net.cpp:137] Memory required for data: 4375296072
I1202 19:58:30.084122 93725 layer_factory.hpp:77] Creating layer res4e_res4e_relu_0_split
I1202 19:58:30.084126 93725 net.cpp:84] Creating Layer res4e_res4e_relu_0_split
I1202 19:58:30.084130 93725 net.cpp:406] res4e_res4e_relu_0_split <- res4e
I1202 19:58:30.084136 93725 net.cpp:380] res4e_res4e_relu_0_split -> res4e_res4e_relu_0_split_0
I1202 19:58:30.084141 93725 net.cpp:380] res4e_res4e_relu_0_split -> res4e_res4e_relu_0_split_1
I1202 19:58:30.084168 93725 net.cpp:122] Setting up res4e_res4e_relu_0_split
I1202 19:58:30.084174 93725 net.cpp:129] Top shape: 18 1024 15 15 (4147200)
I1202 19:58:30.084177 93725 net.cpp:129] Top shape: 18 1024 15 15 (4147200)
I1202 19:58:30.084180 93725 net.cpp:137] Memory required for data: 4408473672
I1202 19:58:30.084183 93725 layer_factory.hpp:77] Creating layer res4f_branch2a
I1202 19:58:30.084189 93725 net.cpp:84] Creating Layer res4f_branch2a
I1202 19:58:30.084193 93725 net.cpp:406] res4f_branch2a <- res4e_res4e_relu_0_split_0
I1202 19:58:30.084198 93725 net.cpp:380] res4f_branch2a -> res4f_branch2a
I1202 19:58:30.086957 93725 net.cpp:122] Setting up res4f_branch2a
I1202 19:58:30.086968 93725 net.cpp:129] Top shape: 18 256 15 15 (1036800)
I1202 19:58:30.086971 93725 net.cpp:137] Memory required for data: 4412620872
I1202 19:58:30.086977 93725 layer_factory.hpp:77] Creating layer bn4f_branch2a
I1202 19:58:30.086983 93725 net.cpp:84] Creating Layer bn4f_branch2a
I1202 19:58:30.086987 93725 net.cpp:406] bn4f_branch2a <- res4f_branch2a
I1202 19:58:30.086995 93725 net.cpp:367] bn4f_branch2a -> res4f_branch2a (in-place)
I1202 19:58:30.087151 93725 net.cpp:122] Setting up bn4f_branch2a
I1202 19:58:30.087157 93725 net.cpp:129] Top shape: 18 256 15 15 (1036800)
I1202 19:58:30.087159 93725 net.cpp:137] Memory required for data: 4416768072
I1202 19:58:30.087167 93725 layer_factory.hpp:77] Creating layer scale4f_branch2a
I1202 19:58:30.087174 93725 net.cpp:84] Creating Layer scale4f_branch2a
I1202 19:58:30.087177 93725 net.cpp:406] scale4f_branch2a <- res4f_branch2a
I1202 19:58:30.087182 93725 net.cpp:367] scale4f_branch2a -> res4f_branch2a (in-place)
I1202 19:58:30.087214 93725 layer_factory.hpp:77] Creating layer scale4f_branch2a
I1202 19:58:30.087301 93725 net.cpp:122] Setting up scale4f_branch2a
I1202 19:58:30.087306 93725 net.cpp:129] Top shape: 18 256 15 15 (1036800)
I1202 19:58:30.087309 93725 net.cpp:137] Memory required for data: 4420915272
I1202 19:58:30.087313 93725 layer_factory.hpp:77] Creating layer res4f_branch2a_relu
I1202 19:58:30.087318 93725 net.cpp:84] Creating Layer res4f_branch2a_relu
I1202 19:58:30.087321 93725 net.cpp:406] res4f_branch2a_relu <- res4f_branch2a
I1202 19:58:30.087329 93725 net.cpp:367] res4f_branch2a_relu -> res4f_branch2a (in-place)
I1202 19:58:30.087335 93725 net.cpp:122] Setting up res4f_branch2a_relu
I1202 19:58:30.087340 93725 net.cpp:129] Top shape: 18 256 15 15 (1036800)
I1202 19:58:30.087342 93725 net.cpp:137] Memory required for data: 4425062472
I1202 19:58:30.087345 93725 layer_factory.hpp:77] Creating layer res4f_branch2b
I1202 19:58:30.087353 93725 net.cpp:84] Creating Layer res4f_branch2b
I1202 19:58:30.087357 93725 net.cpp:406] res4f_branch2b <- res4f_branch2a
I1202 19:58:30.087363 93725 net.cpp:380] res4f_branch2b -> res4f_branch2b
I1202 19:58:30.093195 93725 net.cpp:122] Setting up res4f_branch2b
I1202 19:58:30.093207 93725 net.cpp:129] Top shape: 18 256 15 15 (1036800)
I1202 19:58:30.093211 93725 net.cpp:137] Memory required for data: 4429209672
I1202 19:58:30.093217 93725 layer_factory.hpp:77] Creating layer bn4f_branch2b
I1202 19:58:30.093224 93725 net.cpp:84] Creating Layer bn4f_branch2b
I1202 19:58:30.093226 93725 net.cpp:406] bn4f_branch2b <- res4f_branch2b
I1202 19:58:30.093233 93725 net.cpp:367] bn4f_branch2b -> res4f_branch2b (in-place)
I1202 19:58:30.093381 93725 net.cpp:122] Setting up bn4f_branch2b
I1202 19:58:30.093387 93725 net.cpp:129] Top shape: 18 256 15 15 (1036800)
I1202 19:58:30.093390 93725 net.cpp:137] Memory required for data: 4433356872
I1202 19:58:30.093396 93725 layer_factory.hpp:77] Creating layer scale4f_branch2b
I1202 19:58:30.093401 93725 net.cpp:84] Creating Layer scale4f_branch2b
I1202 19:58:30.093405 93725 net.cpp:406] scale4f_branch2b <- res4f_branch2b
I1202 19:58:30.093408 93725 net.cpp:367] scale4f_branch2b -> res4f_branch2b (in-place)
I1202 19:58:30.093441 93725 layer_factory.hpp:77] Creating layer scale4f_branch2b
I1202 19:58:30.093528 93725 net.cpp:122] Setting up scale4f_branch2b
I1202 19:58:30.093534 93725 net.cpp:129] Top shape: 18 256 15 15 (1036800)
I1202 19:58:30.093536 93725 net.cpp:137] Memory required for data: 4437504072
I1202 19:58:30.093542 93725 layer_factory.hpp:77] Creating layer res4f_branch2b_relu
I1202 19:58:30.093549 93725 net.cpp:84] Creating Layer res4f_branch2b_relu
I1202 19:58:30.093551 93725 net.cpp:406] res4f_branch2b_relu <- res4f_branch2b
I1202 19:58:30.093555 93725 net.cpp:367] res4f_branch2b_relu -> res4f_branch2b (in-place)
I1202 19:58:30.093560 93725 net.cpp:122] Setting up res4f_branch2b_relu
I1202 19:58:30.093564 93725 net.cpp:129] Top shape: 18 256 15 15 (1036800)
I1202 19:58:30.093567 93725 net.cpp:137] Memory required for data: 4441651272
I1202 19:58:30.093570 93725 layer_factory.hpp:77] Creating layer res4f_branch2c
I1202 19:58:30.093578 93725 net.cpp:84] Creating Layer res4f_branch2c
I1202 19:58:30.093581 93725 net.cpp:406] res4f_branch2c <- res4f_branch2b
I1202 19:58:30.093585 93725 net.cpp:380] res4f_branch2c -> res4f_branch2c
I1202 19:58:30.096350 93725 net.cpp:122] Setting up res4f_branch2c
I1202 19:58:30.096361 93725 net.cpp:129] Top shape: 18 1024 15 15 (4147200)
I1202 19:58:30.096369 93725 net.cpp:137] Memory required for data: 4458240072
I1202 19:58:30.096380 93725 layer_factory.hpp:77] Creating layer bn4f_branch2c
I1202 19:58:30.096386 93725 net.cpp:84] Creating Layer bn4f_branch2c
I1202 19:58:30.096390 93725 net.cpp:406] bn4f_branch2c <- res4f_branch2c
I1202 19:58:30.096395 93725 net.cpp:367] bn4f_branch2c -> res4f_branch2c (in-place)
I1202 19:58:30.096551 93725 net.cpp:122] Setting up bn4f_branch2c
I1202 19:58:30.096560 93725 net.cpp:129] Top shape: 18 1024 15 15 (4147200)
I1202 19:58:30.096562 93725 net.cpp:137] Memory required for data: 4474828872
I1202 19:58:30.096595 93725 layer_factory.hpp:77] Creating layer scale4f_branch2c
I1202 19:58:30.096601 93725 net.cpp:84] Creating Layer scale4f_branch2c
I1202 19:58:30.096604 93725 net.cpp:406] scale4f_branch2c <- res4f_branch2c
I1202 19:58:30.096609 93725 net.cpp:367] scale4f_branch2c -> res4f_branch2c (in-place)
I1202 19:58:30.096642 93725 layer_factory.hpp:77] Creating layer scale4f_branch2c
I1202 19:58:30.096730 93725 net.cpp:122] Setting up scale4f_branch2c
I1202 19:58:30.096737 93725 net.cpp:129] Top shape: 18 1024 15 15 (4147200)
I1202 19:58:30.096740 93725 net.cpp:137] Memory required for data: 4491417672
I1202 19:58:30.096745 93725 layer_factory.hpp:77] Creating layer res4f
I1202 19:58:30.096751 93725 net.cpp:84] Creating Layer res4f
I1202 19:58:30.096755 93725 net.cpp:406] res4f <- res4e_res4e_relu_0_split_1
I1202 19:58:30.096760 93725 net.cpp:406] res4f <- res4f_branch2c
I1202 19:58:30.096763 93725 net.cpp:380] res4f -> res4f
I1202 19:58:30.096783 93725 net.cpp:122] Setting up res4f
I1202 19:58:30.096788 93725 net.cpp:129] Top shape: 18 1024 15 15 (4147200)
I1202 19:58:30.096791 93725 net.cpp:137] Memory required for data: 4508006472
I1202 19:58:30.096794 93725 layer_factory.hpp:77] Creating layer res4f_relu
I1202 19:58:30.096799 93725 net.cpp:84] Creating Layer res4f_relu
I1202 19:58:30.096802 93725 net.cpp:406] res4f_relu <- res4f
I1202 19:58:30.096808 93725 net.cpp:367] res4f_relu -> res4f (in-place)
I1202 19:58:30.096813 93725 net.cpp:122] Setting up res4f_relu
I1202 19:58:30.096817 93725 net.cpp:129] Top shape: 18 1024 15 15 (4147200)
I1202 19:58:30.096819 93725 net.cpp:137] Memory required for data: 4524595272
I1202 19:58:30.096824 93725 layer_factory.hpp:77] Creating layer res4f_res4f_relu_0_split
I1202 19:58:30.096829 93725 net.cpp:84] Creating Layer res4f_res4f_relu_0_split
I1202 19:58:30.096832 93725 net.cpp:406] res4f_res4f_relu_0_split <- res4f
I1202 19:58:30.096837 93725 net.cpp:380] res4f_res4f_relu_0_split -> res4f_res4f_relu_0_split_0
I1202 19:58:30.096843 93725 net.cpp:380] res4f_res4f_relu_0_split -> res4f_res4f_relu_0_split_1
I1202 19:58:30.096874 93725 net.cpp:122] Setting up res4f_res4f_relu_0_split
I1202 19:58:30.096879 93725 net.cpp:129] Top shape: 18 1024 15 15 (4147200)
I1202 19:58:30.096884 93725 net.cpp:129] Top shape: 18 1024 15 15 (4147200)
I1202 19:58:30.096886 93725 net.cpp:137] Memory required for data: 4557772872
I1202 19:58:30.096889 93725 layer_factory.hpp:77] Creating layer res5a_branch1
I1202 19:58:30.096896 93725 net.cpp:84] Creating Layer res5a_branch1
I1202 19:58:30.096899 93725 net.cpp:406] res5a_branch1 <- res4f_res4f_relu_0_split_0
I1202 19:58:30.096906 93725 net.cpp:380] res5a_branch1 -> res5a_branch1
I1202 19:58:30.116922 93725 net.cpp:122] Setting up res5a_branch1
I1202 19:58:30.116935 93725 net.cpp:129] Top shape: 18 2048 8 8 (2359296)
I1202 19:58:30.116938 93725 net.cpp:137] Memory required for data: 4567210056
I1202 19:58:30.116943 93725 layer_factory.hpp:77] Creating layer bn5a_branch1
I1202 19:58:30.116948 93725 net.cpp:84] Creating Layer bn5a_branch1
I1202 19:58:30.116952 93725 net.cpp:406] bn5a_branch1 <- res5a_branch1
I1202 19:58:30.116956 93725 net.cpp:367] bn5a_branch1 -> res5a_branch1 (in-place)
I1202 19:58:30.117138 93725 net.cpp:122] Setting up bn5a_branch1
I1202 19:58:30.117144 93725 net.cpp:129] Top shape: 18 2048 8 8 (2359296)
I1202 19:58:30.117147 93725 net.cpp:137] Memory required for data: 4576647240
I1202 19:58:30.117157 93725 layer_factory.hpp:77] Creating layer scale5a_branch1
I1202 19:58:30.117168 93725 net.cpp:84] Creating Layer scale5a_branch1
I1202 19:58:30.117172 93725 net.cpp:406] scale5a_branch1 <- res5a_branch1
I1202 19:58:30.117175 93725 net.cpp:367] scale5a_branch1 -> res5a_branch1 (in-place)
I1202 19:58:30.117209 93725 layer_factory.hpp:77] Creating layer scale5a_branch1
I1202 19:58:30.117305 93725 net.cpp:122] Setting up scale5a_branch1
I1202 19:58:30.117311 93725 net.cpp:129] Top shape: 18 2048 8 8 (2359296)
I1202 19:58:30.117313 93725 net.cpp:137] Memory required for data: 4586084424
I1202 19:58:30.117319 93725 layer_factory.hpp:77] Creating layer res5a_branch2a
I1202 19:58:30.117329 93725 net.cpp:84] Creating Layer res5a_branch2a
I1202 19:58:30.117333 93725 net.cpp:406] res5a_branch2a <- res4f_res4f_relu_0_split_1
I1202 19:58:30.117337 93725 net.cpp:380] res5a_branch2a -> res5a_branch2a
I1202 19:58:30.122606 93725 net.cpp:122] Setting up res5a_branch2a
I1202 19:58:30.122618 93725 net.cpp:129] Top shape: 18 512 8 8 (589824)
I1202 19:58:30.122622 93725 net.cpp:137] Memory required for data: 4588443720
I1202 19:58:30.122625 93725 layer_factory.hpp:77] Creating layer bn5a_branch2a
I1202 19:58:30.122632 93725 net.cpp:84] Creating Layer bn5a_branch2a
I1202 19:58:30.122637 93725 net.cpp:406] bn5a_branch2a <- res5a_branch2a
I1202 19:58:30.122642 93725 net.cpp:367] bn5a_branch2a -> res5a_branch2a (in-place)
I1202 19:58:30.122799 93725 net.cpp:122] Setting up bn5a_branch2a
I1202 19:58:30.122807 93725 net.cpp:129] Top shape: 18 512 8 8 (589824)
I1202 19:58:30.122809 93725 net.cpp:137] Memory required for data: 4590803016
I1202 19:58:30.122815 93725 layer_factory.hpp:77] Creating layer scale5a_branch2a
I1202 19:58:30.122820 93725 net.cpp:84] Creating Layer scale5a_branch2a
I1202 19:58:30.122823 93725 net.cpp:406] scale5a_branch2a <- res5a_branch2a
I1202 19:58:30.122829 93725 net.cpp:367] scale5a_branch2a -> res5a_branch2a (in-place)
I1202 19:58:30.122859 93725 layer_factory.hpp:77] Creating layer scale5a_branch2a
I1202 19:58:30.122948 93725 net.cpp:122] Setting up scale5a_branch2a
I1202 19:58:30.122956 93725 net.cpp:129] Top shape: 18 512 8 8 (589824)
I1202 19:58:30.122958 93725 net.cpp:137] Memory required for data: 4593162312
I1202 19:58:30.122962 93725 layer_factory.hpp:77] Creating layer res5a_branch2a_relu
I1202 19:58:30.122969 93725 net.cpp:84] Creating Layer res5a_branch2a_relu
I1202 19:58:30.122972 93725 net.cpp:406] res5a_branch2a_relu <- res5a_branch2a
I1202 19:58:30.122977 93725 net.cpp:367] res5a_branch2a_relu -> res5a_branch2a (in-place)
I1202 19:58:30.122982 93725 net.cpp:122] Setting up res5a_branch2a_relu
I1202 19:58:30.122987 93725 net.cpp:129] Top shape: 18 512 8 8 (589824)
I1202 19:58:30.122988 93725 net.cpp:137] Memory required for data: 4595521608
I1202 19:58:30.122993 93725 layer_factory.hpp:77] Creating layer res5a_branch2b
I1202 19:58:30.123000 93725 net.cpp:84] Creating Layer res5a_branch2b
I1202 19:58:30.123004 93725 net.cpp:406] res5a_branch2b <- res5a_branch2a
I1202 19:58:30.123008 93725 net.cpp:380] res5a_branch2b -> res5a_branch2b
I1202 19:58:30.145483 93725 net.cpp:122] Setting up res5a_branch2b
I1202 19:58:30.145498 93725 net.cpp:129] Top shape: 18 512 8 8 (589824)
I1202 19:58:30.145500 93725 net.cpp:137] Memory required for data: 4597880904
I1202 19:58:30.145505 93725 layer_factory.hpp:77] Creating layer bn5a_branch2b
I1202 19:58:30.145511 93725 net.cpp:84] Creating Layer bn5a_branch2b
I1202 19:58:30.145515 93725 net.cpp:406] bn5a_branch2b <- res5a_branch2b
I1202 19:58:30.145519 93725 net.cpp:367] bn5a_branch2b -> res5a_branch2b (in-place)
I1202 19:58:30.145678 93725 net.cpp:122] Setting up bn5a_branch2b
I1202 19:58:30.145685 93725 net.cpp:129] Top shape: 18 512 8 8 (589824)
I1202 19:58:30.145689 93725 net.cpp:137] Memory required for data: 4600240200
I1202 19:58:30.145694 93725 layer_factory.hpp:77] Creating layer scale5a_branch2b
I1202 19:58:30.145699 93725 net.cpp:84] Creating Layer scale5a_branch2b
I1202 19:58:30.145702 93725 net.cpp:406] scale5a_branch2b <- res5a_branch2b
I1202 19:58:30.145711 93725 net.cpp:367] scale5a_branch2b -> res5a_branch2b (in-place)
I1202 19:58:30.145750 93725 layer_factory.hpp:77] Creating layer scale5a_branch2b
I1202 19:58:30.145843 93725 net.cpp:122] Setting up scale5a_branch2b
I1202 19:58:30.145849 93725 net.cpp:129] Top shape: 18 512 8 8 (589824)
I1202 19:58:30.145853 93725 net.cpp:137] Memory required for data: 4602599496
I1202 19:58:30.145858 93725 layer_factory.hpp:77] Creating layer res5a_branch2b_relu
I1202 19:58:30.145864 93725 net.cpp:84] Creating Layer res5a_branch2b_relu
I1202 19:58:30.145867 93725 net.cpp:406] res5a_branch2b_relu <- res5a_branch2b
I1202 19:58:30.145870 93725 net.cpp:367] res5a_branch2b_relu -> res5a_branch2b (in-place)
I1202 19:58:30.145876 93725 net.cpp:122] Setting up res5a_branch2b_relu
I1202 19:58:30.145880 93725 net.cpp:129] Top shape: 18 512 8 8 (589824)
I1202 19:58:30.145884 93725 net.cpp:137] Memory required for data: 4604958792
I1202 19:58:30.145889 93725 layer_factory.hpp:77] Creating layer res5a_branch2c
I1202 19:58:30.145895 93725 net.cpp:84] Creating Layer res5a_branch2c
I1202 19:58:30.145897 93725 net.cpp:406] res5a_branch2c <- res5a_branch2b
I1202 19:58:30.145905 93725 net.cpp:380] res5a_branch2c -> res5a_branch2c
I1202 19:58:30.157476 93725 net.cpp:122] Setting up res5a_branch2c
I1202 19:58:30.157491 93725 net.cpp:129] Top shape: 18 2048 8 8 (2359296)
I1202 19:58:30.157495 93725 net.cpp:137] Memory required for data: 4614395976
I1202 19:58:30.157505 93725 layer_factory.hpp:77] Creating layer bn5a_branch2c
I1202 19:58:30.157511 93725 net.cpp:84] Creating Layer bn5a_branch2c
I1202 19:58:30.157519 93725 net.cpp:406] bn5a_branch2c <- res5a_branch2c
I1202 19:58:30.157523 93725 net.cpp:367] bn5a_branch2c -> res5a_branch2c (in-place)
I1202 19:58:30.157719 93725 net.cpp:122] Setting up bn5a_branch2c
I1202 19:58:30.157727 93725 net.cpp:129] Top shape: 18 2048 8 8 (2359296)
I1202 19:58:30.157728 93725 net.cpp:137] Memory required for data: 4623833160
I1202 19:58:30.157734 93725 layer_factory.hpp:77] Creating layer scale5a_branch2c
I1202 19:58:30.157742 93725 net.cpp:84] Creating Layer scale5a_branch2c
I1202 19:58:30.157745 93725 net.cpp:406] scale5a_branch2c <- res5a_branch2c
I1202 19:58:30.157749 93725 net.cpp:367] scale5a_branch2c -> res5a_branch2c (in-place)
I1202 19:58:30.157794 93725 layer_factory.hpp:77] Creating layer scale5a_branch2c
I1202 19:58:30.157892 93725 net.cpp:122] Setting up scale5a_branch2c
I1202 19:58:30.157898 93725 net.cpp:129] Top shape: 18 2048 8 8 (2359296)
I1202 19:58:30.157902 93725 net.cpp:137] Memory required for data: 4633270344
I1202 19:58:30.157907 93725 layer_factory.hpp:77] Creating layer res5a
I1202 19:58:30.157912 93725 net.cpp:84] Creating Layer res5a
I1202 19:58:30.157917 93725 net.cpp:406] res5a <- res5a_branch1
I1202 19:58:30.157920 93725 net.cpp:406] res5a <- res5a_branch2c
I1202 19:58:30.157927 93725 net.cpp:380] res5a -> res5a
I1202 19:58:30.157948 93725 net.cpp:122] Setting up res5a
I1202 19:58:30.157954 93725 net.cpp:129] Top shape: 18 2048 8 8 (2359296)
I1202 19:58:30.157956 93725 net.cpp:137] Memory required for data: 4642707528
I1202 19:58:30.157961 93725 layer_factory.hpp:77] Creating layer res5a_relu
I1202 19:58:30.157966 93725 net.cpp:84] Creating Layer res5a_relu
I1202 19:58:30.157969 93725 net.cpp:406] res5a_relu <- res5a
I1202 19:58:30.157972 93725 net.cpp:367] res5a_relu -> res5a (in-place)
I1202 19:58:30.157977 93725 net.cpp:122] Setting up res5a_relu
I1202 19:58:30.157981 93725 net.cpp:129] Top shape: 18 2048 8 8 (2359296)
I1202 19:58:30.157984 93725 net.cpp:137] Memory required for data: 4652144712
…
I1202 19:58:30.379190 93725 net.cpp:84] Creating Layer res4d_branch2a
I1202 19:58:30.379194 93725 net.cpp:406] res4d_branch2a <- res4c_res4c_relu_0_split_0
I1202 19:58:30.379199 93725 net.cpp:380] res4d_branch2a -> res4d_branch2a
I1202 19:58:30.381964 93725 net.cpp:122] Setting up res4d_branch2a
I1202 19:58:30.381975 93725 net.cpp:129] Top shape: 10 256 15 15 (576000)
I1202 19:58:30.381979 93725 net.cpp:137] Memory required for data: 2285568160
I1202 19:58:30.381983 93725 layer_factory.hpp:77] Creating layer bn4d_branch2a
I1202 19:58:30.381991 93725 net.cpp:84] Creating Layer bn4d_branch2a
I1202 19:58:30.381996 93725 net.cpp:406] bn4d_branch2a <- res4d_branch2a
I1202 19:58:30.382000 93725 net.cpp:367] bn4d_branch2a -> res4d_branch2a (in-place)
I1202 19:58:30.382148 93725 net.cpp:122] Setting up bn4d_branch2a
I1202 19:58:30.382154 93725 net.cpp:129] Top shape: 10 256 15 15 (576000)
I1202 19:58:30.382158 93725 net.cpp:137] Memory required for data: 2287872160
I1202 19:58:30.382164 93725 layer_factory.hpp:77] Creating layer scale4d_branch2a
I1202 19:58:30.382169 93725 net.cpp:84] Creating Layer scale4d_branch2a
I1202 19:58:30.382172 93725 net.cpp:406] scale4d_branch2a <- res4d_branch2a
I1202 19:58:30.382180 93725 net.cpp:367] scale4d_branch2a -> res4d_branch2a (in-place)
I1202 19:58:30.382211 93725 layer_factory.hpp:77] Creating layer scale4d_branch2a
I1202 19:58:30.382295 93725 net.cpp:122] Setting up scale4d_branch2a
I1202 19:58:30.382302 93725 net.cpp:129] Top shape: 10 256 15 15 (576000)
I1202 19:58:30.382303 93725 net.cpp:137] Memory required for data: 2290176160
I1202 19:58:30.382308 93725 layer_factory.hpp:77] Creating layer res4d_branch2a_relu
I1202 19:58:30.382314 93725 net.cpp:84] Creating Layer res4d_branch2a_relu
I1202 19:58:30.382318 93725 net.cpp:406] res4d_branch2a_relu <- res4d_branch2a
I1202 19:58:30.382321 93725 net.cpp:367] res4d_branch2a_relu -> res4d_branch2a (in-place)
I1202 19:58:30.382326 93725 net.cpp:122] Setting up res4d_branch2a_relu
I1202 19:58:30.382329 93725 net.cpp:129] Top shape: 10 256 15 15 (576000)
I1202 19:58:30.382333 93725 net.cpp:137] Memory required for data: 2292480160
I1202 19:58:30.382334 93725 layer_factory.hpp:77] Creating layer res4d_branch2b
I1202 19:58:30.382342 93725 net.cpp:84] Creating Layer res4d_branch2b
I1202 19:58:30.382345 93725 net.cpp:406] res4d_branch2b <- res4d_branch2a
I1202 19:58:30.382350 93725 net.cpp:380] res4d_branch2b -> res4d_branch2b
I1202 19:58:30.388166 93725 net.cpp:122] Setting up res4d_branch2b
I1202 19:58:30.388178 93725 net.cpp:129] Top shape: 10 256 15 15 (576000)
I1202 19:58:30.388181 93725 net.cpp:137] Memory required for data: 2294784160
I1202 19:58:30.388185 93725 layer_factory.hpp:77] Creating layer bn4d_branch2b
I1202 19:58:30.388190 93725 net.cpp:84] Creating Layer bn4d_branch2b
I1202 19:58:30.388195 93725 net.cpp:406] bn4d_branch2b <- res4d_branch2b
I1202 19:58:30.388200 93725 net.cpp:367] bn4d_branch2b -> res4d_branch2b (in-place)
I1202 19:58:30.388350 93725 net.cpp:122] Setting up bn4d_branch2b
I1202 19:58:30.388356 93725 net.cpp:129] Top shape: 10 256 15 15 (576000)
I1202 19:58:30.388360 93725 net.cpp:137] Memory required for data: 2297088160
I1202 19:58:30.388365 93725 layer_factory.hpp:77] Creating layer scale4d_branch2b
I1202 19:58:30.388370 93725 net.cpp:84] Creating Layer scale4d_branch2b
I1202 19:58:30.388372 93725 net.cpp:406] scale4d_branch2b <- res4d_branch2b
I1202 19:58:30.388377 93725 net.cpp:367] scale4d_branch2b -> res4d_branch2b (in-place)
I1202 19:58:30.388409 93725 layer_factory.hpp:77] Creating layer scale4d_branch2b
I1202 19:58:30.388494 93725 net.cpp:122] Setting up scale4d_branch2b
I1202 19:58:30.388504 93725 net.cpp:129] Top shape: 10 256 15 15 (576000)
I1202 19:58:30.388507 93725 net.cpp:137] Memory required for data: 2299392160
I1202 19:58:30.388517 93725 layer_factory.hpp:77] Creating layer res4d_branch2b_relu
I1202 19:58:30.388523 93725 net.cpp:84] Creating Layer res4d_branch2b_relu
I1202 19:58:30.388526 93725 net.cpp:406] res4d_branch2b_relu <- res4d_branch2b
I1202 19:58:30.388532 93725 net.cpp:367] res4d_branch2b_relu -> res4d_branch2b (in-place)
I1202 19:58:30.388537 93725 net.cpp:122] Setting up res4d_branch2b_relu
I1202 19:58:30.388541 93725 net.cpp:129] Top shape: 10 256 15 15 (576000)
I1202 19:58:30.388543 93725 net.cpp:137] Memory required for data: 2301696160
I1202 19:58:30.388546 93725 layer_factory.hpp:77] Creating layer res4d_branch2c
I1202 19:58:30.388552 93725 net.cpp:84] Creating Layer res4d_branch2c
I1202 19:58:30.388556 93725 net.cpp:406] res4d_branch2c <- res4d_branch2b
I1202 19:58:30.388561 93725 net.cpp:380] res4d_branch2c -> res4d_branch2c
I1202 19:58:30.391353 93725 net.cpp:122] Setting up res4d_branch2c
I1202 19:58:30.391364 93725 net.cpp:129] Top shape: 10 1024 15 15 (2304000)
I1202 19:58:30.391367 93725 net.cpp:137] Memory required for data: 2310912160
I1202 19:58:30.391371 93725 layer_factory.hpp:77] Creating layer bn4d_branch2c
I1202 19:58:30.391377 93725 net.cpp:84] Creating Layer bn4d_branch2c
I1202 19:58:30.391381 93725 net.cpp:406] bn4d_branch2c <- res4d_branch2c
I1202 19:58:30.391384 93725 net.cpp:367] bn4d_branch2c -> res4d_branch2c (in-place)
I1202 19:58:30.391544 93725 net.cpp:122] Setting up bn4d_branch2c
I1202 19:58:30.391551 93725 net.cpp:129] Top shape: 10 1024 15 15 (2304000)
I1202 19:58:30.391553 93725 net.cpp:137] Memory required for data: 2320128160
I1202 19:58:30.391559 93725 layer_factory.hpp:77] Creating layer scale4d_branch2c
I1202 19:58:30.391566 93725 net.cpp:84] Creating Layer scale4d_branch2c
I1202 19:58:30.391571 93725 net.cpp:406] scale4d_branch2c <- res4d_branch2c
I1202 19:58:30.391574 93725 net.cpp:367] scale4d_branch2c -> res4d_branch2c (in-place)
I1202 19:58:30.391607 93725 layer_factory.hpp:77] Creating layer scale4d_branch2c
I1202 19:58:30.391700 93725 net.cpp:122] Setting up scale4d_branch2c
I1202 19:58:30.391706 93725 net.cpp:129] Top shape: 10 1024 15 15 (2304000)
I1202 19:58:30.391710 93725 net.cpp:137] Memory required for data: 2329344160
I1202 19:58:30.391713 93725 layer_factory.hpp:77] Creating layer res4d
I1202 19:58:30.391718 93725 net.cpp:84] Creating Layer res4d
I1202 19:58:30.391721 93725 net.cpp:406] res4d <- res4c_res4c_relu_0_split_1
I1202 19:58:30.391726 93725 net.cpp:406] res4d <- res4d_branch2c
I1202 19:58:30.391731 93725 net.cpp:380] res4d -> res4d
I1202 19:58:30.391752 93725 net.cpp:122] Setting up res4d
I1202 19:58:30.391757 93725 net.cpp:129] Top shape: 10 1024 15 15 (2304000)
I1202 19:58:30.391760 93725 net.cpp:137] Memory required for data: 2338560160
I1202 19:58:30.391762 93725 layer_factory.hpp:77] Creating layer res4d_relu
I1202 19:58:30.391767 93725 net.cpp:84] Creating Layer res4d_relu
I1202 19:58:30.391770 93725 net.cpp:406] res4d_relu <- res4d
I1202 19:58:30.391774 93725 net.cpp:367] res4d_relu -> res4d (in-place)
I1202 19:58:30.391778 93725 net.cpp:122] Setting up res4d_relu
I1202 19:58:30.391782 93725 net.cpp:129] Top shape: 10 1024 15 15 (2304000)
I1202 19:58:30.391785 93725 net.cpp:137] Memory required for data: 2347776160
I1202 19:58:30.391788 93725 layer_factory.hpp:77] Creating layer res4d_res4d_relu_0_split
I1202 19:58:30.391793 93725 net.cpp:84] Creating Layer res4d_res4d_relu_0_split
I1202 19:58:30.391796 93725 net.cpp:406] res4d_res4d_relu_0_split <- res4d
I1202 19:58:30.391800 93725 net.cpp:380] res4d_res4d_relu_0_split -> res4d_res4d_relu_0_split_0
I1202 19:58:30.391805 93725 net.cpp:380] res4d_res4d_relu_0_split -> res4d_res4d_relu_0_split_1
I1202 19:58:30.391832 93725 net.cpp:122] Setting up res4d_res4d_relu_0_split
I1202 19:58:30.391839 93725 net.cpp:129] Top shape: 10 1024 15 15 (2304000)
I1202 19:58:30.391841 93725 net.cpp:129] Top shape: 10 1024 15 15 (2304000)
I1202 19:58:30.391844 93725 net.cpp:137] Memory required for data: 2366208160
I1202 19:58:30.391851 93725 layer_factory.hpp:77] Creating layer res4e_branch2a
I1202 19:58:30.391865 93725 net.cpp:84] Creating Layer res4e_branch2a
I1202 19:58:30.391868 93725 net.cpp:406] res4e_branch2a <- res4d_res4d_relu_0_split_0
I1202 19:58:30.391875 93725 net.cpp:380] res4e_branch2a -> res4e_branch2a
I1202 19:58:30.394609 93725 net.cpp:122] Setting up res4e_branch2a
I1202 19:58:30.394620 93725 net.cpp:129] Top shape: 10 256 15 15 (576000)
I1202 19:58:30.394623 93725 net.cpp:137] Memory required for data: 2368512160
I1202 19:58:30.394628 93725 layer_factory.hpp:77] Creating layer bn4e_branch2a
I1202 19:58:30.394632 93725 net.cpp:84] Creating Layer bn4e_branch2a
I1202 19:58:30.394636 93725 net.cpp:406] bn4e_branch2a <- res4e_branch2a
I1202 19:58:30.394640 93725 net.cpp:367] bn4e_branch2a -> res4e_branch2a (in-place)
I1202 19:58:30.394788 93725 net.cpp:122] Setting up bn4e_branch2a
I1202 19:58:30.394793 93725 net.cpp:129] Top shape: 10 256 15 15 (576000)
I1202 19:58:30.394795 93725 net.cpp:137] Memory required for data: 2370816160
I1202 19:58:30.394801 93725 layer_factory.hpp:77] Creating layer scale4e_branch2a
I1202 19:58:30.394809 93725 net.cpp:84] Creating Layer scale4e_branch2a
I1202 19:58:30.394811 93725 net.cpp:406] scale4e_branch2a <- res4e_branch2a
I1202 19:58:30.394814 93725 net.cpp:367] scale4e_branch2a -> res4e_branch2a (in-place)
I1202 19:58:30.394846 93725 layer_factory.hpp:77] Creating layer scale4e_branch2a
I1202 19:58:30.394932 93725 net.cpp:122] Setting up scale4e_branch2a
I1202 19:58:30.394937 93725 net.cpp:129] Top shape: 10 256 15 15 (576000)
I1202 19:58:30.394940 93725 net.cpp:137] Memory required for data: 2373120160
I1202 19:58:30.394945 93725 layer_factory.hpp:77] Creating layer res4e_branch2a_relu
I1202 19:58:30.394949 93725 net.cpp:84] Creating Layer res4e_branch2a_relu
I1202 19:58:30.394953 93725 net.cpp:406] res4e_branch2a_relu <- res4e_branch2a
I1202 19:58:30.394959 93725 net.cpp:367] res4e_branch2a_relu -> res4e_branch2a (in-place)
I1202 19:58:30.394965 93725 net.cpp:122] Setting up res4e_branch2a_relu
I1202 19:58:30.394969 93725 net.cpp:129] Top shape: 10 256 15 15 (576000)
I1202 19:58:30.394971 93725 net.cpp:137] Memory required for data: 2375424160
I1202 19:58:30.394975 93725 layer_factory.hpp:77] Creating layer res4e_branch2b
I1202 19:58:30.394981 93725 net.cpp:84] Creating Layer res4e_branch2b
I1202 19:58:30.394986 93725 net.cpp:406] res4e_branch2b <- res4e_branch2a
I1202 19:58:30.394990 93725 net.cpp:380] res4e_branch2b -> res4e_branch2b
I1202 19:58:30.400775 93725 net.cpp:122] Setting up res4e_branch2b
I1202 19:58:30.400787 93725 net.cpp:129] Top shape: 10 256 15 15 (576000)
I1202 19:58:30.400790 93725 net.cpp:137] Memory required for data: 2377728160
I1202 19:58:30.400794 93725 layer_factory.hpp:77] Creating layer bn4e_branch2b
I1202 19:58:30.400802 93725 net.cpp:84] Creating Layer bn4e_branch2b
I1202 19:58:30.400806 93725 net.cpp:406] bn4e_branch2b <- res4e_branch2b
I1202 19:58:30.400810 93725 net.cpp:367] bn4e_branch2b -> res4e_branch2b (in-place)
I1202 19:58:30.400959 93725 net.cpp:122] Setting up bn4e_branch2b
I1202 19:58:30.400965 93725 net.cpp:129] Top shape: 10 256 15 15 (576000)
I1202 19:58:30.400969 93725 net.cpp:137] Memory required for data: 2380032160
I1202 19:58:30.400974 93725 layer_factory.hpp:77] Creating layer scale4e_branch2b
I1202 19:58:30.400979 93725 net.cpp:84] Creating Layer scale4e_branch2b
I1202 19:58:30.400981 93725 net.cpp:406] scale4e_branch2b <- res4e_branch2b
I1202 19:58:30.400987 93725 net.cpp:367] scale4e_branch2b -> res4e_branch2b (in-place)
I1202 19:58:30.401017 93725 layer_factory.hpp:77] Creating layer scale4e_branch2b
I1202 19:58:30.401103 93725 net.cpp:122] Setting up scale4e_branch2b
I1202 19:58:30.401109 93725 net.cpp:129] Top shape: 10 256 15 15 (576000)
I1202 19:58:30.401113 93725 net.cpp:137] Memory required for data: 2382336160
I1202 19:58:30.401118 93725 layer_factory.hpp:77] Creating layer res4e_branch2b_relu
I1202 19:58:30.401124 93725 net.cpp:84] Creating Layer res4e_branch2b_relu
I1202 19:58:30.401130 93725 net.cpp:406] res4e_branch2b_relu <- res4e_branch2b
I1202 19:58:30.401140 93725 net.cpp:367] res4e_branch2b_relu -> res4e_branch2b (in-place)
I1202 19:58:30.401145 93725 net.cpp:122] Setting up res4e_branch2b_relu
I1202 19:58:30.401149 93725 net.cpp:129] Top shape: 10 256 15 15 (576000)
I1202 19:58:30.401151 93725 net.cpp:137] Memory required for data: 2384640160
I1202 19:58:30.401156 93725 layer_factory.hpp:77] Creating layer res4e_branch2c
I1202 19:58:30.401163 93725 net.cpp:84] Creating Layer res4e_branch2c
I1202 19:58:30.401166 93725 net.cpp:406] res4e_branch2c <- res4e_branch2b
I1202 19:58:30.401171 93725 net.cpp:380] res4e_branch2c -> res4e_branch2c
I1202 19:58:30.404299 93725 net.cpp:122] Setting up res4e_branch2c
I1202 19:58:30.404309 93725 net.cpp:129] Top shape: 10 1024 15 15 (2304000)
I1202 19:58:30.404312 93725 net.cpp:137] Memory required for data: 2393856160
I1202 19:58:30.404316 93725 layer_factory.hpp:77] Creating layer bn4e_branch2c
I1202 19:58:30.404321 93725 net.cpp:84] Creating Layer bn4e_branch2c
I1202 19:58:30.404325 93725 net.cpp:406] bn4e_branch2c <- res4e_branch2c
I1202 19:58:30.404330 93725 net.cpp:367] bn4e_branch2c -> res4e_branch2c (in-place)
I1202 19:58:30.404491 93725 net.cpp:122] Setting up bn4e_branch2c
I1202 19:58:30.404498 93725 net.cpp:129] Top shape: 10 1024 15 15 (2304000)
I1202 19:58:30.404500 93725 net.cpp:137] Memory required for data: 2403072160
I1202 19:58:30.404506 93725 layer_factory.hpp:77] Creating layer scale4e_branch2c
I1202 19:58:30.404511 93725 net.cpp:84] Creating Layer scale4e_branch2c
I1202 19:58:30.404515 93725 net.cpp:406] scale4e_branch2c <- res4e_branch2c
I1202 19:58:30.404518 93725 net.cpp:367] scale4e_branch2c -> res4e_branch2c (in-place)
I1202 19:58:30.404556 93725 layer_factory.hpp:77] Creating layer scale4e_branch2c
I1202 19:58:30.404652 93725 net.cpp:122] Setting up scale4e_branch2c
I1202 19:58:30.404659 93725 net.cpp:129] Top shape: 10 1024 15 15 (2304000)
I1202 19:58:30.404661 93725 net.cpp:137] Memory required for data: 2412288160
I1202 19:58:30.404666 93725 layer_factory.hpp:77] Creating layer res4e
I1202 19:58:30.404673 93725 net.cpp:84] Creating Layer res4e
I1202 19:58:30.404677 93725 net.cpp:406] res4e <- res4d_res4d_relu_0_split_1
I1202 19:58:30.404680 93725 net.cpp:406] res4e <- res4e_branch2c
I1202 19:58:30.404686 93725 net.cpp:380] res4e -> res4e
I1202 19:58:30.404705 93725 net.cpp:122] Setting up res4e
I1202 19:58:30.404709 93725 net.cpp:129] Top shape: 10 1024 15 15 (2304000)
I1202 19:58:30.404712 93725 net.cpp:137] Memory required for data: 2421504160
I1202 19:58:30.404716 93725 layer_factory.hpp:77] Creating layer res4e_relu
I1202 19:58:30.404721 93725 net.cpp:84] Creating Layer res4e_relu
I1202 19:58:30.404723 93725 net.cpp:406] res4e_relu <- res4e
I1202 19:58:30.404729 93725 net.cpp:367] res4e_relu -> res4e (in-place)
I1202 19:58:30.404734 93725 net.cpp:122] Setting up res4e_relu
I1202 19:58:30.404738 93725 net.cpp:129] Top shape: 10 1024 15 15 (2304000)
I1202 19:58:30.404742 93725 net.cpp:137] Memory required for data: 2430720160
I1202 19:58:30.404743 93725 layer_factory.hpp:77] Creating layer res4e_res4e_relu_0_split
I1202 19:58:30.404747 93725 net.cpp:84] Creating Layer res4e_res4e_relu_0_split
I1202 19:58:30.404750 93725 net.cpp:406] res4e_res4e_relu_0_split <- res4e
I1202 19:58:30.404754 93725 net.cpp:380] res4e_res4e_relu_0_split -> res4e_res4e_relu_0_split_0
I1202 19:58:30.404759 93725 net.cpp:380] res4e_res4e_relu_0_split -> res4e_res4e_relu_0_split_1
I1202 19:58:30.404788 93725 net.cpp:122] Setting up res4e_res4e_relu_0_split
I1202 19:58:30.404793 93725 net.cpp:129] Top shape: 10 1024 15 15 (2304000)
I1202 19:58:30.404795 93725 net.cpp:129] Top shape: 10 1024 15 15 (2304000)
I1202 19:58:30.404798 93725 net.cpp:137] Memory required for data: 2449152160
I1202 19:58:30.404801 93725 layer_factory.hpp:77] Creating layer res4f_branch2a
I1202 19:58:30.404808 93725 net.cpp:84] Creating Layer res4f_branch2a
I1202 19:58:30.404812 93725 net.cpp:406] res4f_branch2a <- res4e_res4e_relu_0_split_0
I1202 19:58:30.404817 93725 net.cpp:380] res4f_branch2a -> res4f_branch2a
I1202 19:58:30.407582 93725 net.cpp:122] Setting up res4f_branch2a
I1202 19:58:30.407615 93725 net.cpp:129] Top shape: 10 256 15 15 (576000)
I1202 19:58:30.407619 93725 net.cpp:137] Memory required for data: 2451456160
I1202 19:58:30.407624 93725 layer_factory.hpp:77] Creating layer bn4f_branch2a
I1202 19:58:30.407629 93725 net.cpp:84] Creating Layer bn4f_branch2a
I1202 19:58:30.407632 93725 net.cpp:406] bn4f_branch2a <- res4f_branch2a
I1202 19:58:30.407636 93725 net.cpp:367] bn4f_branch2a -> res4f_branch2a (in-place)
I1202 19:58:30.407784 93725 net.cpp:122] Setting up bn4f_branch2a
I1202 19:58:30.407793 93725 net.cpp:129] Top shape: 10 256 15 15 (576000)
I1202 19:58:30.407795 93725 net.cpp:137] Memory required for data: 2453760160
I1202 19:58:30.407802 93725 layer_factory.hpp:77] Creating layer scale4f_branch2a
I1202 19:58:30.407807 93725 net.cpp:84] Creating Layer scale4f_branch2a
I1202 19:58:30.407810 93725 net.cpp:406] scale4f_branch2a <- res4f_branch2a
I1202 19:58:30.407814 93725 net.cpp:367] scale4f_branch2a -> res4f_branch2a (in-place)
I1202 19:58:30.407846 93725 layer_factory.hpp:77] Creating layer scale4f_branch2a
I1202 19:58:30.407932 93725 net.cpp:122] Setting up scale4f_branch2a
I1202 19:58:30.407938 93725 net.cpp:129] Top shape: 10 256 15 15 (576000)
I1202 19:58:30.407940 93725 net.cpp:137] Memory required for data: 2456064160
I1202 19:58:30.407945 93725 layer_factory.hpp:77] Creating layer res4f_branch2a_relu
I1202 19:58:30.407951 93725 net.cpp:84] Creating Layer res4f_branch2a_relu
I1202 19:58:30.407954 93725 net.cpp:406] res4f_branch2a_relu <- res4f_branch2a
I1202 19:58:30.407958 93725 net.cpp:367] res4f_branch2a_relu -> res4f_branch2a (in-place)
I1202 19:58:30.407963 93725 net.cpp:122] Setting up res4f_branch2a_relu
I1202 19:58:30.407966 93725 net.cpp:129] Top shape: 10 256 15 15 (576000)
I1202 19:58:30.407969 93725 net.cpp:137] Memory required for data: 2458368160
I1202 19:58:30.407972 93725 layer_factory.hpp:77] Creating layer res4f_branch2b
I1202 19:58:30.407980 93725 net.cpp:84] Creating Layer res4f_branch2b
I1202 19:58:30.407984 93725 net.cpp:406] res4f_branch2b <- res4f_branch2a
I1202 19:58:30.407987 93725 net.cpp:380] res4f_branch2b -> res4f_branch2b
I1202 19:58:30.413801 93725 net.cpp:122] Setting up res4f_branch2b
I1202 19:58:30.413813 93725 net.cpp:129] Top shape: 10 256 15 15 (576000)
I1202 19:58:30.413816 93725 net.cpp:137] Memory required for data: 2460672160
I1202 19:58:30.413820 93725 layer_factory.hpp:77] Creating layer bn4f_branch2b
I1202 19:58:30.413827 93725 net.cpp:84] Creating Layer bn4f_branch2b
I1202 19:58:30.413831 93725 net.cpp:406] bn4f_branch2b <- res4f_branch2b
I1202 19:58:30.413836 93725 net.cpp:367] bn4f_branch2b -> res4f_branch2b (in-place)
I1202 19:58:30.413987 93725 net.cpp:122] Setting up bn4f_branch2b
I1202 19:58:30.413993 93725 net.cpp:129] Top shape: 10 256 15 15 (576000)
I1202 19:58:30.413996 93725 net.cpp:137] Memory required for data: 2462976160
I1202 19:58:30.414002 93725 layer_factory.hpp:77] Creating layer scale4f_branch2b
I1202 19:58:30.414010 93725 net.cpp:84] Creating Layer scale4f_branch2b
I1202 19:58:30.414012 93725 net.cpp:406] scale4f_branch2b <- res4f_branch2b
I1202 19:58:30.414016 93725 net.cpp:367] scale4f_branch2b -> res4f_branch2b (in-place)
I1202 19:58:30.414048 93725 layer_factory.hpp:77] Creating layer scale4f_branch2b
I1202 19:58:30.414135 93725 net.cpp:122] Setting up scale4f_branch2b
I1202 19:58:30.414141 93725 net.cpp:129] Top shape: 10 256 15 15 (576000)
I1202 19:58:30.414144 93725 net.cpp:137] Memory required for data: 2465280160
I1202 19:58:30.414149 93725 layer_factory.hpp:77] Creating layer res4f_branch2b_relu
I1202 19:58:30.414152 93725 net.cpp:84] Creating Layer res4f_branch2b_relu
I1202 19:58:30.414155 93725 net.cpp:406] res4f_branch2b_relu <- res4f_branch2b
I1202 19:58:30.414160 93725 net.cpp:367] res4f_branch2b_relu -> res4f_branch2b (in-place)
I1202 19:58:30.414165 93725 net.cpp:122] Setting up res4f_branch2b_relu
I1202 19:58:30.414167 93725 net.cpp:129] Top shape: 10 256 15 15 (576000)
I1202 19:58:30.414175 93725 net.cpp:137] Memory required for data: 2467584160
I1202 19:58:30.414183 93725 layer_factory.hpp:77] Creating layer res4f_branch2c
I1202 19:58:30.414192 93725 net.cpp:84] Creating Layer res4f_branch2c
I1202 19:58:30.414196 93725 net.cpp:406] res4f_branch2c <- res4f_branch2b
I1202 19:58:30.414201 93725 net.cpp:380] res4f_branch2c -> res4f_branch2c
I1202 19:58:30.416986 93725 net.cpp:122] Setting up res4f_branch2c
I1202 19:58:30.416997 93725 net.cpp:129] Top shape: 10 1024 15 15 (2304000)
I1202 19:58:30.417001 93725 net.cpp:137] Memory required for data: 2476800160
I1202 19:58:30.417004 93725 layer_factory.hpp:77] Creating layer bn4f_branch2c
I1202 19:58:30.417011 93725 net.cpp:84] Creating Layer bn4f_branch2c
I1202 19:58:30.417013 93725 net.cpp:406] bn4f_branch2c <- res4f_branch2c
I1202 19:58:30.417019 93725 net.cpp:367] bn4f_branch2c -> res4f_branch2c (in-place)
I1202 19:58:30.417177 93725 net.cpp:122] Setting up bn4f_branch2c
I1202 19:58:30.417183 93725 net.cpp:129] Top shape: 10 1024 15 15 (2304000)
I1202 19:58:30.417186 93725 net.cpp:137] Memory required for data: 2486016160
I1202 19:58:30.417227 93725 layer_factory.hpp:77] Creating layer scale4f_branch2c
I1202 19:58:30.417234 93725 net.cpp:84] Creating Layer scale4f_branch2c
I1202 19:58:30.417238 93725 net.cpp:406] scale4f_branch2c <- res4f_branch2c
I1202 19:58:30.417243 93725 net.cpp:367] scale4f_branch2c -> res4f_branch2c (in-place)
I1202 19:58:30.417276 93725 layer_factory.hpp:77] Creating layer scale4f_branch2c
I1202 19:58:30.417369 93725 net.cpp:122] Setting up scale4f_branch2c
I1202 19:58:30.417376 93725 net.cpp:129] Top shape: 10 1024 15 15 (2304000)
I1202 19:58:30.417378 93725 net.cpp:137] Memory required for data: 2495232160
I1202 19:58:30.417384 93725 layer_factory.hpp:77] Creating layer res4f
I1202 19:58:30.417392 93725 net.cpp:84] Creating Layer res4f
I1202 19:58:30.417395 93725 net.cpp:406] res4f <- res4e_res4e_relu_0_split_1
I1202 19:58:30.417398 93725 net.cpp:406] res4f <- res4f_branch2c
I1202 19:58:30.417403 93725 net.cpp:380] res4f -> res4f
I1202 19:58:30.417423 93725 net.cpp:122] Setting up res4f
I1202 19:58:30.417428 93725 net.cpp:129] Top shape: 10 1024 15 15 (2304000)
I1202 19:58:30.417431 93725 net.cpp:137] Memory required for data: 2504448160
I1202 19:58:30.417433 93725 layer_factory.hpp:77] Creating layer res4f_relu
I1202 19:58:30.417438 93725 net.cpp:84] Creating Layer res4f_relu
I1202 19:58:30.417441 93725 net.cpp:406] res4f_relu <- res4f
I1202 19:58:30.417446 93725 net.cpp:367] res4f_relu -> res4f (in-place)
I1202 19:58:30.417450 93725 net.cpp:122] Setting up res4f_relu
I1202 19:58:30.417454 93725 net.cpp:129] Top shape: 10 1024 15 15 (2304000)
I1202 19:58:30.417457 93725 net.cpp:137] Memory required for data: 2513664160
I1202 19:58:30.417460 93725 layer_factory.hpp:77] Creating layer res4f_res4f_relu_0_split
I1202 19:58:30.417465 93725 net.cpp:84] Creating Layer res4f_res4f_relu_0_split
I1202 19:58:30.417469 93725 net.cpp:406] res4f_res4f_relu_0_split <- res4f
I1202 19:58:30.417472 93725 net.cpp:380] res4f_res4f_relu_0_split -> res4f_res4f_relu_0_split_0
I1202 19:58:30.417477 93725 net.cpp:380] res4f_res4f_relu_0_split -> res4f_res4f_relu_0_split_1
I1202 19:58:30.417506 93725 net.cpp:122] Setting up res4f_res4f_relu_0_split
I1202 19:58:30.417511 93725 net.cpp:129] Top shape: 10 1024 15 15 (2304000)
I1202 19:58:30.417515 93725 net.cpp:129] Top shape: 10 1024 15 15 (2304000)
I1202 19:58:30.417518 93725 net.cpp:137] Memory required for data: 2532096160
I1202 19:58:30.417520 93725 layer_factory.hpp:77] Creating layer res5a_branch1
I1202 19:58:30.417528 93725 net.cpp:84] Creating Layer res5a_branch1
I1202 19:58:30.417532 93725 net.cpp:406] res5a_branch1 <- res4f_res4f_relu_0_split_0
I1202 19:58:30.417536 93725 net.cpp:380] res5a_branch1 -> res5a_branch1
I1202 19:58:30.437566 93725 net.cpp:122] Setting up res5a_branch1
I1202 19:58:30.437578 93725 net.cpp:129] Top shape: 10 2048 8 8 (1310720)
I1202 19:58:30.437582 93725 net.cpp:137] Memory required for data: 2537339040
I1202 19:58:30.437585 93725 layer_factory.hpp:77] Creating layer bn5a_branch1
I1202 19:58:30.437597 93725 net.cpp:84] Creating Layer bn5a_branch1
I1202 19:58:30.437607 93725 net.cpp:406] bn5a_branch1 <- res5a_branch1
I1202 19:58:30.437614 93725 net.cpp:367] bn5a_branch1 -> res5a_branch1 (in-place)
I1202 19:58:30.437803 93725 net.cpp:122] Setting up bn5a_branch1
I1202 19:58:30.437808 93725 net.cpp:129] Top shape: 10 2048 8 8 (1310720)
I1202 19:58:30.437811 93725 net.cpp:137] Memory required for data: 2542581920
I1202 19:58:30.437818 93725 layer_factory.hpp:77] Creating layer scale5a_branch1
I1202 19:58:30.437822 93725 net.cpp:84] Creating Layer scale5a_branch1
I1202 19:58:30.437825 93725 net.cpp:406] scale5a_branch1 <- res5a_branch1
I1202 19:58:30.437829 93725 net.cpp:367] scale5a_branch1 -> res5a_branch1 (in-place)
I1202 19:58:30.437865 93725 layer_factory.hpp:77] Creating layer scale5a_branch1
I1202 19:58:30.437958 93725 net.cpp:122] Setting up scale5a_branch1
I1202 19:58:30.437964 93725 net.cpp:129] Top shape: 10 2048 8 8 (1310720)
I1202 19:58:30.437968 93725 net.cpp:137] Memory required for data: 2547824800
I1202 19:58:30.437973 93725 layer_factory.hpp:77] Creating layer res5a_branch2a
I1202 19:58:30.437981 93725 net.cpp:84] Creating Layer res5a_branch2a
I1202 19:58:30.437984 93725 net.cpp:406] res5a_branch2a <- res4f_res4f_relu_0_split_1
I1202 19:58:30.437991 93725 net.cpp:380] res5a_branch2a -> res5a_branch2a
I1202 19:58:30.443153 93725 net.cpp:122] Setting up res5a_branch2a
I1202 19:58:30.443164 93725 net.cpp:129] Top shape: 10 512 8 8 (327680)
I1202 19:58:30.443167 93725 net.cpp:137] Memory required for data: 2549135520
I1202 19:58:30.443172 93725 layer_factory.hpp:77] Creating layer bn5a_branch2a
I1202 19:58:30.443177 93725 net.cpp:84] Creating Layer bn5a_branch2a
I1202 19:58:30.443181 93725 net.cpp:406] bn5a_branch2a <- res5a_branch2a
I1202 19:58:30.443186 93725 net.cpp:367] bn5a_branch2a -> res5a_branch2a (in-place)
I1202 19:58:30.443363 93725 net.cpp:122] Setting up bn5a_branch2a
I1202 19:58:30.443372 93725 net.cpp:129] Top shape: 10 512 8 8 (327680)
I1202 19:58:30.443374 93725 net.cpp:137] Memory required for data: 2550446240
I1202 19:58:30.443380 93725 layer_factory.hpp:77] Creating layer scale5a_branch2a
I1202 19:58:30.443387 93725 net.cpp:84] Creating Layer scale5a_branch2a
I1202 19:58:30.443392 93725 net.cpp:406] scale5a_branch2a <- res5a_branch2a
I1202 19:58:30.443394 93725 net.cpp:367] scale5a_branch2a -> res5a_branch2a (in-place)
I1202 19:58:30.443428 93725 layer_factory.hpp:77] Creating layer scale5a_branch2a
I1202 19:58:30.443526 93725 net.cpp:122] Setting up scale5a_branch2a
I1202 19:58:30.443533 93725 net.cpp:129] Top shape: 10 512 8 8 (327680)
I1202 19:58:30.443536 93725 net.cpp:137] Memory required for data: 2551756960
I1202 19:58:30.443541 93725 layer_factory.hpp:77] Creating layer res5a_branch2a_relu
I1202 19:58:30.443545 93725 net.cpp:84] Creating Layer res5a_branch2a_relu
I1202 19:58:30.443548 93725 net.cpp:406] res5a_branch2a_relu <- res5a_branch2a
I1202 19:58:30.443554 93725 net.cpp:367] res5a_branch2a_relu -> res5a_branch2a (in-place)
I1202 19:58:30.443559 93725 net.cpp:122] Setting up res5a_branch2a_relu
I1202 19:58:30.443563 93725 net.cpp:129] Top shape: 10 512 8 8 (327680)
I1202 19:58:30.443567 93725 net.cpp:137] Memory required for data: 2553067680
I1202 19:58:30.443569 93725 layer_factory.hpp:77] Creating layer res5a_branch2b
I1202 19:58:30.443576 93725 net.cpp:84] Creating Layer res5a_branch2b
I1202 19:58:30.443581 93725 net.cpp:406] res5a_branch2b <- res5a_branch2a
I1202 19:58:30.443586 93725 net.cpp:380] res5a_branch2b -> res5a_branch2b
I1202 19:58:30.465858 93725 net.cpp:122] Setting up res5a_branch2b
I1202 19:58:30.465873 93725 net.cpp:129] Top shape: 10 512 8 8 (327680)
I1202 19:58:30.465875 93725 net.cpp:137] Memory required for data: 2554378400
I1202 19:58:30.465880 93725 layer_factory.hpp:77] Creating layer bn5a_branch2b
I1202 19:58:30.465888 93725 net.cpp:84] Creating Layer bn5a_branch2b
I1202 19:58:30.465891 93725 net.cpp:406] bn5a_branch2b <- res5a_branch2b
I1202 19:58:30.465896 93725 net.cpp:367] bn5a_branch2b -> res5a_branch2b (in-place)
I1202 19:58:30.466066 93725 net.cpp:122] Setting up bn5a_branch2b
I1202 19:58:30.466079 93725 net.cpp:129] Top shape: 10 512 8 8 (327680)
I1202 19:58:30.466083 93725 net.cpp:137] Memory required for data: 2555689120
I1202 19:58:30.466089 93725 layer_factory.hpp:77] Creating layer scale5a_branch2b
I1202 19:58:30.466094 93725 net.cpp:84] Creating Layer scale5a_branch2b
I1202 19:58:30.466097 93725 net.cpp:406] scale5a_branch2b <- res5a_branch2b
I1202 19:58:30.466102 93725 net.cpp:367] scale5a_branch2b -> res5a_branch2b (in-place)
I1202 19:58:30.466135 93725 layer_factory.hpp:77] Creating layer scale5a_branch2b
I1202 19:58:30.466230 93725 net.cpp:122] Setting up scale5a_branch2b
I1202 19:58:30.466236 93725 net.cpp:129] Top shape: 10 512 8 8 (327680)
I1202 19:58:30.466239 93725 net.cpp:137] Memory required for data: 2556999840
I1202 19:58:30.466244 93725 layer_factory.hpp:77] Creating layer res5a_branch2b_relu
I1202 19:58:30.466250 93725 net.cpp:84] Creating Layer res5a_branch2b_relu
I1202 19:58:30.466254 93725 net.cpp:406] res5a_branch2b_relu <- res5a_branch2b
I1202 19:58:30.466258 93725 net.cpp:367] res5a_branch2b_relu -> res5a_branch2b (in-place)
I1202 19:58:30.466262 93725 net.cpp:122] Setting up res5a_branch2b_relu
I1202 19:58:30.466266 93725 net.cpp:129] Top shape: 10 512 8 8 (327680)
I1202 19:58:30.466269 93725 net.cpp:137] Memory required for data: 2558310560
I1202 19:58:30.466271 93725 layer_factory.hpp:77] Creating layer res5a_branch2c
I1202 19:58:30.466280 93725 net.cpp:84] Creating Layer res5a_branch2c
I1202 19:58:30.466284 93725 net.cpp:406] res5a_branch2c <- res5a_branch2b
I1202 19:58:30.466289 93725 net.cpp:380] res5a_branch2c -> res5a_branch2c
I1202 19:58:30.476368 93725 net.cpp:122] Setting up res5a_branch2c
I1202 19:58:30.476380 93725 net.cpp:129] Top shape: 10 2048 8 8 (1310720)
I1202 19:58:30.476383 93725 net.cpp:137] Memory required for data: 2563553440
I1202 19:58:30.476387 93725 layer_factory.hpp:77] Creating layer bn5a_branch2c
I1202 19:58:30.476392 93725 net.cpp:84] Creating Layer bn5a_branch2c
I1202 19:58:30.476397 93725 net.cpp:406] bn5a_branch2c <- res5a_branch2c
I1202 19:58:30.476402 93725 net.cpp:367] bn5a_branch2c -> res5a_branch2c (in-place)
I1202 19:58:30.476568 93725 net.cpp:122] Setting up bn5a_branch2c
I1202 19:58:30.476574 93725 net.cpp:129] Top shape: 10 2048 8 8 (1310720)
I1202 19:58:30.476577 93725 net.cpp:137] Memory required for data: 2568796320
I1202 19:58:30.476583 93725 layer_factory.hpp:77] Creating layer scale5a_branch2c
I1202 19:58:30.476588 93725 net.cpp:84] Creating Layer scale5a_branch2c
I1202 19:58:30.476591 93725 net.cpp:406] scale5a_branch2c <- res5a_branch2c
I1202 19:58:30.476594 93725 net.cpp:367] scale5a_branch2c -> res5a_branch2c (in-place)
I1202 19:58:30.476630 93725 layer_factory.hpp:77] Creating layer scale5a_branch2c
I1202 19:58:30.476727 93725 net.cpp:122] Setting up scale5a_branch2c
I1202 19:58:30.476733 93725 net.cpp:129] Top shape: 10 2048 8 8 (1310720)
I1202 19:58:30.476735 93725 net.cpp:137] Memory required for data: 2574039200
I1202 19:58:30.476740 93725 layer_factory.hpp:77] Creating layer res5a
I1202 19:58:30.476747 93725 net.cpp:84] Creating Layer res5a
I1202 19:58:30.476750 93725 net.cpp:406] res5a <- res5a_branch1
I1202 19:58:30.476754 93725 net.cpp:406] res5a <- res5a_branch2c
I1202 19:58:30.476760 93725 net.cpp:380] res5a -> res5a
I1202 19:58:30.476779 93725 net.cpp:122] Setting up res5a
I1202 19:58:30.476784 93725 net.cpp:129] Top shape: 10 2048 8 8 (1310720)
I1202 19:58:30.476788 93725 net.cpp:137] Memory required for data: 2579282080
I1202 19:58:30.476790 93725 layer_factory.hpp:77] Creating layer res5a_relu
I1202 19:58:30.476795 93725 net.cpp:84] Creating Layer res5a_relu
I1202 19:58:30.476799 93725 net.cpp:406] res5a_relu <- res5a
I1202 19:58:30.476804 93725 net.cpp:367] res5a_relu -> res5a (in-place)
I1202 19:58:30.476809 93725 net.cpp:122] Setting up res5a_relu
I1202 19:58:30.476814 93725 net.cpp:129] Top shape: 10 2048 8 8 (1310720)
I1202 19:58:30.476815 93725 net.cpp:137] Memory required for data: 2584524960
I1202 19:58:30.476819 93725 layer_factory.hpp:77] Creating layer res5a_res5a_relu_0_split
I1202 19:58:30.476833 93725 net.cpp:84] Creating Layer res5a_res5a_relu_0_split
I1202 19:58:30.476836 93725 net.cpp:406] res5a_res5a_relu_0_split <- res5a
I1202 19:58:30.476840 93725 net.cpp:380] res5a_res5a_relu_0_split -> res5a_res5a_relu_0_split_0
I1202 19:58:30.476845 93725 net.cpp:380] res5a_res5a_relu_0_split -> res5a_res5a_relu_0_split_1
I1202 19:58:30.476878 93725 net.cpp:122] Setting up res5a_res5a_relu_0_split
I1202 19:58:30.476883 93725 net.cpp:129] Top shape: 10 2048 8 8 (1310720)
I1202 19:58:30.476887 93725 net.cpp:129] Top shape: 10 2048 8 8 (1310720)
I1202 19:58:30.476889 93725 net.cpp:137] Memory required for data: 2595010720
I1202 19:58:30.476892 93725 layer_factory.hpp:77] Creating layer res5b_branch2a
I1202 19:58:30.476902 93725 net.cpp:84] Creating Layer res5b_branch2a
I1202 19:58:30.476904 93725 net.cpp:406] res5b_branch2a <- res5a_res5a_relu_0_split_0
I1202 19:58:30.476909 93725 net.cpp:380] res5b_branch2a -> res5b_branch2a
I1202 19:58:30.486965 93725 net.cpp:122] Setting up res5b_branch2a
I1202 19:58:30.486977 93725 net.cpp:129] Top shape: 10 512 8 8 (327680)
I1202 19:58:30.486980 93725 net.cpp:137] Memory required for data: 2596321440
I1202 19:58:30.486984 93725 layer_factory.hpp:77] Creating layer bn5b_branch2a
I1202 19:58:30.486990 93725 net.cpp:84] Creating Layer bn5b_branch2a
I1202 19:58:30.486994 93725 net.cpp:406] bn5b_branch2a <- res5b_branch2a
I1202 19:58:30.486997 93725 net.cpp:367] bn5b_branch2a -> res5b_branch2a (in-place)
I1202 19:58:30.487159 93725 net.cpp:122] Setting up bn5b_branch2a
I1202 19:58:30.487167 93725 net.cpp:129] Top shape: 10 512 8 8 (327680)
I1202 19:58:30.487169 93725 net.cpp:137] Memory required for data: 2597632160
I1202 19:58:30.487176 93725 layer_factory.hpp:77] Creating layer scale5b_branch2a
I1202 19:58:30.487181 93725 net.cpp:84] Creating Layer scale5b_branch2a
I1202 19:58:30.487185 93725 net.cpp:406] scale5b_branch2a <- res5b_branch2a
I1202 19:58:30.487188 93725 net.cpp:367] scale5b_branch2a -> res5b_branch2a (in-place)
I1202 19:58:30.487222 93725 layer_factory.hpp:77] Creating layer scale5b_branch2a
I1202 19:58:30.487320 93725 net.cpp:122] Setting up scale5b_branch2a
I1202 19:58:30.487330 93725 net.cpp:129] Top shape: 10 512 8 8 (327680)
I1202 19:58:30.487334 93725 net.cpp:137] Memory required for data: 2598942880
I1202 19:58:30.487339 93725 layer_factory.hpp:77] Creating layer res5b_branch2a_relu
I1202 19:58:30.487347 93725 net.cpp:84] Creating Layer res5b_branch2a_relu
I1202 19:58:30.487351 93725 net.cpp:406] res5b_branch2a_relu <- res5b_branch2a
I1202 19:58:30.487354 93725 net.cpp:367] res5b_branch2a_relu -> res5b_branch2a (in-place)
I1202 19:58:30.487360 93725 net.cpp:122] Setting up res5b_branch2a_relu
I1202 19:58:30.487362 93725 net.cpp:129] Top shape: 10 512 8 8 (327680)
I1202 19:58:30.487365 93725 net.cpp:137] Memory required for data: 2600253600
I1202 19:58:30.487368 93725 layer_factory.hpp:77] Creating layer res5b_branch2b
I1202 19:58:30.487376 93725 net.cpp:84] Creating Layer res5b_branch2b
I1202 19:58:30.487380 93725 net.cpp:406] res5b_branch2b <- res5b_branch2a
I1202 19:58:30.487383 93725 net.cpp:380] res5b_branch2b -> res5b_branch2b
I1202 19:58:30.509654 93725 net.cpp:122] Setting up res5b_branch2b
I1202 19:58:30.509670 93725 net.cpp:129] Top shape: 10 512 8 8 (327680)
I1202 19:58:30.509673 93725 net.cpp:137] Memory required for data: 2601564320
I1202 19:58:30.509678 93725 layer_factory.hpp:77] Creating layer bn5b_branch2b
I1202 19:58:30.509686 93725 net.cpp:84] Creating Layer bn5b_branch2b
I1202 19:58:30.509691 93725 net.cpp:406] bn5b_branch2b <- res5b_branch2b
I1202 19:58:30.509696 93725 net.cpp:367] bn5b_branch2b -> res5b_branch2b (in-place)
I1202 19:58:30.509860 93725 net.cpp:122] Setting up bn5b_branch2b
I1202 19:58:30.509865 93725 net.cpp:129] Top shape: 10 512 8 8 (327680)
I1202 19:58:30.509868 93725 net.cpp:137] Memory required for data: 2602875040
I1202 19:58:30.509874 93725 layer_factory.hpp:77] Creating layer scale5b_branch2b
I1202 19:58:30.509884 93725 net.cpp:84] Creating Layer scale5b_branch2b
I1202 19:58:30.509892 93725 net.cpp:406] scale5b_branch2b <- res5b_branch2b
I1202 19:58:30.509903 93725 net.cpp:367] scale5b_branch2b -> res5b_branch2b (in-place)
I1202 19:58:30.509938 93725 layer_factory.hpp:77] Creating layer scale5b_branch2b
I1202 19:58:30.510035 93725 net.cpp:122] Setting up scale5b_branch2b
I1202 19:58:30.510041 93725 net.cpp:129] Top shape: 10 512 8 8 (327680)
I1202 19:58:30.510043 93725 net.cpp:137] Memory required for data: 2604185760
I1202 19:58:30.510048 93725 layer_factory.hpp:77] Creating layer res5b_branch2b_relu
I1202 19:58:30.510053 93725 net.cpp:84] Creating Layer res5b_branch2b_relu
I1202 19:58:30.510056 93725 net.cpp:406] res5b_branch2b_relu <- res5b_branch2b
I1202 19:58:30.510059 93725 net.cpp:367] res5b_branch2b_relu -> res5b_branch2b (in-place)
I1202 19:58:30.510064 93725 net.cpp:122] Setting up res5b_branch2b_relu
I1202 19:58:30.510068 93725 net.cpp:129] Top shape: 10 512 8 8 (327680)
I1202 19:58:30.510071 93725 net.cpp:137] Memory required for data: 2605496480
I1202 19:58:30.510073 93725 layer_factory.hpp:77] Creating layer res5b_branch2c
I1202 19:58:30.510082 93725 net.cpp:84] Creating Layer res5b_branch2c
I1202 19:58:30.510084 93725 net.cpp:406] res5b_branch2c <- res5b_branch2b
I1202 19:58:30.510093 93725 net.cpp:380] res5b_branch2c -> res5b_branch2c
I1202 19:58:30.520187 93725 net.cpp:122] Setting up res5b_branch2c
I1202 19:58:30.520200 93725 net.cpp:129] Top shape: 10 2048 8 8 (1310720)
I1202 19:58:30.520202 93725 net.cpp:137] Memory required for data: 2610739360
I1202 19:58:30.520206 93725 layer_factory.hpp:77] Creating layer bn5b_branch2c
I1202 19:58:30.520212 93725 net.cpp:84] Creating Layer bn5b_branch2c
I1202 19:58:30.520215 93725 net.cpp:406] bn5b_branch2c <- res5b_branch2c
I1202 19:58:30.520222 93725 net.cpp:367] bn5b_branch2c -> res5b_branch2c (in-place)
I1202 19:58:30.520387 93725 net.cpp:122] Setting up bn5b_branch2c
I1202 19:58:30.520393 93725 net.cpp:129] Top shape: 10 2048 8 8 (1310720)
I1202 19:58:30.520396 93725 net.cpp:137] Memory required for data: 2615982240
I1202 19:58:30.520403 93725 layer_factory.hpp:77] Creating layer scale5b_branch2c
I1202 19:58:30.520408 93725 net.cpp:84] Creating Layer scale5b_branch2c
I1202 19:58:30.520411 93725 net.cpp:406] scale5b_branch2c <- res5b_branch2c
I1202 19:58:30.520416 93725 net.cpp:367] scale5b_branch2c -> res5b_branch2c (in-place)
I1202 19:58:30.520450 93725 layer_factory.hpp:77] Creating layer scale5b_branch2c
I1202 19:58:30.520547 93725 net.cpp:122] Setting up scale5b_branch2c
I1202 19:58:30.520553 93725 net.cpp:129] Top shape: 10 2048 8 8 (1310720)
I1202 19:58:30.520555 93725 net.cpp:137] Memory required for data: 2621225120
I1202 19:58:30.520561 93725 layer_factory.hpp:77] Creating layer res5b
I1202 19:58:30.520568 93725 net.cpp:84] Creating Layer res5b
I1202 19:58:30.520571 93725 net.cpp:406] res5b <- res5a_res5a_relu_0_split_1
I1202 19:58:30.520576 93725 net.cpp:406] res5b <- res5b_branch2c
I1202 19:58:30.520581 93725 net.cpp:380] res5b -> res5b
I1202 19:58:30.520601 93725 net.cpp:122] Setting up res5b
I1202 19:58:30.520606 93725 net.cpp:129] Top shape: 10 2048 8 8 (1310720)
I1202 19:58:30.520608 93725 net.cpp:137] Memory required for data: 2626468000
I1202 19:58:30.520612 93725 layer_factory.hpp:77] Creating layer res5b_relu
I1202 19:58:30.520617 93725 net.cpp:84] Creating Layer res5b_relu
I1202 19:58:30.520619 93725 net.cpp:406] res5b_relu <- res5b
I1202 19:58:30.520624 93725 net.cpp:367] res5b_relu -> res5b (in-place)
I1202 19:58:30.520629 93725 net.cpp:122] Setting up res5b_relu
I1202 19:58:30.520633 93725 net.cpp:129] Top shape: 10 2048 8 8 (1310720)
I1202 19:58:30.520635 93725 net.cpp:137] Memory required for data: 2631710880
I1202 19:58:30.520638 93725 layer_factory.hpp:77] Creating layer res5b_res5b_relu_0_split
I1202 19:58:30.520642 93725 net.cpp:84] Creating Layer res5b_res5b_relu_0_split
I1202 19:58:30.520645 93725 net.cpp:406] res5b_res5b_relu_0_split <- res5b
I1202 19:58:30.520649 93725 net.cpp:380] res5b_res5b_relu_0_split -> res5b_res5b_relu_0_split_0
I1202 19:58:30.520654 93725 net.cpp:380] res5b_res5b_relu_0_split -> res5b_res5b_relu_0_split_1
I1202 19:58:30.520694 93725 net.cpp:122] Setting up res5b_res5b_relu_0_split
I1202 19:58:30.520699 93725 net.cpp:129] Top shape: 10 2048 8 8 (1310720)
I1202 19:58:30.520704 93725 net.cpp:129] Top shape: 10 2048 8 8 (1310720)
I1202 19:58:30.520705 93725 net.cpp:137] Memory required for data: 2642196640
I1202 19:58:30.520709 93725 layer_factory.hpp:77] Creating layer res5c_branch2a
I1202 19:58:30.520717 93725 net.cpp:84] Creating Layer res5c_branch2a
I1202 19:58:30.520721 93725 net.cpp:406] res5c_branch2a <- res5b_res5b_relu_0_split_0
I1202 19:58:30.520725 93725 net.cpp:380] res5c_branch2a -> res5c_branch2a
I1202 19:58:30.530819 93725 net.cpp:122] Setting up res5c_branch2a
I1202 19:58:30.530831 93725 net.cpp:129] Top shape: 10 512 8 8 (327680)
I1202 19:58:30.530834 93725 net.cpp:137] Memory required for data: 2643507360
I1202 19:58:30.530839 93725 layer_factory.hpp:77] Creating layer bn5c_branch2a
I1202 19:58:30.530845 93725 net.cpp:84] Creating Layer bn5c_branch2a
I1202 19:58:30.530848 93725 net.cpp:406] bn5c_branch2a <- res5c_branch2a
I1202 19:58:30.530856 93725 net.cpp:367] bn5c_branch2a -> res5c_branch2a (in-place)
I1202 19:58:30.531024 93725 net.cpp:122] Setting up bn5c_branch2a
I1202 19:58:30.531030 93725 net.cpp:129] Top shape: 10 512 8 8 (327680)
I1202 19:58:30.531033 93725 net.cpp:137] Memory required for data: 2644818080
I1202 19:58:30.531039 93725 layer_factory.hpp:77] Creating layer scale5c_branch2a
I1202 19:58:30.531044 93725 net.cpp:84] Creating Layer scale5c_branch2a
I1202 19:58:30.531047 93725 net.cpp:406] scale5c_branch2a <- res5c_branch2a
I1202 19:58:30.531051 93725 net.cpp:367] scale5c_branch2a -> res5c_branch2a (in-place)
I1202 19:58:30.531086 93725 layer_factory.hpp:77] Creating layer scale5c_branch2a
I1202 19:58:30.531183 93725 net.cpp:122] Setting up scale5c_branch2a
I1202 19:58:30.531190 93725 net.cpp:129] Top shape: 10 512 8 8 (327680)
I1202 19:58:30.531193 93725 net.cpp:137] Memory required for data: 2646128800
I1202 19:58:30.531198 93725 layer_factory.hpp:77] Creating layer res5c_branch2a_relu
I1202 19:58:30.531203 93725 net.cpp:84] Creating Layer res5c_branch2a_relu
I1202 19:58:30.531205 93725 net.cpp:406] res5c_branch2a_relu <- res5c_branch2a
I1202 19:58:30.531211 93725 net.cpp:367] res5c_branch2a_relu -> res5c_branch2a (in-place)
I1202 19:58:30.531215 93725 net.cpp:122] Setting up res5c_branch2a_relu
I1202 19:58:30.531219 93725 net.cpp:129] Top shape: 10 512 8 8 (327680)
I1202 19:58:30.531222 93725 net.cpp:137] Memory required for data: 2647439520
I1202 19:58:30.531224 93725 layer_factory.hpp:77] Creating layer res5c_branch2b
I1202 19:58:30.531230 93725 net.cpp:84] Creating Layer res5c_branch2b
I1202 19:58:30.531234 93725 net.cpp:406] res5c_branch2b <- res5c_branch2a
I1202 19:58:30.531240 93725 net.cpp:380] res5c_branch2b -> res5c_branch2b
I1202 19:58:30.553537 93725 net.cpp:122] Setting up res5c_branch2b
I1202 19:58:30.553550 93725 net.cpp:129] Top shape: 10 512 8 8 (327680)
I1202 19:58:30.553553 93725 net.cpp:137] Memory required for data: 2648750240
I1202 19:58:30.553558 93725 layer_factory.hpp:77] Creating layer bn5c_branch2b
I1202 19:58:30.553563 93725 net.cpp:84] Creating Layer bn5c_branch2b
I1202 19:58:30.553566 93725 net.cpp:406] bn5c_branch2b <- res5c_branch2b
I1202 19:58:30.553570 93725 net.cpp:367] bn5c_branch2b -> res5c_branch2b (in-place)
I1202 19:58:30.553738 93725 net.cpp:122] Setting up bn5c_branch2b
I1202 19:58:30.553745 93725 net.cpp:129] Top shape: 10 512 8 8 (327680)
I1202 19:58:30.553747 93725 net.cpp:137] Memory required for data: 2650060960
I1202 19:58:30.553752 93725 layer_factory.hpp:77] Creating layer scale5c_branch2b
I1202 19:58:30.553759 93725 net.cpp:84] Creating Layer scale5c_branch2b
I1202 19:58:30.553763 93725 net.cpp:406] scale5c_branch2b <- res5c_branch2b
I1202 19:58:30.553766 93725 net.cpp:367] scale5c_branch2b -> res5c_branch2b (in-place)
I1202 19:58:30.553802 93725 layer_factory.hpp:77] Creating layer scale5c_branch2b
I1202 19:58:30.553902 93725 net.cpp:122] Setting up scale5c_branch2b
I1202 19:58:30.553912 93725 net.cpp:129] Top shape: 10 512 8 8 (327680)
I1202 19:58:30.553921 93725 net.cpp:137] Memory required for data: 2651371680
I1202 19:58:30.553926 93725 layer_factory.hpp:77] Creating layer res5c_branch2b_relu
I1202 19:58:30.553933 93725 net.cpp:84] Creating Layer res5c_branch2b_relu
I1202 19:58:30.553936 93725 net.cpp:406] res5c_branch2b_relu <- res5c_branch2b
I1202 19:58:30.553941 93725 net.cpp:367] res5c_branch2b_relu -> res5c_branch2b (in-place)
I1202 19:58:30.553944 93725 net.cpp:122] Setting up res5c_branch2b_relu
I1202 19:58:30.553948 93725 net.cpp:129] Top shape: 10 512 8 8 (327680)
I1202 19:58:30.553951 93725 net.cpp:137] Memory required for data: 2652682400
I1202 19:58:30.553954 93725 layer_factory.hpp:77] Creating layer res5c_branch2c
I1202 19:58:30.553961 93725 net.cpp:84] Creating Layer res5c_branch2c
I1202 19:58:30.553966 93725 net.cpp:406] res5c_branch2c <- res5c_branch2b
I1202 19:58:30.553969 93725 net.cpp:380] res5c_branch2c -> res5c_branch2c
I1202 19:58:30.564015 93725 net.cpp:122] Setting up res5c_branch2c
I1202 19:58:30.564028 93725 net.cpp:129] Top shape: 10 2048 8 8 (1310720)
I1202 19:58:30.564031 93725 net.cpp:137] Memory required for data: 2657925280
I1202 19:58:30.564035 93725 layer_factory.hpp:77] Creating layer bn5c_branch2c
I1202 19:58:30.564043 93725 net.cpp:84] Creating Layer bn5c_branch2c
I1202 19:58:30.564045 93725 net.cpp:406] bn5c_branch2c <- res5c_branch2c
I1202 19:58:30.564050 93725 net.cpp:367] bn5c_branch2c -> res5c_branch2c (in-place)
I1202 19:58:30.564218 93725 net.cpp:122] Setting up bn5c_branch2c
I1202 19:58:30.564224 93725 net.cpp:129] Top shape: 10 2048 8 8 (1310720)
I1202 19:58:30.564226 93725 net.cpp:137] Memory required for data: 2663168160
I1202 19:58:30.564232 93725 layer_factory.hpp:77] Creating layer scale5c_branch2c
I1202 19:58:30.564237 93725 net.cpp:84] Creating Layer scale5c_branch2c
I1202 19:58:30.564240 93725 net.cpp:406] scale5c_branch2c <- res5c_branch2c
I1202 19:58:30.564245 93725 net.cpp:367] scale5c_branch2c -> res5c_branch2c (in-place)
I1202 19:58:30.564278 93725 layer_factory.hpp:77] Creating layer scale5c_branch2c
I1202 19:58:30.564378 93725 net.cpp:122] Setting up scale5c_branch2c
I1202 19:58:30.564384 93725 net.cpp:129] Top shape: 10 2048 8 8 (1310720)
I1202 19:58:30.564388 93725 net.cpp:137] Memory required for data: 2668411040
I1202 19:58:30.564393 93725 layer_factory.hpp:77] Creating layer res5c
I1202 19:58:30.564398 93725 net.cpp:84] Creating Layer res5c
I1202 19:58:30.564400 93725 net.cpp:406] res5c <- res5b_res5b_relu_0_split_1
I1202 19:58:30.564404 93725 net.cpp:406] res5c <- res5c_branch2c
I1202 19:58:30.564409 93725 net.cpp:380] res5c -> res5c
I1202 19:58:30.564430 93725 net.cpp:122] Setting up res5c
I1202 19:58:30.564436 93725 net.cpp:129] Top shape: 10 2048 8 8 (1310720)
I1202 19:58:30.564438 93725 net.cpp:137] Memory required for data: 2673653920
I1202 19:58:30.564441 93725 layer_factory.hpp:77] Creating layer res5c_relu
I1202 19:58:30.564447 93725 net.cpp:84] Creating Layer res5c_relu
I1202 19:58:30.564451 93725 net.cpp:406] res5c_relu <- res5c
I1202 19:58:30.564455 93725 net.cpp:367] res5c_relu -> res5c (in-place)
I1202 19:58:30.564460 93725 net.cpp:122] Setting up res5c_relu
I1202 19:58:30.564463 93725 net.cpp:129] Top shape: 10 2048 8 8 (1310720)
I1202 19:58:30.564465 93725 net.cpp:137] Memory required for data: 2678896800
I1202 19:58:30.564468 93725 layer_factory.hpp:77] Creating layer pool5
I1202 19:58:30.564474 93725 net.cpp:84] Creating Layer pool5
I1202 19:58:30.564477 93725 net.cpp:406] pool5 <- res5c
I1202 19:58:30.564484 93725 net.cpp:380] pool5 -> pool5
I1202 19:58:30.564505 93725 net.cpp:122] Setting up pool5
I1202 19:58:30.564510 93725 net.cpp:129] Top shape: 10 2048 2 2 (81920)
I1202 19:58:30.564513 93725 net.cpp:137] Memory required for data: 2679224480
I1202 19:58:30.564515 93725 layer_factory.hpp:77] Creating layer fc80
I1202 19:58:30.564523 93725 net.cpp:84] Creating Layer fc80
I1202 19:58:30.564527 93725 net.cpp:406] fc80 <- pool5
I1202 19:58:30.564532 93725 net.cpp:380] fc80 -> fc80
I1202 19:58:30.570921 93725 net.cpp:122] Setting up fc80
I1202 19:58:30.570932 93725 net.cpp:129] Top shape: 10 80 (800)
I1202 19:58:30.570942 93725 net.cpp:137] Memory required for data: 2679227680
I1202 19:58:30.570948 93725 layer_factory.hpp:77] Creating layer fc80_fc80_0_split
I1202 19:58:30.570956 93725 net.cpp:84] Creating Layer fc80_fc80_0_split
I1202 19:58:30.570960 93725 net.cpp:406] fc80_fc80_0_split <- fc80
I1202 19:58:30.570966 93725 net.cpp:380] fc80_fc80_0_split -> fc80_fc80_0_split_0
I1202 19:58:30.570971 93725 net.cpp:380] fc80_fc80_0_split -> fc80_fc80_0_split_1
I1202 19:58:30.570976 93725 net.cpp:380] fc80_fc80_0_split -> fc80_fc80_0_split_2
I1202 19:58:30.571018 93725 net.cpp:122] Setting up fc80_fc80_0_split
I1202 19:58:30.571024 93725 net.cpp:129] Top shape: 10 80 (800)
I1202 19:58:30.571027 93725 net.cpp:129] Top shape: 10 80 (800)
I1202 19:58:30.571030 93725 net.cpp:129] Top shape: 10 80 (800)
I1202 19:58:30.571033 93725 net.cpp:137] Memory required for data: 2679237280
I1202 19:58:30.571035 93725 layer_factory.hpp:77] Creating layer loss
I1202 19:58:30.571040 93725 net.cpp:84] Creating Layer loss
I1202 19:58:30.571043 93725 net.cpp:406] loss <- fc80_fc80_0_split_0
I1202 19:58:30.571048 93725 net.cpp:406] loss <- label_data_1_split_0
I1202 19:58:30.571053 93725 net.cpp:380] loss -> loss
…
